model/best_model_SK_fin.pth (torch, 545186 bytes, 12 tensors)

lstm_model.lstm.weight_ih_l0 f4 [512, 109]
-0.015504326 0.020824425 0.02370956 0.04103797 0.029370816 0.032000937 0.024890805 0.027497385
0.027125943 0.033423316 0.025614161 0.02647866 0.033984378 0.030830372 0.026988622 0.024876878
0.036338326 0.026729912 0.026091207 0.027791081 0.029030006 0.02612968 -0.034047794 -0.023832973
-0.026948722 -0.028182227 0.01945408 -0.023740841 -0.021421114 -0.031977613 -0.022815363 -0.022603871
0.023994757 -0.04231398 0.026876125 0.028523553 0.028366294 0.014565059 -0.016316999 -0.017624967
-0.021099418 -0.01739378 -0.015049677 -0.015614851 0.029118776 0.037451535 0.03669689 0.037782542
-0.040950004 -0.01590148 -0.020866478 -0.018049356 -0.022774667 -0.02185524 -0.0138308 -0.016037555
-0.020152334 -0.02354458 0.041767307 0.03703586 0.0394559 0.037457604 0.04098244 0.044394508
0.0345806 0.037459042 0.03960546 0.04072599 0.037767448 0.03523998 0.039527178 0.043148413
0.038285185 0.038242187 0.038138058 0.03932938 0.03643524 0.04089296 0.04397322 -0.01292066
-0.024700837 0.036570948 0.015561801 0.017937917 0.018164854 0.020332877 0.013586816 -0.05008533
-0.054057445 -0.047392122 -0.031643204 0.041910794 0.029360067 -0.037434217 -0.03244268 -0.027248261
-0.032285944 -0.009858766 -0.0123383 -0.013306541 -0.034751523 -0.02816459 0.029932112 0.03552127
0.027087754 -0.014888738 0.038024973 0.034793627 -0.024323063 -0.014985658 0.039468713 0.056512676
0.06361249 0.027503567 0.0668882 0.07156266 0.051335484 0.08994818 0.043299913 0.05370917
-0.0092203915 0.055097297 0.07481578 0.07445246 0.040924318 0.045958977 0.080415145 0.023533305
0.05493691 0.070775434 0.05264275 -0.0008106511 -0.009321239 -0.005158486 -0.0051238164 -0.0075476747
-0.009887271 -0.010302063 -0.0026056387 -0.002893356 -0.00032236974 0.0049819606 -0.0063803634 0.02481954
0.021830149 0.035458647 0.0120148845 -0.009878352 -0.018550979 -0.01680998 -0.015796173 -0.008053946
-0.0049939235 0.0002891613 0.06333275 0.051851325 0.05760335 0.05544093 0.055754703 -0.018728305
-0.0117708435 -0.020992074 -0.02069619 -0.013987768 -0.018746598 -0.011090363 -0.015680103 0.061024405
0.07913339 0.045905497 0.050174467 0.07161115 0.053993423 0.055605702 0.07853624 0.063188806
0.05293026 0.06936458 0.067717746 0.060345985 0.072911635 0.06828019 0.059360664 0.07036275
0.07227328 0.06409067 0.071171045 0.06720822 0.003323024 -0.01084185 0.048898164 0.0660059
0.073265284 -0.022386862 -0.017901737 0.05702227 0.036679287 0.020322436 0.0031190508 0.079763055
0.07180419 0.05158783 -0.023418805 -0.035052672 -0.029900935 -0.03727864 0.007450582 0.009170801
0.011408941 0.013896757 -0.01752555 -0.012722582 0.008269256 -0.010388956 -0.04711401 -0.008248709
-0.029954879 -0.023296256 -0.0025486755 0.0063707856 0.0019413965 -0.00076603953 0.0016782486 0.009853279
-0.0005496568 -0.00082379486 0.0077866637 0.006717763 0.0071878936 0.0048542195 0.0061695967 0.0048401756
0.0077890027 0.008568155 0.0065905186 0.008559024 0.0026547736 0.0055691847 0.006032799 0.0053555174
0.0009803778 -0.009442928 0.0016692446 -0.006011611 -0.0081970375 -0.006260991 0.0014061893 -0.0051586214
-0.008214105 0.0028649387 -0.002833062 -0.0008314712 -0.00013301994 -0.00601189 -0.0043966323 -0.004962934
00000000: db05 7ebc fc97 aa3c 8d3a c23c 6e17 283d
00000010: 119b f03c 6a13 033d cde7 cb3c 3242 e13c
00000020: 3a37 de3c e3e6 083d cad4 d13c c6e9 d83c
00000030: 3433 0b3d fa8f fc3c 3e17 dd3c 98ca cb3c
00000040: 7fd7 143d b0f8 da3c 3abd d53c 1faa e33c
00000050: 56d0 ed3c e90d d63c b375 0bbd 5e3d c3bc
00000060: 91c3 dcbc 6ade e6bc 2a5e 9f3c 277c c2bc
00000070: 557b afbc f5fa 02bd 49e7 babc c12b b9bc
00000080: a790 c43c 6d51 2dbd 522b dc3c 3aaa e93c
00000090: 6e60 e83c 49a2 6e3c 3aab 85bc 3c62 90bc
000000a0: b0d8 acbc 677d 8ebc ec92 76bc 6fd5 7fbc
000000b0: 808a ee3c c866 193d 7a4f 163d dec1 1a3d
000000c0: 31bb 27bd d243 82bc 2df0 aabc 3edc 93bc
000000d0: f091 babc c309 b3bc 949a 62bc 3161 83bc
000000e0: 8216 a5bc 90e0 c0bc 3214 2b3d eab2 173d
000000f0: 839c 213d 256d 193d 34dd 273d 04d7 353d
00000100: 63a4 0d3d a76e 193d 5639 223d 4cd0 263d
00000110: 0ab2 1a3d cc57 103d 40e7 213d 64bc 303d
00000120: edd0 1c3d d7a3 1c3d a736 1c3d d817 213d
00000130: 1e3d 153d 607f 273d 431d 343d 2db1 53bc
00000140: 6959 cabc 6bcb 153d edf6 7e3c 8af2 923c
00000150: 76ce 943c 2291 a63c 3d9b 5e3c 4626 4dbd
00000160: 576b 5dbd 3e1e 42bd 4e9c 01bd a7aa 2b3d
00000170: 8684 f03c 9f54 19bd 9ee2 04bd bf37 dfbc
00000180: 443e 04bd a986 21bc 9526 4abc ae03 5abc
00000190: 9d57 0ebd 6db9 e6bc 3034 f53c c07e 113d
000001a0: 23e7 dd3c e5ef 73bc 13c0 1b3d c383 0e3d
000001b0: 2941 c7bc 6886 75bc f2a9 213d d679 673d
000001c0: 4447 823d 294f e13c aefc 883d 728f 923d
000001d0: 2845 523d c036 b83d 405b 313d 26fe 5b3d
000001e0: 2011 17bc b4ad 613d 0439 993d 887a 983d
000001f0: 42a0 273d 7b3f 3c3d b2b0 a43d ebc8 c03c
00000200: 8605 613d b6f2 903d ed9f 573d e081 54ba
00000210: 1cb8 18bc 8408 a9bb b0e5 a7bb 7c52 f7bb
00000220: 38fe 21bc fcc9 28bc 5dc3 2abb 759e 3dbb
00000230: bc03 a9b9 b73f a33b 5e12 d1bb 5952 cb3c
00000240: 24d5 b23c 163d 113d 14da 443c d0d8 21bc
00000250: 39f8 97bc 15b5 89bc fa66 81bc b3f4 03bc
00000260: 11a4 a3bb 939a 9739 9ab4 813d 0e62 543d
00000270: 7ef1 6b3d 0716 633d 0b5f 643d 1a6c 99bc
00000280: 7fda 40bc 92f7 abbc 0e8b a9bc f42c 65bc
00000290: 7792 99bc 5bb4 35bc 8f73 80bc baf4 793d
000002a0: b010 a23d 6707 3c3d be83 4d3d dea8 923d
000002b0: 3528 5d3d cec2 633d 9cd7 a03d 2269 813d
000002c0: 66cd 583d 040f 8e3d 9aaf 8a3d 5a2d 773d
000002d0: b252 953d 7cd6 8b3d 2b24 733d 581a 903d
000002e0: 0304 943d f841 833d 20c2 913d 77a4 893d
000002f0: 17c7 593b 04a2 31bc 7149 483d 1a2e 873d
00000300: 1c0c 963d a764 b7bc aaa6 92bc 2f90 693d
00000310: 053d 163d 3d7b a63c fd68 4c3b d05a a33d
00000320: 130e 933d c34d 533d cbd8 bfbc 6493 0fbd
00000330: cef2 f4bc 7db1 18bd 0324 f43b 2141 163c
00000340: 91ec 3a3c 39af 633c be91 8fbc 6072 50bc
00000350: c67b 073c 7136 2abc 9ffa 40bd 9825 07bc
00000360: ef63 f5bc cad7 bebc ae07 27bb 06c2 d03b
00000370: 7576 fe3a 0bd0 48ba aef8 db3a a66f 213c
00000380: d816 10ba f0f3 57ba 4527 ff3b ae20 dc3b
00000390: 6c88 eb3b 2510 9f3b 542a ca3b 569a 9e3b
000003a0: e43a ff3b 7261 0c3c 47f5 d73b 263b 0c3c
000003b0: b6fb 2d3b b57d b63b c9ae c53b 567d af3b
000003c0: 0580 803a 83b6 1abc 8eca da3a 0cfd c4bb
000003d0: de4c 06bc 0029 cdbb e24f b83a a709 a9bb
000003e0: 7494 06bc b2c1 3b3b e5aa 39bb 16f7 59ba
000003f0: 457b 0bb9 63ff c4bb a011 90bb 1ca0 a2bb

lstm_model.lstm.weight_hh_l0 f4 [512, 128]
-0.05302684 0.025643472 4.6980644e-05 -0.042086456 0.0042541595 0.021953817 0.022776749 0.00022362087
0.0055853855 -0.003081737 0.025475549 0.005440696 -0.0015729847 0.0018490338 0.0032189817 0.02678264
-0.0020125574 -0.02378789 -0.0011599916 0.026382655 0.0024665457 -0.021520013 0.023135087 0.023007343
0.003975047 0.0014153065 0.027820386 0.0001977255 0.0031900152 0.004163668 0.022643665 0.025473867
0.0017641474 -0.003229648 0.024558496 0.021038286 0.022857152 -0.018472608 0.026024705 0.026672719
-0.0035048744 -0.027788142 -0.0267057 -0.005303406 -0.028032409 -0.0026152434 -0.0012968259 0.004119855
0.00084975624 0.03635413 0.0025202516 -0.004532411 0.021085382 -0.004206974 -0.0015690636 -0.000560063
-0.024898626 -0.028520972 0.005594438 0.03332248 -0.001504421 -0.026116077 -0.029641569 -0.028480595
-0.0012049291 -0.025668347 -0.0071357517 -0.0020490845 0.028802143 0.024741434 0.0013784271 -0.008243214
-0.0010391707 -0.019474277 -0.023569642 -0.002247996 0.0038977663 -0.00075728126 0.0008374193 0.019247008
-0.02529322 0.020197725 0.0048315204 0.026118953 0.020895522 0.026189385 0.00055358885 -9.833593e-05
-0.0012933009 -0.026850741 0.02126628 0.0015138033 0.025321338 -0.0017164188 -0.02991836 0.0015096132
0.024357654 0.008193075 -0.0045840247 0.022982275 -0.02178708 -0.028184222 -0.03077198 -0.0014603887
0.0019975929 0.0025493095 -0.025816267 0.028098255 -0.029309055 -0.028581113 -0.0034859106 0.0047294768
-0.0028049513 0.025048887 -0.0190688 0.020885026 0.0021056207 0.028511615 -0.024421403 0.027536018
-0.026648667 -1.25915e-05 -0.0066931727 0.0025381495 -0.000107644046 -0.02888549 -0.00046912476 0.0012375923
-0.013634744 0.048329398 0.0022377465 0.06344023 0.005498256 0.047122907 0.06447861 -0.016465137
-0.0024981587 0.005086603 0.061088488 -0.0021735241 -0.0386827 -0.004186585 -0.0019427958 0.06121349
-0.06818205 -0.06431843 0.0033573748 0.059903365 0.00027702804 0.047817744 0.06414913 0.051132105
0.0033182406 0.0012780427 0.06526814 -0.039701123 -0.00266032 -0.003546913 0.06771645 0.068823785
-0.037985824 -0.016991457 0.066565655 0.040640417 -0.011229416 0.042344585 0.013063465 0.06263373
0.0017119619 -0.070086464 -0.06484611 0.0049907793 -0.06760382 -0.04324321 0.0038301302 -0.006794204
0.0005579654 -0.06866764 -0.017913582 0.0036882083 0.063574925 0.009995006 -0.0060799117 0.033936374
-0.05932473 -0.06358567 0.005757718 -0.044488072 0.0127529325 -0.043910377 0.014978614 -0.042282753
0.0034792766 -0.04754382 0.004946394 -0.03549666 0.06351292 0.06335486 -0.0355999 -0.06494613
0.039969362 -0.010305905 -0.062436283 -0.001352646 0.0077286605 0.0005364167 -0.041694734 -0.041020148
-0.0699435 0.038658384 -0.0034780186 -0.014971945 0.06464712 0.06992964 -0.004825431 -0.0051198355
-0.035674144 -0.028595492 0.065144785 -0.004870808 0.06989519 -0.0022842658 -0.063752 -0.0070899767
-0.006131077 0.037135225 -0.0025531629 0.06600701 -0.06522731 -0.06668379 -0.040586825 0.0025384768
0.0027038709 -0.0033691782 -0.06610201 0.065976456 -0.042525277 0.07040083 0.04174201 -0.015869388
0.003124715 0.0596905 -0.030118711 0.07028951 -0.040681943 0.06909061 -0.06093461 0.06310238
-0.03843504 0.041389365 0.000100065525 0.03914535 -0.039229803 -0.06045389 0.005678121 0.0014133343
00000000: ac32 59bd 4212 d23c 150d 4538 d962 2cbd
00000010: 7a66 8b3b 7ed8 b33c 4e96 ba3c c57b 6a39
00000020: 9c05 b73b f8f6 49bb 19b2 d03c de47 b23b
00000030: 9c2c ceba 475b f23a 8df5 523b 4467 db3c
00000040: 1ce5 03bb d2de c2bc dc0a 98ba 7020 d83c
00000050: c5a5 213b bd4a b0bc cb85 bd3c e579 bc3c
00000060: 1c41 823b ce81 b93a 94e7 e33c 8954 4f39
00000070: 930f 513b 616f 883b 357f b93c 92ae d03c
00000080: f73a e73a 81a8 53bb e62e c93c 7c58 ac3c
00000090: ec3e bb3c de53 97bc c331 d53c bf80 da3c
000000a0: 09b2 65bb f5a3 e3bc eac5 dabc 32c8 adbb
000000b0: 39a4 e5bc 8164 2bbb 42fa a9ba d9ff 863b
000000c0: 2dc2 5e3a 11e8 143d ce2a 253b 9f84 94bb
000000d0: 40bb ac3c a8da 89bb 0aa9 cdba 31d1 12ba
000000e0: 34f8 cbbc d0a4 e9bc 8c51 b73b 277d 083d
000000f0: fe2f c5ba 62f1 d5bc e0d2 f2bc 2350 e9bc
00000100: b6ee 9dba 6d46 d2bc 06d3 e9bb ef49 06bb
00000110: 79f2 eb3c 8cae ca3c 57ac b43a 8c0e 07bc
00000120: c834 88ba 8588 9fbc 1f15 c1bc 1d53 13bb
00000130: ab71 7f3b 4984 46ba 4286 5b3a e7ab 9d3c
00000140: ba33 cfbc b375 a53c bb51 9e3b 6af7 d53c
00000150: 162d ab3c 1f8b d63c b81e 113a b339 ceb8
00000160: fa83 a9ba 16f6 dbbc 9f36 ae3c cf6a c63a
00000170: b26e cf3c 75f9 e0ba 5917 f5bc 37de c53a
00000180: b489 c73c 3f3c 063c 9635 96bb 5345 bc3c
00000190: d27a b2bc 99e2 e6bc 8515 fcbc 836a bfba
000001a0: 0cea 023b 5112 273b a37c d3bc 502e e63c
000001b0: 8b19 f0bc f022 eabc e073 64bb baf9 9a3b
000001c0: 46d3 37bb 5333 cd3c 2c36 9cbc 1317 ab3c
000001d0: 74fe 093b 3191 e93c 650f c8bc 3793 e13c
000001e0: 4e4e dabc 1540 53b7 6752 dbbb 1557 263b
000001f0: f5be e1b8 43a1 ecbc dcf4 f5b9 b536 a23a
00000200: 4364 5fbc 0cf5 453d 28a7 123b f4ec 813d
00000210: b72a b43b f303 413d 5d0d 843d e5e1 86bc
00000220: 26b8 23bb 85ad a63b ec37 7a3d af71 0ebb
00000230: c071 1ebd 9f2f 89bb 69a5 feba ffba 7a3d
00000240: 08a3 8bbd 62b9 83bd 6707 5c3b 3b5d 753d
00000250: 133e 9139 8adc 433d 9e60 833d e66f 513d
00000260: d776 593b ff83 a73a 4dab 853d a59d 22bd
00000270: c358 2ebb 5373 68bb ecae 8a3d 7cf3 8c3d
00000280: 0697 1bbd ab31 8bbc 9353 883d 9176 263d
00000290: 96fb 37bc 8471 2d3d 2508 563c 1d46 803d
000002a0: e963 e03a 7e89 8fbd 0ace 84bd b189 a33b
000002b0: df73 8abd cb1f 31bd ec02 7b3b eaa1 debb
000002c0: 6d44 123a 9fa1 8cbd 81bf 92bc deb5 713b
000002d0: 9233 823d 18c2 233c ff39 c7bb de00 0b3d
000002e0: 7dfe 72bd 3439 82bd 3dab bc3b 2039 36bd
000002f0: adf1 503c 5edb 33bd dc68 753c ae30 2dbd
00000300: 9304 643b 4fbd 42bd 5c15 a23b f264 11bd
00000310: 1013 823d 31c0 813d 33d1 11bd 7a02 85bd
00000320: eab6 233d 19da 28bc 30bd 7fbd 454b b1ba
00000330: b440 fd3b 519e 0c3a 19c8 2abd be04 28bd
00000340: 8a3e 8fbd 4158 1e3d 78ef 63bb e44c 75bc
00000350: b665 843d 4537 8f3d a61e 9ebb 4bc4 a7bb
00000360: 0d1f 12bd 1841 eabc a16a 853d 4d9b 9fbb
00000370: 3625 8f3d 9fb3 15bb 6990 82bd 0953 e8bb
00000380: 34e7 c8bb 1b1b 183d f752 27bb af2e 873d
00000390: e595 85bd 8391 88bd 5f3e 26bd 935c 263b
000003a0: 6d33 313b 6ecd 5cbb 7e60 87bd aa1e 873d
000003b0: fc2e 2ebd 4f2e 903d abf9 2a3d 8500 82bc
000003c0: 05c8 4c3b 077e 743d 84bb f6bc f2f3 8f3d
000003d0: 1ca2 26bd 617f 8d3d 9296 79bd d23b 813d
000003e0: 0f6e 1dbd e587 293d 45da d138 e056 203d
000003f0: 6eaf 20bd 809e 77bd 880f ba3b a13f b93a

lstm_model.lstm.bias_ih_l0 f4 [512]
0.032731034 0.067766845 0.0034347184 0.036494777 -0.026543055 0.020580301 0.036217485 0.0017398676
-0.010009705 -0.045445625 0.031845473 -0.05102072 0.04888445 -0.03368842 -0.0010063405 0.04757087
0.029542968 0.05950783 0.035155628 0.061195295 0.006718051 0.03761009 0.044820637 0.05167864
0.012282881 -0.00046916262 0.009255632 0.020244153 -0.0030107454 -0.0013176139 0.035433672 0.04083304
0.029811794 -0.030436788 -0.06081372 -0.075389974 0.011334347 0.043495823 0.038548578 0.019725664
0.0074733715 0.035743058 0.0055027646 -0.008503152 0.029071352 -0.05721162 -0.02248137 -3.8701815e-05
-0.026499784 0.02296164 0.007155115 -0.035935014 0.03966515 0.0052000363 -0.027663277 0.0058587743
0.04490048 0.029576382 -0.04314418 0.013558148 0.0027831676 0.044018272 0.013483885 0.02393459
0.010288971 0.013445145 0.017134182 0.0063530933 0.026055967 0.009524489 0.014687012 0.025453398
0.007819372 0.036334388 0.034349542 -0.04550183 0.005620829 -0.038670536 0.0058126412 0.02282482
0.019839145 0.025977427 -0.029725343 0.059332542 0.010901505 0.029479267 0.026459346 0.0015134708
0.0016489901 0.08597654 0.04074747 0.0005350428 0.058035064 0.0011706861 0.013629244 0.004632024
0.014330089 -0.07339557 -0.03172556 0.034150925 0.03014589 0.03853081 0.01910615 -0.03744091
0.013057437 -0.03471309 0.039357428 0.01832957 0.007953528 0.04158466 0.009138473 0.005093103
-0.054409605 0.03582336 0.030760404 0.050842904 -0.057990935 0.0030186526 0.07427527 0.035120577
0.042293698 0.0138406735 0.00023374276 0.013178511 0.018583104 0.030660398 -0.14160725 -0.07080997
0.031107718 -0.042032775 0.0051551326 0.014291409 -0.000547275 0.007394258 0.030755732 0.003404235
0.00057553087 0.028302124 -0.06609366 -0.0117698945 0.03165394 -0.005357468 -0.0076519214 0.0172403
0.01514499 0.04105809 0.034657415 -0.035217296 0.016559308 0.011104394 0.036254283 -0.06603691
-0.0032596313 -0.0014475728 0.14430629 0.032758944 0.005200159 -0.0017364662 -0.024872568 0.047474198
0.024693538 0.0036596572 0.056039706 -0.0128136035 0.034175564 0.025052376 0.021342877 0.023991523
0.0065772524 0.02894771 0.018767852 0.00038038436 0.00856549 0.01913722 -0.004209668 0.008307054
-0.013920675 0.052955218 0.010061191 -0.025440184 0.0065745777 0.0025900262 -0.027591093 0.01527064
-0.03623243 0.023261907 -0.027587978 0.03192771 0.0044955267 0.031417288 0.011939913 0.03024937
0.0006299722 0.0066823037 0.007477907 0.044280633 0.02510719 0.03179074 0.00029386327 0.019324621
0.021320703 0.01146378 0.027450792 -0.014756501 -0.003312333 -0.03012043 0.013066476 0.032871105
0.012168639 0.032169066 -0.011129974 0.01609969 0.014539442 0.0074643195 0.017723192 0.001811947
0.006530413 -0.05408963 -0.04692649 0.0069114603 0.039353874 0.0016844089 0.032150652 0.0019144462
0.04325162 -0.017434852 -0.008666092 0.021656018 0.01864418 0.02111331 0.010096149 -0.0036472017
0.003618166 -0.017126912 0.009123707 -0.061337296 0.024358654 0.036854282 0.00464336 0.009801946
-0.040978126 0.04050722 -0.06119624 0.03286338 -0.017787684 0.022078685 -0.06363446 0.04527605
0.034597516 0.01052105 0.010324616 0.008369107 0.025715562 0.030026678 0.029344676 0.0050049513
00000000: fa10 063d 58c9 8a3d 0319 613b 8c7b 153d
00000010: d270 d9bc 0598 a83c c958 143d 450c e43a
00000020: bfff 23bc 3125 3abd 6670 023d 1afb 50bd
00000030: 103b 483d defc 09bd 2fe7 83ba acd9 423d
00000040: 1804 f23c 7bbe 733d 59ff 0f3d eba7 7a3d
00000050: 1923 dc3b 0a0d 1a3d d895 373d fbac 533d
00000060: 233e 493c f1f9 f5b9 efa4 173c 11d7 a53c
00000070: ed4f 45bb c9b3 acba e622 113d 8c40 273d
00000080: dd37 f43c 9256 f9bc cf17 79bd 0f66 9abd
00000090: b2b3 393c ad28 323d 1de5 1d3d b797 a13c
000000a0: 2fe3 f43b 5067 123d 8950 b43b ce50 0bbc
000000b0: 0b27 ee3c bb56 6abd da2a b8bc c253 22b8
000000c0: 1316 d9bc 0d1a bc3c 7475 ea3b 9830 13bd
000000d0: ed77 223d 1165 aa3b 199e e2bc f6fa bf3b
000000e0: 91e9 373d 2b4a f23c f4b7 30bd ff22 5e3c
000000f0: ce65 363b 814c 343d 83eb 5c3c 7912 c43c
00000100: 1293 283c 0749 5c3c fc5c 8c3c 9c2d d03b
00000110: 5373 d53c 9a0c 1c3c cba1 703c a583 d03c
00000120: d31c 003c 5ed3 143d 1bb2 0c3d 2060 3abd
00000130: ee2e b83b ff64 1ebd f877 be3b 1efb ba3c
00000140: b485 a23c 9dce d43c 9082 f3bc ae06 733d
00000150: 3a9c 323c 817e f13c 45c1 d83c a75f c63a
00000160: ed22 d83a 7814 b03d d2e6 263d 1d42 0c3a
00000170: 2db6 6d3d b571 993a 314d 5f3c 3cc8 973b
00000180: c0c8 6a3c 6b50 96bd a9f2 01bd d7e1 0b3d
00000190: 83f4 f63c 7cd2 1d3d 8084 9c3c a45b 19bd
000001a0: dcee 553c 502f 0ebd 4135 213d e527 963c
000001b0: 844f 023c ad54 2a3d 89b9 153c 0be4 a63b
000001c0: 9bdc 5ebd 84bb 123d 3efd fb3c a640 503d
000001d0: e787 6dbd 96d4 453b a21d 983d 98da 0f3d
000001e0: 283c 2d3d fec3 623c d818 7539 aeea 573c
000001f0: 983b 983c 842b fb3c 7e01 11be d104 91bd
00000200: 9dd5 fe3c 8f2a 2cbd 63ec a83b 8426 6a3c
00000210: 0177 0fba 884b f23b 72f3 fb3c 9619 5f3b
00000220: 39df 163a dbd9 e73c 1d5c 87bd 84d6 40bc
00000230: 90a7 013d b38d afbb f8bc fabb 883b 8d3c
00000240: b122 783c 872c 283d eff4 0d3d 0340 10bd
00000250: 63a7 873c 34ef 353c 5f7f 143d 5c3e 87bd
00000260: 8a9f 55bb 7cbc bdba 07c5 133e 3e2e 063d
00000270: 1866 aa3b 239a e3ba 8ec1 cbbc 4e74 423d
00000280: 1a4a ca3c dcd6 6f3b e489 653d 26f0 51bc
00000290: adfb 0b3d a43a cd3c 42d7 ae3c df89 c43c
000002a0: fe85 d73b bf23 ed3c 0abf 993c 536e c739
000002b0: 4556 0c3c a9c5 9c3c 41f1 89bb 4f1a 083c
000002c0: 8b13 64bc 92e7 583d b2d7 243c ef67 d0bc
000002d0: 8e6f d73b 6ebd 293b b706 e2bc b531 7a3c
000002e0: 7568 14bd c18f be3c 2f00 e2bc a1c6 023d
000002f0: 364f 933b 6aaf 003d a09f 433c 87cd f73c
00000300: b824 253a 3af7 da3b 3b09 f53b 9c5f 353d
00000310: 98ad cd3c 0237 023d a911 9a39 ab4e 9e3c
00000320: c1a8 ae3c 94d2 3b3c 7ce0 e03c 40c5 71bc
00000330: ba13 59bb 1fbf f6bc c614 563c daa3 063d
00000340: f95e 473c b6c3 033d 7f5a 36bc 7fe3 833c
00000350: d736 6e3c 4097 f43b 3a30 913c da7e ed3a
00000360: 13fd d53b 168d 5dbd fe35 40bd 8879 e23b
00000370: 8731 213d 62c7 dc3a 67b0 033d 28ee fa3a
00000380: 9c28 313d 89d3 8ebc 39fc 0dbc f667 b13c
00000390: aebb 983c d2f5 ac3c 516a 253c e405 6fbb
000003a0: c11e 6d3b bd4d 8cbc 9a7b 153c d13c 7bbd
000003b0: cd8b c73c 84f4 163d 5427 983b 5798 203c
000003c0: aed8 27bd e6ea 253d e9a8 7abd c09b 063d
000003d0: 7ab7 91bc 5cde b43c c952 82bd 6173 393d
000003e0: 20b6 0d3d 7b60 2c3c 9428 293c 941e 093c
000003f0: 71a9 d23c 82fa f53c 3f64 f03c 9300 a43b

lstm_model.lstm.bias_hh_l0 f4 [512]
0.027400285 0.06475859 0.0027832233 0.030437084 -0.02813693 0.026300145 0.026292883 0.0068650157
-0.015876047 -0.05168979 0.0346266 -0.045137517 0.053334042 -0.03710068 0.0027532214 0.046572395
0.027291328 0.056742713 0.039127298 0.06770374 0.009152005 0.040288415 0.043988407 0.044949334
0.010728075 -0.0027328618 0.00839369 0.022818834 0.0030359381 0.0029424634 0.042629056 0.044482447
0.033140928 -0.034900047 -0.06864091 -0.08111333 0.0050121997 0.048551627 0.044755466 0.017627707
0.013767473 0.031763572 0.01326146 -0.0033084862 0.023909185 -0.056551103 -0.019988265 0.0027615381
-0.024490792 0.027790274 0.005449365 -0.04690913 0.040703844 0.0039712745 -0.03236615 0.012833736
0.040063836 0.028682763 -0.043393992 0.020440325 0.0005551839 0.038619637 0.017447645 0.020726968
0.00025932209 0.014189896 0.011099006 0.013064263 0.02517377 0.015164177 0.019437063 0.029241243
0.0105645275 0.03565961 0.043404758 -0.048265025 0.0057581966 -0.03898454 0.010227883 0.020966325
0.013228692 0.022241673 -0.032101627 0.056081813 0.018534135 0.024827963 0.021356052 -0.00051333546
0.0062918654 0.08714728 0.041156758 0.0076241824 0.053988576 0.0028530068 0.017159883 0.005639062
0.014547461 -0.07816116 -0.025835523 0.034798816 0.03170265 0.042236716 0.016074426 -0.04220699
0.011678543 -0.033089735 0.03729563 0.024906611 0.008123326 0.04283601 0.011007168 0.015888337
-0.04771864 0.037795782 0.031410858 0.044291407 -0.054179452 0.004084988 0.06887407 0.039775375
0.046136614 0.009528622 0.0033761745 0.0074635 0.010521056 0.021466443 -0.13325723 -0.07026839
0.029894564 -0.035657782 -0.00035682193 0.018079981 -0.005774201 0.009686892 0.029227588 0.0030301865
-0.0027484756 0.036515996 -0.060567684 -0.0137900645 0.035767265 -0.0052976026 -0.0025072305 0.025175838
0.014657039 0.043147385 0.037353948 -0.027787298 0.008088784 0.012941205 0.036780305 -0.07205282
-0.00047282298 -0.0014639504 0.14267533 0.03325702 0.0007886542 0.005200227 -0.03085114 0.04654716
0.026456311 0.0024046944 0.05255957 -0.011018152 0.02591519 0.030830072 0.026138844 0.021580772
0.014687531 0.032581065 0.01674676 0.0044079516 0.011101686 0.018765118 -0.01280759 0.007083368
-0.01915147 0.051942986 0.0025113693 -0.034153685 0.0036668284 0.0037845646 -0.02239818 0.009168988
-0.0381454 0.02190438 -0.035313435 0.035028744 0.0036123712 0.030439768 0.0101593165 0.03241071
-0.0025246376 0.01620031 0.005580089 0.035130188 0.025885897 0.032336485 0.0029638072 0.029738845
0.026813654 0.009163106 0.029976502 -0.01263496 0.00032737755 -0.032107055 0.019228535 0.028746432
0.02108927 0.031394906 -0.0115946345 0.021119932 0.008318437 0.0072235167 0.028337805 -0.0045429356
0.003334999 -0.051580418 -0.056328814 0.007444344 0.037743103 0.0013966607 0.029869845 0.00035763087
0.040661465 -0.019098232 -0.008591181 0.024468841 0.016369935 0.01811702 0.010181678 -0.0026859941
0.0050446736 -0.016301144 0.012841667 -0.060790975 0.020592004 0.041808702 -8.093098e-05 0.008877223
-0.040100373 0.042895466 -0.063088104 0.029890733 -0.013211678 0.031761542 -0.057575703 0.044168465
0.029997207 0.007804321 0.010847456 -0.0007211265 0.026615642 0.023653494 0.029274983 0.009647225
00000000: 9076 e03c 27a0 843d bd66 363b 3157 f93c
00000010: 6b7f e6bc 6773 d73c 2c64 d73c edf3 e03b
00000020: 7c0e 82bc acb8 53bd 9fd4 0d3d 1ee2 38bd
00000030: cc74 5a3d e2f6 17bd 646f 343b b2c2 3e3d
00000040: 1092 df3c 0c6b 683d f243 203d 42a8 8a3d
00000050: 4bf2 153c 7705 253d 302d 343d cb1c 383d
00000060: cfc4 2f3c d019 33bb b085 093c 90ee ba3c
00000070: 97f6 463b 58d6 403b ce9b 2e3d 3a33 363d
00000080: c8be 073d 5af3 0ebd 9b93 8cbd bf1e a6bd
00000090: 613d a43b 12de 463d 8251 373d fb67 903c
000000a0: f890 613c 851a 023d 9846 593c 30d3 58bb
000000b0: 32dd c33c 21a2 67bd 6ebe a3bc ecfa 343b
000000c0: eaa0 c8bc 6ea8 e33c 9690 b23b ca23 40bd
000000d0: 13b9 263d 7721 823b 5e92 04bd 9744 523c
000000e0: fa19 243d 1df8 ea3c e6bd 31bd 7872 a73c
000000f0: c389 113a a02f 1e3d 5dee 8e3c 9acb a93c
00000100: 9ff5 8739 bd7c 683c 9bd8 353c 7e0b 563c
00000110: 3939 ce3c 2b73 783c 7a3a 9f3c 558b ef3c
00000120: d716 2d3c d00f 123d 30c9 313d 8cb1 45bd
00000130: 41af bc3b 41ae 1fbd da92 273c 92c1 ab3c
00000140: 28bd 583c 2b34 b63c ff7c 03bd 0bb6 653d
00000150: e6d4 973c 0364 cb3c e3f2 ae3c 5c91 06ba
00000160: fe2b ce3b 467a b23d fd93 283d 47d4 f93b
00000170: 2023 5d3d 83f9 3a3b e292 8c3c e1c7 b83b
00000180: 7958 6e3c f512 a0bd 05a5 d3bc 3489 0e3d
00000190: a3da 013d 6800 2d3d 84ae 833c 3de1 2cbd
000001a0: 5c57 3f3c 1a89 07bd 4dc3 183d f308 cc3c
000001b0: b317 053c d074 2f3d 6957 343c 4228 823c
000001c0: 9f74 43bd c0cf 1a3d aca8 003d e86a 353d
000001d0: 46eb 5dbd 5ddb 853b d90d 8d3d 81eb 223d
000001e0: bff9 3c3d f01d 1c3c cf42 5d3b 6090 f43b
000001f0: 8260 2c3c 65da af3c 9574 08be e0e8 8fbd
00000200: 72e5 f43c e50d 12bd d413 bbb9 781c 943c
00000210: 8235 bdbb c5b5 1e3c b26e ef3c 1896 463b
00000220: c51f 34bb cc91 153d d215 78bd b9ef 61bc
00000230: b280 123d 8397 adbb 5950 24bb 8f3d ce3c
00000240: 1424 703c 50bb 303d 7400 193d 30a2 e3bc
00000250: d286 043c 5907 543c f2a6 163d 6e90 93bd
00000260: 3ae5 f7b9 06e2 bfba 7b19 123e 8338 083d
00000270: b0bd 4e3a aa66 aa3b 88bb fcbc 3ca8 3e3d
00000280: e8ba d83c 1498 1d3b b448 573d 7b85 34bc
00000290: 184c d43c 598f fc3c 2121 d63c 29ca b03c
000002a0: f8a3 703c b973 053d 8030 893c 9470 903b
000002b0: d9e3 353c 4eb9 993c edd6 51bc 991b e83b
000002c0: 8be3 9cbc 2bc2 543d c995 243b bce4 0bbd
000002d0: 2c4f 703b 7506 783b 637c b7bc 8639 163c
000002e0: 5a3e 1cbd d070 b33c d2a4 10bd 4d7a 0f3d
000002f0: 88bd 6c3b d25c f93c 4373 263c 18c1 043d
00000300: 6474 25bb 83b6 843c 2ed9 b63b ace4 0f3d
00000310: a90e d43c 4373 043d 6f3c 423b e19e f33c
00000320: 4fa8 db3c da20 163c 4891 f53c dd02 4fbc
00000330: dfa3 ab39 b082 03bd 2985 9d3c a37d eb3c
00000340: 68c3 ac3c f297 003d 6cf7 3dbc b503 ad3c
00000350: 0e4a 083c 40b3 ec3b af24 e83c e8dc 94bb
00000360: 0090 5a3b fd45 53bd 0bb9 66bd afef f33b
00000370: 8398 1a3d 2810 b73a 9bb1 f43c 6780 bb39
00000380: a38c 263d e573 9cbc 06c2 0cbc e172 c83c
00000390: 3e1a 863c 256a 943c 0ed1 263c 8107 30bb
000003a0: ca4d a53b fa89 85bc db65 523c f5ff 78bd
000003b0: 90b0 a83c 9a3f 2b3d 7db9 a9b8 c671 113c
000003c0: 4a40 24bd 28b3 2f3d 5634 81bd 69dd f43c
000003d0: cb75 58bc 6418 023d 80d4 6bbd fee9 343d
000003e0: b4bc f53c 64bb ff3b 87b9 313c fb09 3dba
000003f0: 0c09 da3c f9c4 c13c 17d2 ef3c 650f 1e3c

lstm_model.fc1.weight f4 [64, 128]
-0.0023202498 -0.007942101 -0.005984592 -0.014455926 -0.0003924358 -0.027677827 -0.018673332 -0.0038077198
-0.00066242355 0.004154128 -0.02660455 -0.0018904685 0.02084597 0.0041372334 0.0005479266 -0.016559184
0.013111552 0.012338361 -0.005318085 -0.014799608 0.0031636932 -0.028404552 -0.017547129 -0.02400833
0.0010255452 0.0019137297 -0.016537037 0.011440477 0.0026909565 -0.00624818 -0.028868848 -0.020883553
0.028778214 -0.004650493 -0.02523822 -0.013363936 0.024824416 0.015311389 -0.0009904752 -0.0151247615
-0.0030623425 0.026182454 0.010981803 0.003951598 0.017578235 0.01850382 0.003032178 0.0020712446
0.0029927574 0.021504527 -0.0030422513 0.0010840879 -0.020376729 -0.0010424285 0.0026295965 -0.016338736
-0.00145457 0.008451829 -0.0021533011 0.024441985 0.0001353699 0.0018737952 -0.021565108 0.03021649
0.004604961 0.021571979 0.0014827285 0.021602038 -0.019020721 -0.021466445 0.00407831 0.02015337
-0.022962157 0.019270124 0.025051678 -0.003798682 -0.0045135254 0.001209894 0.024702385 0.020664604
0.014454988 -0.02136012 -0.0059669074 0.02158227 -0.02237141 -0.018030103 -0.003641782 -0.004450015
0.026416434 -0.0051687374 -0.014885842 0.0024864248 -0.02177152 -0.0020957263 0.018653892 -0.0032219682
0.017344449 0.0028476287 0.004246145 -0.022420159 0.019136997 0.026985193 0.027680714 0.0010364881
0.0033956598 -0.0006474382 -0.039302047 -0.025684636 0.02398611 -0.026107337 -0.021025969 -0.001404364
0.00173869 -0.02564333 -0.004073263 -0.0207444 0.012704535 -0.026991798 0.025166163 -0.01770701
0.025989676 -0.010336984 0.006587267 -0.0160062 0.027656047 0.010564007 -0.0034117617 -0.004163382
-0.7979624 0.029257234 0.03738754 0.077095084 -0.01347488 0.808978 -0.03438905 -0.0003311969
-0.0038456249 0.010991041 0.011618776 -0.0048940624 -0.06952808 -0.0029281408 0.070716485 0.07330284
-0.72460073 -0.55585235 0.0051544188 0.016449662 0.013380063 0.9534251 -0.002094906 0.802301
-0.03750306 0.028173482 0.0017202199 -0.058907058 0.0034697524 -0.009699154 -0.019932713 0.012739818
0.53243345 0.009543054 0.11666227 0.10751851 -2.0402656 1.0071514 -0.01644065 0.09921513
-0.032805722 -0.0048172185 0.043534342 0.0005071501 0.019153021 -0.05995065 -0.010250847 -0.04447577
0.02188749 -0.7006156 0.024295036 -0.045669552 0.07218996 -0.00797082 -0.026784638 0.06887163
0.07300101 -0.17650448 0.029481385 -0.5097772 0.020493524 -0.09985179 1.0128592 -0.58053005
0.029384198 -0.5846979 -0.009186516 -0.08286214 0.6474799 0.05400234 0.037102096 -0.58528125
0.093439244 -0.300764 -0.090673834 -0.04772628 -0.026967965 -0.05170208 -0.028565511 -0.5608633
0.058356326 0.59785134 0.0077451277 -1.2976524 0.07386683 -0.12561908 0.034214858 -0.009481927
-0.03137709 -0.6992419 0.47766688 0.008122212 0.111896604 -0.0008394057 -0.057414733 0.010189305
0.019071126 -0.029464666 0.05076656 0.5912036 -0.1196446 -0.07559093 -0.39476198 0.010211209
2.0555422 0.02362586 0.026424607 -0.08881055 -0.5543872 0.8975924 0.08271775 -0.008265737
-0.04432661 0.45261043 0.003920778 0.09973456 -0.04679535 -0.06720482 -0.12957665 -0.05092697
-0.49535927 0.01694377 0.03958109 -0.004520593 -0.052053723 -0.19675101 -3.5335848 -0.0433192
00000000: 550f 18bb 961f 02bc 651a c4bb 8cd8 6cbc
00000010: d7bf cdb9 9cbc e2bc d1f8 98bc f08a 79bb
00000020: 7ea6 2dba 5a1f 883b c9f1 d9bc 99c9 f7ba
00000030: 2bc5 aa3c a191 873b bba2 0f3a 20a7 87bc
00000040: d6d1 563c d626 4a3c 5543 aebb 0e7a 72bc
00000050: f755 4f3b aab0 e8bc ffbe 8fbc 1ead c4bc
00000060: 966b 863a 1dd6 fa3a ae78 87bc d770 3b3c
00000070: c25a 303b 88bd ccbb 5d7e ecbc fc13 abbc
00000080: 4ac0 eb3c 2a63 98bb 62c0 cebc 69f4 5abc
00000090: 935c cb3c 9fdc 7a3c d5d2 81ba d9cd 77bc
000000a0: 95b1 48bb 967c d63c 05ed 333c 687c 813b
000000b0: 3b00 903c 5395 973c 81b7 463b b8bd 073b
000000c0: 2322 443b 432a b03c 8260 47bb f417 8e3a
000000d0: 19ed a6bc 19a2 88ba 4f55 2c3b d0d8 85bc
000000e0: 45a7 beba 8a79 0a3c 661e 0dbb 8f3a c83c
000000f0: 15f2 0d39 229a f53a 4fa9 b0bc 9388 f73c
00000100: 36e5 963b b8b7 b03c 1d58 c23a c2f6 b03c
00000110: 58d1 9bbc 66da afbc 58a3 853b ae18 a53c
00000120: 221b bcbc 61dc 9d3c 2d39 cd3c 4ff3 78bb
00000130: 32e6 93bb 4e95 9e3a a85c ca3c d148 a93c
00000140: 9dd4 6c3c 6bfb aebc 0c86 c3bb 4dcd b03c
00000150: 3f44 b7bc deb3 93bc f7aa 6ebb 6ed1 91bb
00000160: 4767 d83c 835e a9bb bfe3 73bc 49f3 223b
00000170: 305a b2bc 7458 09bb 0cd0 983c a827 53bb
00000180: f215 8e3c 489f 3a3b 3f23 8b3b 7baa b7bc
00000190: 31c5 9c3c 0d10 dd3c aac2 e23c c5da 873a
000001a0: b889 5e3b d8b8 29ba 2ffb 20bd 9668 d2bc
000001b0: 857e c43c 0edf d5bc a73e acbc a312 b8ba
000001c0: c1e4 e33a f611 d2bc 0279 85bb 29f0 a9bc
000001d0: af26 503c e71d ddbc 4529 ce3c 4b0e 91bc
000001e0: 4de8 d43c 745c 29bc 00da d73b 6f1f 83bc
000001f0: ef8e e23c a814 2d3c dd97 5fbb fb6c 88bb
00000200: 4447 4cbf deac ef3c ad23 193d 07e4 9d3d
00000210: bec5 5cbc 2f19 4f3f 88db 0cbd 7fa4 adb9
00000220: e106 7cbb c413 343c ae5c 3e3c 5f5e a0bb
00000230: bd64 8ebd 0de6 3fbb ced3 903d cd1f 963d
00000240: 6f7f 39bf 574c 0ebf 66e6 a83b 71c1 863c
00000250: 0d38 5b3c ab13 743f b14a 09bb 9963 4d3f
00000260: cf9c 19bd 13cc e63c 0079 e13a 8748 71bd
00000270: c964 633b 33e9 1ebc ee49 a3bc abba 503c
00000280: 8f4d 083f 785a 1c3c a1ec ee3d aa32 dc3d
00000290: b693 02c0 56ea 803f 8bae 86bc 4d31 cb3d
000002a0: 4b5f 06bd c2d9 9dbb 1151 323d 44f2 043a
000002b0: cce6 9c3c d08e 75bd 2bf3 27bc 3a2c 36bd
000002c0: 654d b33c 8b5b 33bf 6206 c73c ff0f 3bbd
000002d0: 54d8 933d 0b98 02bc 756b dbbc 920c 8d3d
000002e0: 8e81 953d 97bd 34be f282 f13c c280 02bf
000002f0: 09e2 a73c 187f ccbd 5fa5 813f 9e9d 14bf
00000300: 21b7 f03c c3ae 15bf 0a83 16bc a0b3 a9bd
00000310: 3ec1 253f 8f31 5d3d 5ef8 173d fed4 15bf
00000320: 135d bf3d bdfd 99be 34b3 b9bd a27c 43bd
00000330: eceb dcbc 8fc5 53bd 3802 eabc bd94 0fbf
00000340: 0b07 6f3d c90c 193f d7ca fd3b 7919 a6bf
00000350: 7e47 973d 4aa2 00be e124 0c3d 165a 1bbc
00000360: 4385 00bd 8401 33bf c190 f43e 0713 053c
00000370: 0c2a e53d 900b 5cba b62b 6bbd 0bf1 263c
00000380: 0d3b 9c3c e25f f1bc 99f0 4f3d 1e59 173f
00000390: 3a08 f5bd 6bcf 9abd 3e1e cabe ea4c 273c
000003a0: 018e 0340 058b c13c 6b78 d83c 4ee2 b5bd
000003b0: 52ec 0dbf 9ec8 653f ec67 a93d 046d 07bc
000003c0: d28f 35bd 8ebc e73e df79 803b a241 cc3d
000003d0: 7bac 3fbd aea2 89bd beaf 04be cc98 50bd
000003e0: bb9f fdbe a9cd 8a3c c81f 223d 7c21 94bb
000003f0: 4936 55bd 1979 49be 4126 62c0 796f 31bd

lstm_model.fc1.bias f4 [64]
-0.021954434 3.8925982 3.929176 3.8890848 3.9636917 -0.022700353 -0.030307617 3.852649
3.9676125 3.8627915 -0.0075594727 3.9226754 3.8963208 3.8768847 3.944084 3.889342
3.939842 -0.052206922 3.8591561 3.890661 3.9241674 3.9194913 3.9028957 3.827853
3.8864086 -0.022025092 -0.030864837 3.9353952 -0.016793313 3.9461284 3.9009378 3.942324
3.8824968 3.8644865 3.892477 3.9235446 3.8977761 3.5246124 3.9264288 3.9099236
3.8589709 3.8771677 3.9112835 3.854919 3.8746374 3.9599705 3.9308114 -0.024173653
3.8808033 3.919207 3.8677926 3.9324322 3.913304 3.9291103 3.924859 3.8719463
-0.8443474 3.9354603 3.9257019 3.9780936 3.9845989 3.8780806 -0.034104552 3.8935575
00000000: c9d9 b3bc 5420 7940 9f77 7b40 c4e6 7840
00000010: 20ad 7d40 17f6 b9bc ae47 f8bc cd91 7640
00000020: 5ded 7d40 fa37 7740 74b5 f7bb 1d0d 7b40
00000030: 525d 7940 e11e 7840 df6b 7c40 fbea 7840
00000040: 5f26 7c40 edd6 55bd 6afc 7640 9700 7940
00000050: 8f25 7b40 f2d8 7a40 0bc9 7940 8bfb 7440
00000060: ebba 7840 f76d b4bc 41d8 fcbc 84dd 7b40
00000070: 2192 89bc 5e8d 7c40 f7a8 7940 094f 7c40
00000080: d47a 7840 bf53 7740 581e 7940 5b1b 7b40
00000090: 2a75 7940 4093 6140 9c4a 7b40 303c 7a40
000000a0: 61f9 7640 8423 7840 7852 7a40 feb6 7640
000000b0: 0ffa 7740 2870 7d40 6a92 7b40 d307 c6bc
000000c0: 155f 7840 4ad4 7a40 ea89 7740 f8ac 7b40
000000d0: 9373 7a40 8b76 7b40 e430 7b40 f8cd 7740
000000e0: 2727 58bf 95de 7b40 b33e 7b40 1699 7e40
000000f0: ab03 7f40 7932 7840 37b1 0bbd 0c30 7940

lstm_model.fc2.weight f4 [64, 64]
-0.018963039 1.3439138 1.2694738 1.301704 1.2608489 -0.00911144 0.02529689 1.2809955
1.3110375 1.3186864 -0.0096219005 1.2559261 1.3279358 1.327113 1.2695993 1.2370597
1.2616464 0.005098306 1.28765 1.2074099 1.3266803 1.2898937 1.2932041 1.3067011
1.2537469 0.010491078 -0.030302245 1.3103756 -0.014701875 1.2607647 1.3332973 1.3336544
1.3593143 1.2148364 1.319227 1.3214673 1.276317 1.1045967 1.3039666 1.2712537
1.2834219 1.263904 1.2799013 1.2338513 1.3112131 1.2733272 1.2727652 0.020555194
1.2895197 1.295809 1.327376 1.2419443 1.2634485 1.2879653 1.268454 1.3206993
-5.9077053 1.3105713 1.3415732 1.2400441 1.2806116 1.263617 0.011744607 1.3119326
-0.023175718 1.3439825 1.2592139 1.3078102 1.2654948 -0.010780207 0.024243416 1.287491
1.3058009 1.3295618 -0.009287897 1.2543932 1.332282 1.3245068 1.2641683 1.2252519
1.2641904 -0.0037513936 1.2899481 1.2194027 1.3360758 1.2853817 1.291869 1.3069103
1.2431667 0.020719672 -0.021524582 1.3048825 -0.0020851286 1.2612534 1.3230302 1.3190427
1.368215 1.2153981 1.3129284 1.325715 1.2791399 1.1123521 1.3062323 1.2678018
1.2913764 1.2561114 1.2788161 1.2322195 1.3150568 1.2726929 1.277706 0.025461197
1.2917892 1.2870692 1.3304632 1.2413958 1.2669835 1.2932763 1.2708602 1.3230388
-5.9227314 1.3035208 1.3348708 1.230521 1.2776527 1.2615508 0.020189753 1.3260999
-0.017876439 1.336736 1.2585588 1.3114371 1.2627407 -0.020518057 0.012948288 1.285506
1.3074986 1.3227575 -0.010210807 1.258724 1.3277655 1.3202176 1.2682717 1.2354419
1.2659438 0.0052975058 1.2927821 1.2160933 1.3349266 1.2936788 1.299755 1.3117698
1.2444988 0.009873237 -0.02192172 1.3064944 -0.013792805 1.2555974 1.3243864 1.3329847
1.3544005 1.2134889 1.3156813 1.3129927 1.2818526 1.1066777 1.3153259 1.2665527
1.285048 1.2532331 1.2770178 1.2220237 1.3071856 1.2731196 1.2653484 0.015678158
1.3027426 1.2928054 1.3201768 1.2518256 1.257294 1.2971436 1.2690582 1.3193177
-5.9107146 1.3154424 1.3356113 1.2309802 1.2727097 1.2586197 0.014056471 1.3143604
0.015424096 -1.3482132 -1.2659254 -1.2971321 -1.2508528 0.020018164 -0.016027763 -1.2842239
-1.3156921 -1.3153069 0.0011858218 -1.252741 -1.3355846 -1.3231155 -1.2621467 -1.2262558
-1.2545649 -0.00260964 -1.2939808 -1.2151799 -1.3303288 -1.2857652 -1.2946237 -1.302123
-1.2510688 -0.019900389 0.023117116 -1.3093636 0.0017569795 -1.2607305 -1.3281035 -1.3298352
-1.3691173 -1.2093319 -1.3155308 -1.3192717 -1.2848293 -1.1044259 -1.3087033 -1.2632395
-1.2888091 -1.2586278 -1.2678075 -1.2329628 -1.3159193 -1.2868899 -1.270163 -0.015013318
-1.2897943 -1.2903218 -1.3314452 -1.2466514 -1.2615346 -1.2849226 -1.2684164 -1.3160949
5.9100904 -1.3118962 -1.3293782 -1.2369356 -1.2838275 -1.2696513 -0.02418996 -1.3231714
00000000: 6058 9bbc 5e05 ac3f 1e7e a23f 3d9e a63f
00000010: 7f63 a13f 2648 15bc 6c3b cf3c a9f7 a33f
00000020: 14d0 a73f b7ca a83f 2da5 1dbc 30c2 a03f
00000030: cdf9 a93f d7de a93f 3b82 a23f f957 9e3f
00000040: a17d a13f b10f a73b b7d1 a43f 688c 9a3f
00000050: a9d0 a93f 3d1b a53f b687 a53f fb41 a73f
00000060: c77a a03f c5e2 2b3c 6a3c f8bc 63ba a73f
00000070: 22e0 70bc bd60 a13f 7ca9 aa3f 30b5 aa3f
00000080: 03fe ad3f c27f 9b3f 6edc a83f d725 a93f
00000090: 5b5e a33f 6d63 8d3f 61e8 a63f 71b8 a23f
000000a0: 2b47 a43f 9bc7 a13f ced3 a33f d7ee 9d3f
000000b0: d5d5 a73f 63fc a23f f8e9 a23f 5e63 a83c
000000c0: fb0e a53f 12dd a53f 75e7 a93f 08f8 9e3f
000000d0: aeb8 a13f 0cdc a43f b35c a23f ad0c a93f
000000e0: ec0b bdc0 cdc0 a73f acb8 ab3f c4b9 9e3f
000000f0: 15eb a33f 34be a13f 746c 403c 68ed a73f
00000100: 01db bdbc 9e07 ac3f ec2d a13f 5366 a73f
00000110: bcfb a13f 779f 30bc 219a c63c 81cc a43f
00000120: 7c24 a73f 152f aa3f 432c 18bc f58f a03f
00000130: 3788 aa3f 7089 a93f 44d0 a13f 0ed5 9c3f
00000140: fed0 a13f f1d9 75bb 051d a53f 6315 9c3f
00000150: 8804 ab3f 6387 a43f f75b a53f d648 a73f
00000160: 1620 9f3f 4dbc a93c 5254 b0bc 6406 a73f
00000170: a7a6 08bb c070 a13f 0e59 a93f 64d6 a83f
00000180: ab21 af3f 2a92 9b3f 0a0e a83f 07b1 a93f
00000190: dbba a33f 8e61 8e3f 9f32 a73f 5447 a23f
000001a0: d24b a53f 42c8 a03f 3fb0 a33f 5eb9 9d3f
000001b0: c853 a83f 9ae7 a23f df8b a33f 0094 d03c
000001c0: 5959 a53f afbe a43f 9e4c aa3f 0fe6 9e3f
000001d0: 842c a23f 148a a53f 8cab a23f 5659 a93f
000001e0: 0487 bdc0 c5d9 a63f 0cdd aa3f b681 9d3f
000001f0: 208a a33f 7f7a a13f fb64 a53c a4bd a93f
00000200: 9c71 92bc 2a1a ab3f 7418 a13f 2cdd a73f
00000210: 7da1 a13f 7c15 a8bc 0e25 543c 768b a43f
00000220: 1d5c a73f 1e50 a93f 3b4b 27bc de1d a13f
00000230: 38f4 a93f e4fc a83f ba56 a23f f622 9e3f
00000240: 720a a23f b396 ad3b e279 a53f f2a8 9b3f
00000250: e0de aa3f 4497 a53f 5f5e a63f 13e8 a73f
00000260: bd4b 9f3f 5cc3 213c 2e95 b3bc 353b a73f
00000270: 38fb 61bc 6ab7 a03f 7e85 a93f 3e9f aa3f
00000280: ff5c ad3f 9b53 9b3f 3f68 a83f 2510 a83f
00000290: bf13 a43f 9da7 8d3f 995c a83f 661e a23f
000002a0: 747c a43f f169 a03f 5275 a33f 466b 9c3f
000002b0: dc51 a73f 95f5 a23f f0f6 a13f 7b6f 803c
000002c0: 45c0 a63f a67a a53f 8efb a83f d23b a03f
000002d0: 03ef a03f cd08 a63f 8070 a23f 67df a83f
000002e0: 9324 bdc0 6b60 a83f 50f5 aa3f c290 9d3f
000002f0: 27e8 a23f 731a a13f 1d4d 663c f63c a83f
00000300: 59b5 7c3c 4092 acbf d809 a2bf 6d08 a6bf
00000310: f21b a0bf 22fd a33c a84c 83bc 7361 a4bf
00000320: 9968 a8bf fa5b a8bf 946d 9b3a d159 a0bf
00000330: 70f4 aabf d95b a9bf 068e a1bf f3f5 9cbf
00000340: 9595 a0bf 7e06 2bbb 2aa1 a5bf 048b 9bbf
00000350: 3748 aabf f493 a4bf 3bb6 a5bf f7ab a6bf
00000360: 0623 a0bf 2406 a3bc 1b60 bd3c 3a99 a7bf
00000370: 734a e63a 9e5f a1bf 4cff a9bf 0a38 aabf
00000380: 3c3f afbf 63cb 9abf 5063 a8bf e5dd a8bf
00000390: 4975 a4bf d45d 8dbf 9783 a7bf d5b1 a1bf
000003a0: b2f7 a4bf b71a a1bf 8447 a2bf bad1 9dbf
000003b0: 0b70 a8bf cfb8 a4bf b494 a2bf 6bfa 75bc
000003c0: fb17 a5bf 4429 a5bf cc6c aabf 4692 9fbf
000003d0: f779 a1bf 5878 a4bf 785b a2bf cc75 a8bf
000003e0: 761f bd40 37ec a7bf 1129 aabf e853 9ebf
000003f0: 7654 a4bf ef83 a2bf 062a c6bc ae5d a9bf

lstm_model.fc2.bias f4 [64]
24.027296 24.027857 24.02107 -24.017555 24.031462 -24.022467 -24.027357 24.028467
-24.027983 -24.020676 24.024845 -24.02772 -24.03494 -24.03062 24.042011 24.027279
24.041302 24.02769 24.03417 24.029554 24.035383 -24.02593 24.026379 24.035751
24.027235 -24.026348 24.02395 -24.030107 -24.02729 24.027426 24.025667 24.03108
24.037628 24.030249 -24.026392 -24.022951 24.034008 24.025917 24.041655 -24.028582
-24.022774 24.024178 24.02553 -24.025097 -24.021936 -24.031641 -24.027767 -24.03659
-24.01705 24.027006 24.018599 24.027157 24.035173 24.034546 24.03066 -24.032091
24.029778 -24.023993 -24.02994 -24.025887 24.017376 -24.024601 24.022247 24.026104
00000000: e737 c041 0d39 c041 272b c041 f423 c0c1
00000010: 6f40 c041 032e c0c1 0738 c0c1 4d3a c041
00000020: 4f39 c0c1 582a c0c1 e232 c041 c538 c0c1
00000030: 8f47 c0c1 b63e c0c1 0a56 c041 de37 c041
00000040: 9654 c041 b638 c041 fb45 c041 873c c041
00000050: 7748 c041 1b35 c0c1 0636 c041 3849 c041
00000060: c737 c041 f635 c0c1 0d31 c041 a93d c0c1
00000070: e437 c0c1 2b38 c041 9134 c041 a73f c041
00000080: 104d c041 f33d c041 0d36 c0c1 012f c0c1
00000090: a645 c041 1435 c041 4f55 c041 893a c0c1
000000a0: a42e c0c1 8431 c041 4934 c041 6633 c0c1
000000b0: ed2c c0c1 cd40 c0c1 de38 c0c1 f04a c0c1
000000c0: eb22 c0c1 4f37 c041 1726 c041 9e37 c041
000000d0: 0948 c041 c046 c041 cb3e c041 b941 c0c1
000000e0: fc3c c041 2331 c0c1 513d c0c1 0435 c0c1
000000f0: 9623 c041 6232 c0c1 902d c041 7635 c041

fc_news.fc1.weight f4 [64, 2]
9.564949 9.586992 0.0404758 0.0024110489 0.0012116173 -0.04104128 9.4595375 9.497003
-0.038009606 0.027731657 9.509443 9.554745 9.488402 9.448139 0.0017886908 0.005636496
9.416943 9.39127 -0.03507015 0.02375913 -0.03696695 -0.012165941 0.009453076 -0.007952846
9.440196 9.485899 9.449001 9.496817 0.013330087 0.045897845 0.014648136 0.011793575
-0.0030115512 0.03157648 9.692282 9.692786 -0.011526238 0.011965752 9.451516 9.453823
-0.0010213872 0.0046014525 9.561447 9.497069 -0.008893821 -0.0064442935 -0.034368586 0.03435784
-0.002739017 0.0041409237 -0.015374612 -0.009155781 9.638942 9.608346 9.433913 9.473473
-0.04523988 -0.0261139 -0.007870574 -0.043932676 -0.03548037 0.03873491 9.567967 9.546978
-0.018708995 0.03941406 -0.010314267 -0.028476454 9.555761 9.576528 9.630261 9.712737
9.431493 9.460907 0.008883351 -0.04421652 9.548124 9.510863 -0.004591529 -0.029420665
9.417666 9.45356 0.0035714917 -0.03208985 9.43471 9.434307 9.57694 9.516401
9.570814 9.63378 -0.016529445 0.007815826 9.615955 9.602279 0.01847334 0.04427108
9.551274 9.4799 9.622186 9.622543 -0.03300712 -0.01650405 9.512854 9.499424
0.025519237 -0.010060269 0.010787546 0.02121499 9.481394 9.486966 -0.030926863 -0.019016802
9.597894 9.528732 -0.0012060184 -0.020296784 -0.03476015 -0.038642894 9.563262 9.563993
0.0020365936 -0.044204004 9.485758 9.489533 -0.014861739 -0.004632807 -0.0023417016 -0.041914795
00000000: 080a 1941 5264 1941 f4c9 253d b002 1e3b
00000010: 21cf 9e3a e71a 28bd 445a 1741 b9f3 1741
00000020: f6af 1bbd 802d e33c ae26 1841 3ce0 1841
00000030: 7fd0 1741 942b 1741 8172 ea3a 5bb2 b83b
00000040: ccab 1641 a442 1641 b8a5 0fbd 82a2 c23c
00000050: a86a 17bd a853 47bc 13e1 1a3c a74c 02bc
00000060: 0b0b 1741 3ec6 1741 1c2f 1741 f6f2 1741
00000070: 7066 5a3c 61ff 3b3d bcfe 6f3c d739 413c
00000080: 725d 45bb 5756 013d 9613 1b41 a715 1b41
00000090: 8cd8 3cbc 000c 443c 6939 1741 dc42 1741
000000a0: 11e0 85ba c8c7 963b b0fb 1841 fff3 1741
000000b0: 64b7 11bc a72a d3bb 13c6 0cbd ceba 0c3d
000000c0: 1481 33bb 96b0 873b cce5 7bbc 2102 16bc
000000d0: 1b39 1a41 c9bb 1941 4ff1 1641 5893 1741
000000e0: 744d 39bd d1ec d5bc 94f3 00bc c0f2 33bd
000000f0: dd53 11bd 7fa8 1e3d 6516 1941 6cc0 1841
00000100: 9b43 99bc a370 213d 2cfd 28bc 7447 e9bc
00000110: 66e4 1841 7539 1941 8d15 1a41 5f67 1b41
00000120: 65e7 1641 e05f 1741 7a8b 113c 621c 35bd
00000130: 1ec5 1841 7f2c 1841 8974 96bb 9b03 f1bc
00000140: c3ae 1641 c841 1741 b00f 6a3b a670 03bd
00000150: 92f4 1641 ecf2 1641 253b 1941 2e43 1841
00000160: 0e22 1941 f623 1a41 c268 87bc f30d 003c
00000170: f4da 1941 efa2 1941 6755 973c 9855 353d
00000180: 05d2 1841 acad 1741 79f4 1941 f0f5 1941
00000190: 7932 07bd 8033 87bc a634 1841 a4fd 1741
000001a0: b80d d13c d4d3 24bc 3fbe 303c 0fcb ad3c
000001b0: cab3 1741 9dca 1741 555a fdbc 20c9 9bbc
000001c0: f990 1941 b075 1841 4313 9eba 7145 a6bc
000001d0: a960 0ebd 0348 1ebd 1f03 1941 1e06 1941
000001e0: 5f78 053b 420f 35bd aac5 1741 21d5 1741
000001f0: a77e 73bc cdce 97bb 3c77 19bb d9ae 2bbd

fc_news.fc1.bias f4 [64]
9.541835 -0.03571971 -0.019305294 9.526189 0.018473072 9.557279 9.463871 -0.007384288
9.459672 -0.00073359977 -0.021354176 -0.006721368 9.517791 9.503861 -0.03555616 -0.018454185
-0.01910098 9.71265 -0.038593963 9.459619 -0.040312737 9.533822 -0.026304089 0.014792717
-0.03369544 0.011217807 9.597584 9.496879 -0.03394457 0.014381069 -0.03580717 9.53664
-0.0072844406 0.008428517 9.511936 9.697531 9.486909 -0.030961659 9.566965 -0.04198992
9.470956 -0.030799136 9.453237 9.56013 9.6464815 -0.0223342 9.602372 -0.03733954
9.530147 9.586717 -0.007644654 9.579601 -0.020701775 -0.018798184 9.484527 -0.015278467
9.597136 -0.025908083 -0.04038973 9.555139 -0.034017146 9.50357 -0.005074818 -0.040236402
00000000: 5bab 1841 d54e 12bd 2326 9ebc 456b 1841
00000010: d754 973c 9dea 1841 046c 1741 e6f7 f1bb
00000020: d15a 1741 0c4f 40ba f4ee aebc ec3e dcbb
00000030: df48 1841 d10f 1841 56a3 11bd 3b2d 97bc
00000040: a979 9cbc 0467 1b41 b414 1ebd 995a 1741
00000050: f81e 25bd 898a 1841 ac7b d7bc 275d 723c
00000060: 3b04 0abd e5ca 373c b48f 1941 37f3 1741
00000070: 7609 0bbd 939e 6b3c 8aaa 12bd 1496 1841
00000080: 51b2 eebb c317 0a3c e430 1841 1629 1b41
00000090: 61ca 1741 4ea3 fdbc 4a12 1941 9ffd 2bbd
000000a0: 0989 1741 784e fcbc 7540 1741 4bf6 1841
000000b0: fd57 1a41 36f6 b6bc 51a3 1941 58f1 18bd
000000c0: 7b7b 1841 3163 1941 0180 fabb 0c46 1941
000000d0: c596 a9bc a6fe 99bc 9fc0 1741 8952 7abc
000000e0: de8d 1941 303d d4bc b46f 25bd d9e1 1841
000000f0: 9055 0bbd 9f0e 1841 a94a a6bb edce 24bd

fc_news.fc2.weight f4 [1, 64]
9.542726 0.007055702 -0.0027864135 9.477019 -0.007689721 9.517264 9.460374 -0.0008882542
9.4355755 -0.0038533397 -0.0003978525 0.006443098 9.488648 9.488556 0.0048764828 -0.0034336627
-0.007817438 9.658187 0.004710678 9.402225 -0.0076252487 9.536572 -0.0034156782 -0.0010610453
0.003171995 0.0023754954 9.585918 9.465274 0.007110844 -0.0042902967 0.00065814686 9.531058
-0.007925056 0.0025333597 9.530597 9.671887 9.440545 -0.0027715997 9.515198 0.0031011512
9.4195175 0.00042317167 9.399227 9.544927 9.615061 0.0042194184 9.571816 -0.004502603
9.533392 9.580626 0.0064013144 9.537569 -0.0005152134 -0.00041459926 9.481334 -0.00472626
9.551443 -0.0057512037 0.0014340488 9.543118 0.006213592 9.47029 -0.001533224 -0.0043540574
00000000: 01af 1841 8533 e73b 439c 36bb dfa1 1741
00000010: 0efa fbbb b746 1841 b15d 1741 bbd9 68ba
00000020: 1ef8 1641 5088 7cbb dc96 d0b9 a020 d33b
00000030: 81d1 1741 20d1 1741 e7ca 9f3b 4d07 61bb
00000040: b614 00bc ef87 1a41 085c 9a3b 836f 1641
00000050: 39dd f9bb cd95 1841 92d9 5fbb c612 8bba
00000060: 3fe1 4f3b 33ae 1b3b ec5f 1941 c371 1741
00000070: 1502 e93b 9e95 8cbb 7d87 2c3a 377f 1841
00000080: 18d8 01bc b906 263b 537d 1841 0dc0 1a41
00000090: 790c 1741 baa3 35bb 403e 1841 af3c 4b3b
000000a0: 58b6 1641 24dd dd39 3c63 1641 05b8 1841
000000b0: 4ad7 1941 0c43 8a3b 2926 1941 928a 93bb
000000c0: c688 1841 3e4a 1941 1ec2 d13b e299 1841
000000d0: 630f 07ba 925e d9b9 8bb3 1741 bede 9abb
000000e0: b6d2 1841 9874 bcbb b1f6 bb3a 9cb0 1841
000000f0: 639b cb3b 4f86 1741 76f6 c8ba 7bac 8ebb

fc_combined.weight f4 [1, 65]
1.9436522 1.9452533 1.9463634 -1.9464828 1.9439412 -1.9469402 -1.9455026 1.9465882
-1.9408485 -1.945018 1.9492643 -1.9444244 -1.9453185 -1.9418972 1.9422264 1.9428171
1.9424356 1.945664 1.9393717 1.9424806 1.9431839 -1.9427954 1.9437301 1.9423171
1.943979 -1.9488134 1.9482498 -1.9413528 -1.9471347 1.9429479 1.9464355 1.9436444
1.9440084 1.9448564 -1.9453437 -1.9437695 1.9460348 1.9462218 1.9422692 -1.9475446
-1.9485229 1.9481473 1.9487295 -1.9473788 -1.9438156 -1.9451588 -1.9417332 -1.9402076
-1.946059 1.9421765 1.9471571 1.9484304 1.9405378 1.9412369 1.9398022 -1.9464837
1.9453259 -1.9464024 -1.9480144 -1.945553 1.946658 -1.944701 1.9467242 1.9450288
11.144604
00000000: 98c9 f83f 0ffe f83f 7022 f93f 5926 f9bf
00000010: 11d3 f83f 5635 f9bf 3b06 f9bf cd29 f93f
00000020: b96d f8bf 5af6 f8bf 7e81 f93f e6e2 f8bf
00000030: 3200 f9bf 1690 f8bf e09a f83f 3bae f83f
00000040: bba1 f83f 850b f93f 553d f83f 34a3 f83f
00000050: 40ba f83f 85ad f8bf 26cc f83f d99d f83f
00000060: 4ed4 f83f b872 f9bf 4060 f93f 407e f8bf
00000070: b63b f9bf 84b2 f83f cc24 f93f 57c9 f83f
00000080: 44d5 f83f 0ef1 f83f 0601 f9bf 70cd f8bf
00000090: ab17 f93f cc1d f93f 479c f83f 2449 f9bf
000000a0: 3369 f9bf e45c f93f f86f f93f b543 f9bf
000000b0: f3ce f8bf f7fa f8bf b78a f8bf b958 f8bf
000000c0: 7618 f9bf 3d99 f83f 723c f93f 2b66 f93f
000000d0: 8b63 f83f 737a f83f 704b f83f 6126 f9bf
000000e0: 7000 f93f b723 f9bf 8958 f9bf e107 f9bf
000000f0: 172c f93f f6eb f8bf 422e f93f b4f6 f83f
00000100: 4c50 3241
