model/best_model_skhynix.pth (torch, 92932 bytes, 7 tensors)

lstm.weight_ih_l0 f4 [256, 5]
000000 5c 31 85 40 b3 73 92 40 ad de a0 40 7e 3f a5 40
       4.1622753 4.5766234 5.027182 5.1640005
000010 38 9f 06 c1 5b 6e bd 40 c7 ad c0 40 59 2b c0 40
       -8.413872 5.919721 6.021213 6.0052915
000020 5a 81 c6 40 f4 7a dc 3f 13 7e 80 40 29 ba 72 40
       6.20329 1.7225022 4.01539 3.7926123
000030 8d c1 7a 40 c7 74 88 40 c2 b4 85 c0 ba c5 6b 3f
       3.9180634 4.264255 -4.178315 0.9209858
000040 7b 5a 37 3f 6a cf f4 3e cc 61 08 3f 52 a0 3e 3f
       0.7162244 0.47814494 0.53274226 0.7446338
000050 bd d5 0f c0 78 cf 0b c0 53 d0 33 c0 fa b3 22 c0
       -2.2474205 -2.184538 -2.80959 -2.542235
000060 53 82 97 40 d7 11 5b 3f 2f 66 50 3f a8 59 47 3f
       4.7346587 0.85574096 0.8140592 0.7787118
000070 cc 31 3f 3f 0e c7 bc 3f 63 c7 1a 40 a4 bd 23 40
       0.7468536 1.4748247 2.4184196 2.5584497
000080 96 3f 1e 40 c5 94 3f 40 2d 6c 24 40 aa ca c0 bf
       2.472631 2.9934552 2.5691025 -1.5061848
000090 8f 55 bc bf 90 92 0a c0 c9 a3 e6 bf 79 93 65 3f
       -1.471361 -2.1651955 -1.8018733 0.8967815
0000a0 39 a6 0b bf ab 16 ce be 3a a1 02 be cd 26 16 3e
       -0.5455051 -0.4025167 -0.12756816 0.14663239
0000b0 de 03 8c c0 86 8a 7e 40 b7 78 8e 40 64 14 8d 40
       -4.375472 3.9772048 4.4522357 4.408739
0000c0 d2 2c 8a 40 3b c1 81 3f 0e b1 4c 40 e6 25 6b 40
       4.317971 1.0137094 3.1983066 3.6741881
0000d0 aa e5 6e 40 a1 d0 80 40 c9 1a 7f c0 ed b2 3e 41
       3.7327676 4.0254674 -3.9860098 11.918683
0000e0 41 37 51 41 24 ba 42 41 d8 55 53 41 8a 03 30 41
       13.07599 12.1704445 13.208458 11.000864
0000f0 44 55 ad 3f 46 e3 c3 3f b0 1d bb 3f 64 d4 c4 3f
       1.3541646 1.5303733 1.4618435 1.5377316
000100 eb 2b 99 bf ac b3 a3 41 c0 12 a9 41 ba b8 a3 41
       -1.1966528 20.46273 21.134155 20.465199
000110 f7 45 a7 41 34 9e 3c c0 48 be f9 40 50 da ff 40
       20.909163 -2.947156 7.8044777 7.9953995
000120 c9 0d 12 41 85 d9 14 41 4c 86 f2 c0 0f 28 c3 40
       9.1283655 9.303105 -7.5788937 6.09864
000130 49 8c b7 40 d0 66 bb 40 51 52 aa 40 e8 bc a3 40
       5.7358747 5.8563004 5.3225484 5.11681
000140 33 4a 40 3e 53 d4 d7 bd f3 e5 bb 3c 53 77 58 be
       0.18778305 -0.105385445 0.022936797 -0.21139269
000150 ad e1 c1 3e e4 ab 99 40 2a ff 97 40 4b 42 99 40
       0.3786749 4.8022327 4.749898 4.7893424
000160 c3 ff 93 40 64 7e a7 3f c6 d7 00 c0 bc 6d fb bf
       4.624971 1.3085446 -2.0131698 -1.9642863
000170 76 27 f8 bf 13 68 db bf 46 df 2d bf 5f 1b 08 3f
       -1.9387043 -1.7141136 -0.67918813 0.53166765
000180 68 3f f4 3e 78 46 b5 3e ad 2a 97 3e 7f 52 da 3e
       0.47704625 0.35405326 0.29524747 0.42641065
000190 07 89 4a 40 0c 49 40 40 40 b4 55 40 4b df 43 40
       3.1646135 3.0044584 3.3391266 3.0605037
0001a0 49 8e 18 bf c5 a3 c9 40 fe 7d b5 40 87 0b db 40
       -0.5959211 6.3012414 5.67163 6.845157
0001b0 a3 17 df 40 15 7b 97 c0 3c f5 2a 40 e3 25 26 40
       6.9716353 -4.7337747 2.671218 2.5960624
0001c0 d7 c1 29 40 96 0b 2c 40 3d a3 5d 40 32 f1 38 41
       2.652456 2.6882071 3.4630883 11.558886
0001d0 38 b1 39 41 13 bd 39 41 68 62 3b 41 f4 05 96 c0
       11.605766 11.608661 11.711525 -4.6882267
0001e0 56 0d 08 c0 11 35 08 c0 59 b0 ff bf 21 cd 04 c0
       -2.125814 -2.128239 -1.9975692 -2.07502
0001f0 c1 e2 f4 bf 39 1e e8 3f dd 5a e9 3f 45 25 e3 3f
       -1.91317 1.8134223 1.8230854 1.7745749
000200 37 6e db 3f 0b f9 36 bc 39 cb 7e 40 fa 56 64 40
       1.714301 -0.011167775 3.9811537 3.5678086
000210 09 48 6b 40 cf 9c 78 40 25 5a d7 bf 40 f4 39 ba
       3.6762717 3.8845708 -1.6824385 -0.0007093586
000220 64 30 4b 3e b2 4a 97 be 6c 5b 6d be 29 ea 0c 41
       0.19842678 -0.29549176 -0.23179406 8.807168
000230 63 3a 81 41 4a 97 87 41 ac 88 82 41 02 18 88 41
       16.15351 16.948872 16.316734 17.011723
000240 c3 8b d6 40 04 57 1c c1 77 c9 1a c1 2f e3 23 c1
       6.7045608 -9.771244 -9.674186 -10.242965
000250 2d c3 28 c1 9e 68 37 3f ad 00 86 40 2a d9 86 40
       -10.54765 0.7164401 4.1875825 4.2140093
000260 44 a6 82 40 de 7c 80 40 b8 d3 90 bf f3 44 24 3f
       4.082796 4.0152426 -1.1314611 0.6416771
000270 71 f8 d3 3e 52 1e a6 3e 36 e3 13 3c 77 bf 8d 3f
       0.41400483 0.32445008 0.009026339 1.1074055
000280 db df 90 40 42 65 91 40 4d 3d 8d 40 97 a3 90 40
       4.527326 4.5436106 4.413733 4.5199695
000290 81 11 dc 3e 73 ff 92 3f 84 d3 71 3f da f0 87 3f
       0.42982104 1.1484207 0.9446337 1.0620377
0002a0 d3 fd 82 3f ae 6a 12 3e 45 b3 03 c0 8f a7 0b c0
       1.0233711 0.14298508 -2.0578167 -2.182102
0002b0 ee 0b 05 c0 bc b6 03 c0 7d 9a 40 40 8b ee 4b bf
       -2.0788531 -2.0580282 3.0094292 -0.7966086
0002c0 c3 0b 89 be 5f 9f 0b bf 70 98 81 be e4 55 16 40
       -0.26766786 -0.54540056 -0.25311613 2.3489923
0002d0 be 68 37 bf 1f 7c 1e bf 6e 96 0f be 21 d1 87 be
       -0.716442 -0.61908144 -0.14022228 -0.2652674
0002e0 da 5f a0 3f 73 bc aa 40 35 a0 a8 40 6d 2f b0 40
       1.2529252 5.335504 5.2695565 5.5057893
0002f0 f0 e1 af 40 19 e2 98 bf ed 88 86 41 5f 00 8b 41
       5.4963303 -1.1944 16.816858 17.375181
000300 37 61 87 41 ec d0 89 41 57 3e 3f 40 e9 30 0a bf
       16.922468 17.227013 2.98818 -0.5398088
000310 bd e4 7a be ad 1b 16 be 6d 8e 74 bd 5b 13 74 3e
       -0.24501319 -0.14658995 -0.05970614 0.23835509
000320 87 87 90 40 7d 55 90 40 93 bf 86 40 69 03 86 40
       4.516544 4.5104356 4.2108855 4.1879163
000330 fd 38 96 3f aa 98 4c c0 21 9e 49 c0 35 12 53 c0
       1.1736141 -3.1968179 -3.1502764 -3.2979863
000340 69 83 4a c0 69 28 d3 be ae 69 f4 c0 f7 78 1b c1
       -3.1642706 -0.41241768 -7.6379004 -9.717032
000350 c7 4d df c0 e4 28 f1 c0 ff d9 51 be 53 70 99 40
       -6.9782443 -7.5362415 -0.20493315 4.7949615
000360 0a 4e 9b 40 97 b4 a5 40 8f 1f a3 40 f0 f5 50 c0
       4.8532763 5.1782947 5.0976024 -3.2650108
000370 3c 46 91 3f 46 87 8e 3f f0 f5 5a 3f 0d b4 7a 3f
       1.1349559 1.1135032 0.8553152 0.97930986
000380 f9 ff 92 3e f4 63 bc 40 47 91 be 40 f4 5b c5 40
       0.28710917 5.8872013 5.955234 6.1674747
000390 60 a4 b6 40 2e 9a 12 c0 e8 a0 6a 41 ab e5 71 41
       5.7075653 -2.2906604 14.664284 15.118571
0003a0 f5 73 7d 41 e4 1d 84 41 d6 35 09 c0 89 ee 14 c0
       15.84081 16.514595 -2.143911 -2.327059
0003b0 d8 30 0a c0 0c 93 0c c0 0c 0c 0c c0 7e b6 17 bf
       -2.1592312 -2.196475 -2.1882353 -0.59262836
0003c0 3d 1e 82 40 4f 19 92 40 30 f7 88 40 ba c2 8f 40
       4.066191 4.5655894 4.2801743 4.4925203
0003d0 42 9c 87 c0 56 62 49 41 fc d3 48 41 a4 79 58 41
       -4.2378244 12.586508 12.551754 13.529697
0003e0 18 10 59 41 58 44 e8 c0 c5 f8 5a 3d 65 8a 44 3e
       13.566429 -7.2583427 0.0534599 0.19193418
0003f0 43 98 3d 3c 6d c2 b8 3d 4a f4 22 40 0c e8 1e 40
       0.011571947 0.09021459 2.5461602 2.482913

lstm.weight_hh_l0 f4 [256, 64]
000000 ad 2a 32 41 1c 2a f3 3f a9 2e 8c c0 42 72 59 40
       11.135419 1.8997226 -4.380696 3.3975987
000010 76 d7 c9 40 37 f2 1e 41 f4 a9 c3 40 5e 7b 00 c0
       6.3075514 9.9341345 6.114496 -2.0075297
000020 4b 23 e2 3f 99 95 2d c0 7e 4e 8a c0 a4 a8 3d c0
       1.766702 -2.7122557 -4.3220816 -2.963418
000030 22 d0 81 bf 93 d3 f4 c0 a7 72 60 3e 52 66 74 3e
       -1.0141642 -7.650827 0.21918736 0.23867157
000040 c1 e3 93 bf 9a aa fe c0 dd 4f a7 bf 94 3d 94 bf
       -1.155388 -7.9583254 -1.3071247 -1.1581292
000050 54 47 fb 3f 81 ef a1 40 10 b9 95 3f a1 f8 b7 bf
       1.9631143 5.0604863 1.1697102 -1.437275
000060 f3 ea 55 40 5f e8 9f c0 60 0b d6 40 2f 64 93 3e
       3.3424652 -4.9971156 6.6888885 0.28787372
000070 2a e9 68 c0 b5 5e 75 bf 42 92 12 c1 76 56 48 3f
       -3.6392312 -0.95847636 -9.160707 0.7825693
000080 12 d0 80 3f 3c fd 71 3e 7f e0 11 c0 33 79 ea bf
       1.0063498 0.23631757 -2.2793272 -1.8318237
000090 c5 12 95 c0 c1 1a a8 40 3e 35 47 bf 00 64 fa 3e
       -4.658541 5.253266 -0.77815616 0.4890442
0000a0 e6 aa 4a 41 a1 85 a6 3f 7e fe c9 bf b3 16 09 41
       12.666723 1.300953 -1.578079 8.568042
0000b0 29 03 91 40 1a 30 bf c0 a6 f1 9e 40 38 77 3f bf
       4.5316358 -5.974622 4.966998 -0.7479129
0000c0 20 fb 8d bf 9d c6 b6 c0 99 73 a5 c0 5e 7d e7 c0
       -1.1092262 -5.711745 -5.170361 -7.2340536
0000d0 b4 9d 4c 3f 6f 6a a8 bf 15 c3 e1 3e a8 a3 94 40
       0.79928136 -1.3157481 0.44094148 4.6449776
0000e0 0e cf 50 3f 3f bf 1c 41 2b c9 40 bf f9 79 78 c0
       0.8156594 9.796691 -0.7530696 -3.8824446
0000f0 33 1b 31 40 b1 80 4c 40 28 c5 24 40 23 c1 08 c1
       2.767285 3.1953547 2.5745335 -8.5471525
000100 a4 5b d8 bd f1 a3 11 c0 65 6e 34 40 ee 0a a8 c0
       -0.10564354 -2.2756312 2.819238 -5.251334
000110 84 27 aa c0 eb 9b 9e 3f 61 89 ef 3f 6a fe 5b 40
       -5.3173237 1.2391332 1.87138 3.4374032
000120 f4 0f 24 3e 4c b0 aa bd 8d a2 43 bf a1 58 17 40
       0.1602171 -0.08334407 -0.7641991 2.3647845
000130 29 7b 46 c0 db 99 0d 3f 9c 0a bd 3f a7 e2 5a bf
       -3.101267 0.5531289 1.4768863 -0.85502094
000140 80 69 87 c0 a3 9b 18 40 d3 9b d9 bf f6 ae af 3f
       -4.2316284 2.3844993 -1.7000679 1.3725269
000150 b9 28 3c 3e 95 a1 78 3e 17 a4 c0 3f 7e 12 be c0
       0.1837491 0.24280389 1.5050076 -5.9397573
000160 c3 a8 80 be eb 48 ee 3e ca 98 f7 3e 71 c1 d4 40
       -0.25128755 0.46540007 0.48358756 6.6486135
000170 dc e3 9e 3f ee db 87 40 d0 b6 45 bf cb 17 b6 be
       1.2413287 4.245597 -0.77232075 -0.35565028
000180 2b ef 05 41 87 6a 09 c1 91 80 05 bf 24 71 a4 bf
       8.370891 -8.588508 -0.521493 -1.2847028
000190 61 63 00 bf 29 f7 55 3f 58 24 97 3f ff 2f 84 3d
       -0.5015164 0.8358026 1.1807966 0.06454467
0001a0 7a b5 6c bf ae f1 c5 bf 92 93 9a 40 57 43 66 c0
       -0.9246441 -1.546438 4.830514 -3.59786
0001b0 0e f5 ab c0 ff 0a 8b 3d 61 83 dd bf 72 66 a4 be
       -5.373664 0.06789207 -1.7305719 -0.3210941
0001c0 7f 80 cc bf de 65 05 bf 2d 81 d6 40 e1 60 29 3f
       -1.5976714 -0.5210856 6.7032685 0.6616345
0001d0 80 4f 7b 40 30 c7 0d 40 ed 40 b4 3f e2 36 b6 3f
       3.9267273 2.2152824 1.4082314 1.4235499
0001e0 3d 99 2a c0 22 b1 36 3e 5e ce 80 bf e4 85 de 3f
       -2.665603 0.17841008 -1.0062978 1.738461
0001f0 e3 7a ee 3e 13 8f b8 3e 77 50 59 c0 99 fb 91 3f
       0.4657813 0.36046657 -3.3955362 1.1404907
000200 a9 a7 25 c0 69 d4 8d bf 73 47 b5 be dc 0b b2 3f
       -2.5883582 -1.1080447 -0.35406074 1.3909869
000210 5c 93 bc be ba 44 ec bf 21 e3 71 bf 5f 72 9b bf
       -0.36831176 -1.8458474 -0.94487196 -1.2144278
000220 66 38 de bf 15 26 53 3f 65 67 23 40 72 41 1a bf
       -1.7360961 0.82479984 2.5531857 -0.6025611
000230 e8 17 35 bf 9e b3 34 bf 46 b1 c6 bf ab d4 2a 40
       -0.70739603 -0.70586574 -1.552285 2.6692302
000240 ef b0 6f 40 44 32 17 40 d2 44 9c bf d4 4d af be
       3.7451742 2.362443 -1.2208502 -0.34239066
000250 11 29 80 3f 32 f4 35 c0 02 15 06 c0 ae 17 6e 3f
       1.0012532 -2.8430295 -2.0950322 0.9300488
000260 04 47 c0 3e 56 87 83 bf 97 cd bd 3e c3 7d 26 c0
       0.3755418 -1.0275676 0.37070915 -2.601426
000270 eb 3e 8b c0 eb 69 b9 be f3 c7 1a 40 bb 7a f0 bf
       -4.3514304 -0.36213621 2.418454 -1.8787454
000280 3b 43 a9 3f 5d 82 82 3e 28 4c 10 40 85 80 1e bf
       1.3223642 0.25490084 2.2546482 -0.61914855
000290 7f 3f b1 3f ae b8 bf bf 50 9d 9c 3d 4e d0 13 c0
       1.3847502 -1.4978235 0.076471925 -2.309589
0002a0 19 3d 05 3f 48 00 64 3f 28 65 6c 3f 66 cc ad 3f
       0.5204635 0.8906293 0.9234185 1.3578002
0002b0 83 b5 c0 3f 8d 39 2a bf 3e 12 29 3f 07 fa b0 3f
       1.5055393 -0.66494066 0.6604346 1.3826302
0002c0 2f 37 af 3f df 8c 88 3e 0a ba 2d c0 96 6f 40 3f
       1.3688716 0.26669976 -2.71448 0.75170267
0002d0 b0 fa 92 c0 c3 6f 92 3f 54 13 da bf 4b 4d dd bf
       -4.5931015 1.1440357 -1.7037148 -1.7289213
0002e0 b1 65 bd 3f 4d c3 a5 bf f9 88 f8 bd d4 c5 1e 40
       1.4796659 -1.2950226 -0.121355005 2.4808245
0002f0 89 b5 36 c0 d5 16 7f 3e 11 83 62 bf da fc fa bf
       -2.85483 0.24911053 -0.8848124 -1.9608414
000300 da 82 b5 bf ce ce a6 3f 8e 99 d4 40 b1 fd 2c bf
       -1.4180558 1.3031862 6.6437445 -0.675746
000310 4e 14 77 3f c0 64 27 c0 93 c8 b0 3f f3 a6 dc 3f
       0.9651536 -2.6155243 1.381121 1.7238449
000320 0b 31 1c c0 c0 7d c6 be 07 69 ee 3e 68 35 f5 3e
       -2.4404933 -0.38767815 0.46564505 0.47892308
000330 57 7b c4 bd 3c 63 de c0 fd 04 0d 40 92 b4 26 c0
       -0.09593838 -6.9496136 2.2034295 -2.6047711
000340 84 7f c7 bf 51 9b 12 40 2b 5c 28 bf 1d ba b3 3e
       -1.558579 2.2907298 -0.6576564 0.3510293
000350 13 99 2b c0 28 6e 10 be e2 cd 1f bf 97 21 3a 40
       -2.681218 -0.14104521 -0.6242353 2.9083002
000360 38 e2 78 3e 6f 64 ac 40 b1 9a 62 c0 b5 34 ee be
       0.24305046 5.38726 -3.5406916 -0.46524587
000370 b9 9c f6 3d 69 2c c0 3f ed ae d0 3f af 70 d3 be
       0.12041611 1.5013553 1.6303383 -0.41296908
000380 b7 da 32 c0 d5 32 05 bf 64 ac fa 3f a7 6e 84 3e
       -2.7945993 -0.5203069 1.958386 0.2586567
000390 c8 0e 29 bf 7a ca 13 c0 4e a3 cf c0 a5 6b b2 bf
       -0.6603818 -2.3092332 -6.4886847 -1.39391
0003a0 99 66 8e c0 48 1e db bf 44 cc 93 bd 43 0a 85 c0
       -4.450024 -1.7118616 -0.07216695 -4.1575027
0003b0 ce a2 b3 bf a8 71 3c 40 79 f3 5a c0 53 cf 26 3f
       -1.4034059 2.944437 -3.4211104 0.651601
0003c0 37 88 2a 3e bc d5 72 40 e2 3c 23 3e 5a c3 d9 c0
       0.16653524 3.7942953 0.15941194 -6.8050966
0003d0 b0 48 b4 3f 76 a6 41 bf e5 03 87 bd f0 bf 1b 40
       1.4084682 -0.75644624 -0.0659254 2.43359
0003e0 6f 3f 39 c0 5c 16 5f c0 a8 6d 11 c0 f1 a8 3d 3f
       -2.8944967 -3.4857397 -2.272318 0.7408591
0003f0 e0 e4 56 40 a6 f8 24 c0 36 79 f0 bf 85 68 a4 40
       3.3577194 -2.5776763 -1.8786991 5.1377587

lstm.bias_ih_l0 f4 [256]
000000 31 b1 55 c0 58 b3 8e 3f dc ef 10 bf 59 12 c8 40
       -3.33894 1.1148481 -0.56615996 6.2522397
000010 28 13 d8 3f c5 40 2e 40 8b 2b 5c c1 81 9a 1a 40
       1.6880846 2.7227032 -13.760631 2.4156802
000020 08 ab 94 c0 8f 6e 01 c1 61 7c c1 3f 9f e2 cc 3f
       -4.645878 -8.089492 1.5116082 1.6006659
000030 7a 14 12 c0 f5 5b e5 bf ac 9c c2 c0 ea b8 98 c0
       -2.2824998 -1.7918688 -6.081625 -4.7725725
000040 c1 12 61 40 da 4b 8a c0 a2 97 d0 c0 00 1c 6b 40
       3.5167696 -4.321759 -6.51851 3.673584
000050 f5 14 db c0 2e 3b 2e c1 de 52 17 c0 af 11 ad 3f
       -6.846308 -10.889448 -2.3644328 1.3521022
000060 1d e6 ef 3e dc 33 58 be 86 aa bc c0 7e ae 93 be
       0.4685525 -0.21113533 -5.895816 -0.28844064
000070 ea 30 89 c0 35 a7 52 c0 80 1b 60 3f dc b3 e1 40
       -4.287221 -3.2914555 0.8754196 7.0532055
000080 27 7b 76 40 0d 4b c4 40 a9 7d 02 c1 0b 2c 12 c1
       3.8512666 6.1341615 -8.155679 -9.135753
000090 2b e4 28 c1 ef ed a9 c0 3f c2 fc 3b c2 0f ff c0
       -10.555705 -5.3102946 0.0077135856 -7.9706736
0000a0 5c 1c bd 3f 0f b3 79 c0 24 e5 1a 40 24 93 2f 40
       1.477428 -3.9015539 2.4202356 2.7433558
0000b0 c7 a0 9c 40 9c d6 17 40 12 9f 1c bf 25 ab b8 c0
       4.894626 2.3724737 -0.6118022 -5.7708917
0000c0 32 81 de c0 18 3e d7 c0 f7 8c 8a 40 f2 5d 9e bf
       -6.953271 -6.72633 4.3297076 -1.237242
0000d0 f7 88 06 c1 28 8c 9c be e5 3a 28 c0 6a 94 ca bf
       -8.408439 -0.3057568 -2.6285946 -1.5826542
0000e0 6c 6a 6b 40 13 dc d4 3f 1d 02 f9 3f 49 50 1b c1
       3.6783705 1.6629661 1.945377 -9.707101
0000f0 f3 f0 4d c0 3c 44 97 40 e4 25 14 c0 88 b0 30 c0
       -3.2178314 4.7270794 -2.3148127 -2.7607746
000100 a0 7d c7 3f 52 d5 9e 3f 5a 50 a7 3f fd ae 2e 40
       1.5585213 1.240885 1.3071396 2.7294304
000110 e1 9d 8a 3f 39 db 97 c0 56 70 5d c0 02 72 2c 40
       1.0829431 -4.7455106 -3.4599814 2.6944585
000120 41 5b 99 3e 7c 1c ea 3e a0 08 a3 40 c9 45 fc 3f
       0.29952434 0.45724857 5.094803 1.9708797
000130 74 58 60 bf 3a 6e 20 40 ae 6a af bf 09 28 91 c0
       -0.8763497 2.5067277 -1.3704431 -4.536137
000140 df e0 3b 40 64 d9 c5 3f 2c 30 b3 be 31 8d bc bf
       2.9356 1.5456967 -0.3499769 -1.4730588
000150 0e ee bc 3f 21 7d 1d 40 57 61 12 bf b8 cb ea 3f
       1.4760149 2.4607623 -0.5717978 1.834342
000160 1c b4 9d 3f b2 e3 ce 3f 0a 8e 75 be 7a 53 74 bf
       1.232059 1.6163237 -0.23979965 -0.95439875
000170 f0 5d 94 c0 28 47 82 c0 57 0f d7 bf d2 bd 84 40
       -4.636467 -4.071186 -1.6801556 4.1481714
000180 ed ff 24 40 0e 4d 53 40 11 df 5d c0 77 07 ee 3f
       2.5781205 3.301578 -3.46674 1.8596028
000190 c9 b2 07 bf f1 b0 16 c1 0f 29 92 c0 e8 d3 ba bf
       -0.5300718 -9.418199 -4.567512 -1.4595919
0001a0 29 f5 89 be 1d 27 a7 bd 00 be 77 bc fa 98 ef 3f
       -0.26944855 -0.08161757 -0.015120983 1.871856
0001b0 25 ab 1b 40 fd 7e 8e 3f c1 ca 9d c0 02 8e 4b bf
       2.4323208 1.1132504 -4.931 -0.7951356
0001c0 f8 d1 82 3f 21 68 09 3f d8 77 05 40 c0 21 34 3f
       1.0220327 0.53674513 2.0854397 0.70364
0001d0 fd 35 4b 3f 1b 2c 21 40 90 e1 b3 3f 9f 81 e9 3d
       0.79379255 2.518317 1.4053211 0.114016764
0001e0 83 eb 8e 40 1d 19 88 c0 5c 39 db 3e 71 d7 b1 c0
       4.466249 -4.2530656 0.428172 -5.557549
0001f0 5b 41 c0 c0 ef 0f ac be 45 91 8a 40 53 46 13 40
       -6.007978 -0.33605906 4.330233 2.3011672
000200 70 ba bb bd 77 6b 32 c0 9d 52 35 40 25 e5 82 c0
       -0.091664195 -2.7878091 2.8331673 -4.0904717
000210 5a 31 49 c0 42 29 3a bf a0 a0 8c bd 4a 80 33 c0
       -3.1436372 -0.72719204 -0.06866574 -2.8047051
000220 05 26 7c c0 e3 bc 1c 40 7a 82 94 40 7e 2e 8b 40
       -3.9398205 2.4490287 4.6409273 4.3494253
000230 f0 34 57 bf 43 c2 5c 3e b0 2b c4 3f 52 43 7c bf
       -0.8406515 0.2155848 1.5325832 -0.9854022
000240 c5 9d e9 40 dc 06 06 40 59 5b e1 bf a3 6f d4 3f
       7.300509 2.0941687 -1.7606002 1.6596569
000250 ed 60 00 40 fb 78 ce bf 0f 0d 6d be 8d 09 fd 3f
       2.0059159 -1.613067 -0.23149513 1.976854
000260 a3 27 cc bf 2e 0c 12 be 5d a8 21 c0 b0 a2 8d c0
       -1.5949596 -0.14262459 -2.525901 -4.4261093
000270 e6 a5 7a 40 5e 3d 5a 40 db 5e 40 40 a6 6c 58 c0
       3.9163756 3.4099956 3.0057895 -3.3816314
000280 37 a5 8f 40 86 86 f9 c0 7a f9 ff 3f c9 f8 5f bf
       4.488918 -7.7976713 1.9998009 -0.8748899
000290 b0 8f 2c 3f 01 87 8d be 5f d7 55 bf c7 a8 8d bf
       0.6740675 -0.27642062 -0.83531755 -1.1067132
0002a0 ef b8 3a c0 17 b4 df 3f 8e ac a1 bf c2 fd dc c0
       -2.9175375 1.7476834 -1.2630785 -6.9059763
0002b0 c2 94 34 c0 3c 97 12 40 ce 8e 96 c0 f8 e2 b1 bf
       -2.8215795 2.2904806 -4.704932 -1.389739
0002c0 99 31 98 3e 5a 54 d2 3f 63 dc 5d 40 a1 7b 98 3f
       0.2972534 1.6431992 3.4665763 1.1912729
0002d0 e8 45 fb be af aa 26 be 57 2b d7 bf 06 4e 30 c0
       -0.49076772 -0.16276048 -1.6810101 -2.7547622
0002e0 0d 48 3e c0 06 37 00 c0 f6 fa 9e be ec 54 b4 3f
       -2.9731476 -2.0033584 -0.31050843 1.4088416
0002f0 69 33 aa bd eb cc 54 c0 51 e8 95 c0 2e e5 a3 40
       -0.08310587 -3.3250072 -4.684609 5.121726
000300 8d 65 99 40 63 97 cb 40 58 31 c3 c0 29 af b5 40
       4.7936463 6.36223 -6.0997734 5.677632
000310 8f fa 2f 3f e2 8b b0 c0 bc a4 eb 3d 87 78 af 3f
       0.687417 -5.5170755 0.1150603 1.3708657
000320 74 b4 e9 bf 84 8d df 3f a9 98 dd c0 4e 6f 26 40
       -1.8258195 1.7465062 -6.9248853 2.6005435
000330 c1 11 6e c0 4f 44 83 40 fb 0d a1 3f 0e 98 56 c0
       -3.7198336 4.1020885 1.2582392 -3.3530307
000340 71 88 89 40 6f fb 78 c0 72 36 f7 3f 57 87 84 40
       4.2979054 -3.8903463 1.931349 4.141521
000350 dd 20 e1 c0 55 d4 6b bf b0 7f b7 c0 d5 3e 56 40
       -7.0352616 -0.9212087 -5.734337 3.347585
000360 fa 52 ac c0 58 95 17 c1 af a3 8a 40 9e d0 9a 40
       -5.385129 -9.473961 4.332481 4.837966
000370 d6 62 47 c0 9b 2a a0 40 38 d0 52 c0 3b f1 e7 40
       -3.1154075 5.005201 -3.2939587 7.248197
000380 1c 26 4a c1 75 dc b9 40 c2 e1 3d c0 85 b6 14 c0
       -12.634304 5.8081613 -2.9669042 -2.32364
000390 d6 c9 82 be 5d c5 f0 3e 08 8e 91 40 cc 94 32 3f
       -0.25544614 0.47025576 4.548588 0.69758296
0003a0 8e 6f e1 bf b1 a9 b9 bf b0 2c 96 3e 7d 27 21 3f
       -1.7612169 -1.4504911 0.2933097 0.6295088
0003b0 55 52 af 40 16 c5 bc 40 74 8d 51 40 70 81 86 c0
       5.4788003 5.8990583 3.2742586 -4.2033005
0003c0 0f 04 41 c0 7b fc 27 be c2 0c 2f 41 e6 91 bb c0
       -3.0158727 -0.16404907 10.940615 -5.86156
0003d0 6c ed 8d bf 07 b6 72 c0 dd 42 a7 c0 cb c1 d4 c0
       -1.108808 -3.79236 -5.226912 -6.6486564
0003e0 8f b2 83 c0 dc d5 9d c0 39 d8 a7 c0 a5 d5 51 3f
       -4.1155467 -4.932356 -5.2451444 0.8196662
0003f0 59 e2 b4 3f c2 db 38 c0 79 b8 8e 40 f5 7f b4 40
       1.4131576 -2.888413 4.4600186 5.6406198

lstm.bias_hh_l0 f4 [256]
000000 2b 69 55 c0 06 1c 7e 3f 17 26 2b bf 78 2e c9 40
       -3.334544 0.9926151 -0.66854995 6.2869225
000010 a2 d1 bf 3f ca 0e 21 40 81 95 5c c1 d5 b7 25 40
       1.498585 2.5165277 -13.7865 2.5893452
000020 ea 66 95 c0 17 4e 02 c1 11 ea b5 3f 4d 72 b8 3f
       -4.6688128 -8.144065 1.4212056 1.4409882
000030 f4 2c 1b c0 bc ba 00 c0 b8 c2 c3 c0 14 18 97 c0
       -2.4246187 -2.0113974 -6.1175194 -4.721689
000040 01 ef 54 40 3b 83 8b c0 1f 30 d4 c0 92 71 6c 40
       3.3270876 -4.3597693 -6.630874 3.6944318
000050 f4 47 e0 c0 7c eb 2f c1 04 4c 1d c0 e5 a7 9c 3f
       -7.0087833 -10.994991 -2.4577646 1.2238737
000060 5f d6 ff 3e e5 b7 a9 be 8f e5 c0 c0 1a a2 d6 be
       0.4996824 -0.33148113 -6.0280223 -0.4192055
000070 f3 fd 87 c0 51 30 4b c0 68 79 42 3f 71 01 e1 40
       -4.2497497 -3.174824 0.759665 7.031426
000080 6b f0 76 40 15 23 c6 40 e4 26 ff c0 22 3a 11 c1
       3.858424 6.1917825 -7.9734974 -9.076693
000090 30 06 29 c1 35 0c b1 c0 da e3 c0 3d 7c ab 02 c1
       -10.564011 -5.53274 0.09418459 -8.166866
0000a0 f8 62 d0 3f 7f 2c 7a c0 f0 52 27 40 db b7 39 40
       1.6280203 -3.9089658 2.614437 2.9018466
0000b0 08 0c 9d 40 ca 0a 18 40 99 fc 3d bf b9 b2 b8 c0
       4.9077187 2.3756585 -0.7421356 -5.7718167
0000c0 e0 0f db c0 4c 4d d9 c0 b1 b5 88 40 7e c2 92 bf
       -6.845688 -6.7906857 4.272179 -1.1465604
0000d0 04 4b 04 c1 50 15 9d be b7 44 1d c0 94 60 b2 bf
       -8.268314 -0.30680323 -2.457319 -1.3935723
0000e0 90 b9 6a 40 ad 47 be 3f ec 42 eb 3f c3 76 1c c1
       3.6675758 1.4865624 1.8379798 -9.778995
0000f0 c2 a5 5c c0 42 61 99 40 d8 2b 13 c0 fe 49 3a c0
       -3.447617 4.7931223 -2.299551 -2.9107661
000100 86 54 d4 3f ff a1 ae 3f 86 a5 ba 3f 22 e3 33 40
       1.6588295 1.3643187 1.4581764 2.810738
000110 f2 72 81 3f b1 91 9e c0 92 21 5a c0 08 80 27 40
       1.0113204 -4.9552846 -3.408299 2.6171894
000120 7f c5 8f 3e e0 af d8 3e 7c 20 a1 40 4c f8 03 40
       0.28080365 0.42321682 5.0352154 2.0620298
000130 56 e7 64 bf 2e 72 17 40 4c f3 ac bf 9c 3e 91 c0
       -0.8941549 2.366344 -1.3511748 -4.5388927
000140 9b be 3c 40 18 7d d7 3f f2 30 26 be ae 56 c4 bf
       2.9491336 1.683505 -0.16229609 -1.5338953
000150 54 92 c3 3f e8 63 1b 40 b9 89 08 bf bd 99 e8 3f
       1.5279031 2.4279728 -0.5333515 1.8171917
000160 c4 86 ab 3f df 88 d8 3f f5 fd 8d be cb 3a 82 bf
       1.3400502 1.691677 -0.27732816 -1.0174192
000170 0c 96 96 c0 bc ef 7a c0 bf 19 f0 bf 20 c7 84 40
       -4.7058163 -3.9208822 -1.8757857 4.1493073
000180 ee 75 26 40 ba d7 4a 40 3c 9d 67 c0 65 df f3 3f
       2.6009479 3.169417 -3.6189718 1.905255
000190 67 e5 20 bf bd d3 15 c1 4d 2d 92 c0 ce b7 c6 bf
       -0.6285004 -9.364194 -4.56803 -1.5524843
0001a0 8f 50 50 be eb 7a 6e 3d 86 29 29 be a9 fa e3 3f
       -0.2034323 0.058222692 -0.16519746 1.781087
0001b0 a0 31 1a 40 9a ee 89 3f 77 d7 9d c0 a5 ca 80 bf
       2.4092789 1.077594 -4.932552 -1.0061842
0001c0 b9 e3 9b 3f 98 ba f7 3e 06 aa 0f 40 16 c5 45 3f
       1.217887 0.48384547 2.2447524 0.77253854
0001d0 b9 b9 3f 3f 76 6b 26 40 a6 e4 9f 3f cf 39 1b 3e
       0.74892765 2.600309 1.2491653 0.15158771
0001e0 9f 66 8e 40 ab fa 88 c0 94 2a ee 3e 34 85 b2 c0
       4.450027 -4.280599 0.4651686 -5.57876
0001f0 11 60 c1 c0 95 2c 9d be 60 35 87 40 3d 66 13 40
       -6.042977 -0.30698076 4.2252655 2.3031151
000200 83 f9 54 be 3b 05 33 c0 a3 d6 3c 40 3c 23 84 c0
       -0.20798306 -2.7971942 2.9506004 -4.129301
000210 16 84 49 c0 f4 71 3c bf 13 50 96 3d 22 81 2d c0
       -3.148687 -0.7361138 0.07339492 -2.7110066
000220 a3 f8 6e c0 17 4e 25 40 ec 74 98 40 de 4d 8e 40
       -3.7339256 2.5828912 4.7642727 4.4470053
000230 c2 49 40 bf 59 77 07 3e 9a a4 cc 3f 90 45 4e bf
       -0.75112545 0.13229121 1.5987732 -0.80574894
000240 9d c6 e8 40 61 5b ff 3f c9 19 eb bf 7e 0d d8 3f
       7.274245 1.9949762 -1.8367244 1.6879117
000250 ec 77 04 40 dd e8 d0 bf 8e 2d 57 be d2 8f 0b 40
       2.0698195 -1.6321064 -0.21013471 2.180653
000260 0b ad b5 bf 3b 4e 6d be 23 13 27 c0 64 5e 8f c0
       -1.4193434 -0.23174374 -2.610543 -4.4802723
000270 87 d4 81 40 aa ab 60 40 3e 54 4c 40 f2 04 54 c0
       4.0571933 3.5104775 3.1926417 -3.3128018
000280 3a 63 8f 40 f2 50 f8 c0 b1 33 01 40 e0 7c 82 bf
       4.4808626 -7.759881 2.01878 -1.0194359
000290 ba 63 14 3f 18 a3 b1 bd 57 aa 2d bf 13 9a a2 bf
       0.5796467 -0.08673686 -0.6783804 -1.270327
0002a0 f8 63 3f c0 bd 00 da 3f 76 86 92 bf a8 17 da c0
       -2.9904766 1.7031475 -1.1447284 -6.8153877
0002b0 9a 8d 3c c0 ac 32 15 40 7c eb 94 c0 bb 56 c1 bf
       -2.9461427 2.3312178 -4.6537457 -1.5104593
0002c0 c7 0b a4 3e 20 b6 cb 3f 4b 13 52 40 ab cd 99 3f
       0.32040235 1.5914955 3.2824275 1.201589
0002d0 46 da 02 bf a8 62 94 be 97 30 e8 bf a3 50 3c c0
       -0.5111431 -0.2898152 -1.8139828 -2.9424217
0002e0 e3 52 3f c0 64 fa 08 c0 4a 68 2e be f4 8d c8 3f
       -2.989434 -2.1402826 -0.1703197 1.5668321
0002f0 a5 9c 94 bd 89 d9 5e c0 a9 15 92 c0 73 3e a6 40
       -0.0725644 -3.4820273 -4.565144 5.195123
000300 16 81 98 40 6d e8 c9 40 e4 50 bd c0 c8 09 bb 40
       4.7657576 6.3096223 -5.9161243 5.844944
000310 eb 41 3f 3f d6 ce ad c0 08 15 42 3e 19 83 b0 3f
       0.7470996 -5.4314985 0.18953335 1.3790008
000320 18 f9 f9 bf 1a 28 eb 3f b1 ed dc c0 52 08 32 40
       -1.9529142 1.8371613 -6.904015 2.7817578
000330 a9 e7 74 c0 f3 24 7a 40 47 ba ad 3f d7 32 61 c0
       -3.8266394 3.9085052 1.3572472 -3.518728
000340 42 7c 8c 40 f6 69 7c c0 f5 80 00 40 37 1a 7f 40
       4.390168 -3.9439673 2.007871 3.985975
000350 4b 79 e7 c0 91 f2 4a bf 63 5b ba c0 64 67 5c 40
       -7.2335563 -0.79276377 -5.8236556 3.4438105
000360 c0 96 a8 c0 65 fa 17 c1 7b c6 8c 40 24 13 98 40
       -5.268402 -9.4986315 4.3992286 4.7523365
000370 b6 93 49 c0 1b dc 9c 40 b0 84 53 c0 93 c0 e8 40
       -3.1496406 4.9018683 -3.3049736 7.2735076
000380 50 4d 4d c1 8f 40 bb 40 2d ce 3b c0 2b 0b 15 c0
       -12.831375 5.8516307 -2.934459 -2.3288066
000390 45 da b7 be 0e 16 93 3e d3 be 8f 40 69 89 3f 3f
       -0.35908714 0.28727764 4.492044 0.74819046
0003a0 12 b4 ce bf ef 6c bc bf 98 63 a2 3e a3 69 fe 3e
       -1.6148703 -1.4720744 0.3171661 0.4968997
0003b0 0d 98 af 40 26 d5 c3 40 e2 86 4f 40 46 28 82 c0
       5.487311 6.119769 3.2426076 -4.067416
0003c0 bd c7 37 c0 29 2d 2f be f2 58 31 41 21 f7 bc c0
       -2.871566 -0.17107071 11.084215 -5.905167
0003d0 74 1f 97 bf 29 33 7a c0 7d 36 a4 c0 df cc d6 c0
       -1.1806474 -3.9093726 -5.1316514 -6.7125087
0003e0 e8 98 81 c0 f8 e8 9e c0 46 b5 a3 c0 f0 c9 55 3f
       -4.0499153 -4.9659386 -5.115878 0.8351126
0003f0 cb 50 b2 3f 1a 33 3c c0 09 c5 8f 40 c3 5f b9 40
       1.3930906 -2.940619 4.492802 5.7929397

fc1.weight f4 [64, 64]
000000 a5 59 21 c1 7d 88 0d 40 dc 2a a5 c1 af 6b 07 c0
       -10.084386 2.2114556 -20.645927 -2.1159475
000010 44 4f fe bd 05 80 d7 c1 22 89 d7 c1 bf 40 0e 40
       -0.124174625 -26.93751 -26.94196 2.2227018
000020 23 57 33 c0 e3 1b 11 41 4d da 52 bf 2d ad 92 40
       -2.8021934 9.069308 -0.8236435 4.5836396
000030 85 43 a6 be a9 b9 68 40 ae b3 44 c0 68 df ca 41
       -0.32473388 3.6363318 -3.0734668 25.359085
000040 fd 03 24 3f de 0c a2 40 10 68 45 c1 8c a9 62 40
       0.64068586 5.0640707 -12.337906 3.5415983
000050 aa ea 9c 41 65 77 1e c1 e2 98 77 bf 61 db a0 c0
       19.614582 -9.904149 -0.96717656 -5.0267797
000060 e1 1e 31 40 b2 a3 c3 c1 c2 bc c0 c1 49 5b d7 c0
       2.7675097 -24.45493 -24.092167 -6.729893
000070 e1 01 d0 40 c5 58 2d 40 02 34 00 42 f1 90 34 40
       6.5002294 2.708543 32.05079 2.8213465
000080 ce 60 49 40 b1 ee d4 3f 82 d4 e8 40 60 63 37 c1
       3.1465335 1.6635343 7.275941 -11.461761
000090 9b 5b cf 41 5f 23 0a c2 d8 b6 ec 40 2a 66 53 c1
       25.91973 -34.534542 7.39732 -13.212442
0000a0 c9 4a fc c1 45 7f df 40 d8 92 30 c0 09 3b ef c0
       -31.536516 6.984286 -2.7589626 -7.4759564
0000b0 04 7a b4 bf 76 0d 20 40 91 18 27 c1 48 d7 c0 41
       -1.4099736 2.5008216 -10.443498 24.105118
0000c0 e3 61 3a 41 96 f5 7c 3f c5 4c 96 3e 97 48 e0 41
       11.648898 0.98812234 0.29355446 28.035444
0000d0 37 96 85 c1 b2 4d c5 40 6a 06 8c c1 a3 9e c4 c1
       -16.698347 6.1657343 -17.503132 -24.57746
0000e0 07 7c d1 bf 5a 1c 94 c1 d8 d1 17 41 47 8e 47 41
       -1.6365975 -18.513844 9.488731 12.472236
0000f0 fc 4b cd c1 ec 61 95 3f ef dd 76 3f d2 a2 11 40
       -25.662102 1.1670508 0.96432394 2.2755628
000100 79 26 a5 c0 7e 43 08 bf 0c b3 d6 c1 f1 9d 49 3f
       -5.1609464 -0.53227985 -26.837425 0.78756624
000110 d5 51 88 bf 0b 1a 46 c2 bc 10 1e c2 d1 9c 94 41
       -1.0649973 -49.525433 -39.516342 18.57657
000120 13 94 04 c1 1a bc 8d 41 93 66 81 40 a1 f8 dc be
       -8.286151 17.716846 4.0437713 -0.4315844
000130 b5 f2 a5 3f ae 17 eb 40 05 a7 94 40 bd 9b ff 41
       1.2964693 7.3466406 4.645388 31.951044
000140 ac 12 56 3f e5 60 f6 40 1e 5f 1e c1 a9 b9 52 c0
       0.8362224 7.699328 -9.898222 -3.2925818
000150 6f b0 a7 41 e2 19 f0 c0 00 89 98 bc 55 c5 1a c0
       20.96115 -7.5031595 -0.018620014 -2.4182942
000160 b1 ee 18 c0 d5 cd de c1 d0 24 f2 c1 f0 7e 14 c0
       -2.3895686 -27.850504 -30.267975 -2.3202477
000170 33 b9 bd 40 9d a7 80 c1 92 69 44 42 9f 70 35 3f
       5.9288573 -16.081842 49.103096 0.7087497
000180 a9 ec 1f bf c8 72 0c 40 d9 b9 b6 40 f5 97 78 c1
       -0.6247049 2.1945057 5.7101865 -15.537099
000190 ce 52 d3 41 22 7d 0e c2 9b cd 2d bf 42 95 b9 c1
       26.415432 -35.6222 -0.67891854 -23.19788
0001a0 8c a0 00 c2 6a ed ad 3d bc 20 0a 41 1b 70 1f 40
       -32.156784 0.08492549 8.632992 2.4912174
0001b0 30 30 44 3e 52 f0 0d bf b7 47 45 40 fe 16 cb 41
       0.19159007 -0.55444825 3.0825021 25.386227
0001c0 8a ab bb 41 9d f3 d0 40 09 bc d5 3f cc 39 06 42
       23.45876 6.529738 1.6698009 33.556442
0001d0 3c 5b d0 c1 ca 3b 20 40 c3 30 88 c1 6a af 0e c2
       -26.044548 2.5036492 -17.02381 -35.671303
0001e0 0c 9c ce 41 59 5f a3 c1 77 3c 7b 3f 23 f8 f7 40
       25.826195 -20.421556 0.9813914 7.74904
0001f0 15 a8 ac c1 46 18 d9 c0 8c 53 9f 3f 8f 6a c3 40
       -21.582071 -6.784213 1.2447371 6.1067576
000200 ce 3c 0b c1 f5 5b 45 bf b9 18 c7 c1 01 68 44 be
       -8.702345 -0.7709344 -24.887072 -0.191803
000210 13 cf e2 3f 7f f7 03 c2 75 35 e7 c1 d8 03 a2 40
       1.7719444 -32.991695 -28.901102 5.062969
000220 ed 2f d0 c0 ee d1 2e 41 3b 17 16 40 d8 c0 5d c0
       -6.5058503 10.926252 2.3451679 -3.4648952
000230 74 33 7c 3d 12 f7 3a 3f 5e fa dc 3f c0 72 de 41
       0.061572507 0.7303325 1.7263906 27.80603
000240 7d 89 1c 3f 5d 03 19 41 47 df 2b c1 a3 b7 e7 40
       0.6114729 9.563321 -10.742011 7.2411666
000250 7a fe 58 41 97 3a e7 c0 3e 95 93 be 1d 77 c4 c0
       13.562128 -7.225902 -0.288248 -6.13954
000260 03 2c 0b 40 cb af 03 c2 75 8a d5 c1 4d 43 aa c0
       2.1745613 -32.921673 -26.692606 -5.3207154
000270 09 cc d3 40 93 9c ed c0 a3 bd 05 42 4f 7d 27 40
       6.6186566 -7.425363 33.435192 2.6170232
000280 ca 92 89 40 39 b7 8b 3f 52 2a 0e 41 bf eb 2e c1
       4.2991686 1.091529 8.885332 -10.932555
000290 bb 9a 9e 41 f4 14 12 c2 f7 6d ac 40 58 08 5f c1
       19.825552 -36.520462 5.3884234 -13.939537
0002a0 d1 52 d3 c1 69 a1 84 40 a0 3e dc 3f d6 2e b8 c0
       -26.415438 4.1447034 1.7206612 -5.7557173
0002b0 fc 83 b7 3f 8d 6c ff 3f ef 26 c5 bf e2 36 c5 41
       1.4337153 1.9955002 -1.5402507 24.651798
0002c0 2e 1d 19 40 09 eb fb 40 22 27 7d 3f c5 c2 d2 41
       2.392406 7.872441 0.98887837 26.345102
0002d0 f9 90 95 c1 1f 6b c4 40 f3 eb 66 c1 2d 4c b7 c1
       -18.695787 6.1380763 -14.432605 -22.912195
0002e0 4c b4 2d 41 d2 a2 87 c1 c4 7e ae 40 05 ed 29 41
       10.856518 -16.954502 5.4529743 10.620366
0002f0 0e 68 b1 c1 1a 27 07 c0 22 d4 c1 bf a2 32 59 40
       -22.175808 -2.1117616 -1.5142863 3.3937154
000300 8a 9f b2 c0 02 16 9e bf 54 79 cd c1 c3 36 0d c0
       -5.581975 -1.2350466 -25.684242 -2.2064674
000310 80 71 cc 3f c0 96 17 c2 62 48 ef c1 36 a7 31 41
       1.5972137 -37.897217 -29.910343 11.103323
000320 65 3a a3 c0 84 6b 3e 41 e0 7d fd 40 9e ef ca 3f
       -5.1008782 11.901249 7.9216156 1.5854375
000330 6a 89 fb bc 9d c7 17 41 9e 6a 90 be 1a af 0b 42
       -0.030705173 9.486234 -0.28206342 34.920998
000340 e1 22 69 40 c2 6c 2f 41 af b4 38 c1 55 f3 97 40
       3.6427538 10.964052 -11.544112 4.7484536
000350 05 3d 75 41 44 e6 2a c1 bf 9e 80 bf d5 0b 7e 3f
       15.327397 -10.681217 -1.0048445 0.99236804
000360 11 6f b6 be d0 85 ef c1 f0 68 bc c1 02 c1 c7 c0
       -0.35631612 -29.940338 -23.551239 -6.2423105
000370 17 9a 6f 40 72 16 6e c1 3e f8 17 42 2f 65 a0 3f
       3.74378 -14.88048 37.992424 1.2530879
000380 17 5f bd 40 b6 02 48 3f a1 f5 75 40 cb 6c 43 c1
       5.9178576 0.78129137 3.843117 -12.214061
000390 35 88 af 41 23 07 17 c2 66 37 f6 bf 61 da 87 c1
       21.941507 -37.75697 -1.9235656 -16.98163
0003a0 07 a6 ff c1 21 af af 40 3a dd d7 40 e9 a2 18 c1
       -31.956068 5.490128 6.745755 -9.539773
0003b0 e0 1d 99 bf 9b 94 d6 3f 9f c9 30 c0 7d 5a b4 41
       -1.1962242 1.6764101 -2.762306 22.544184
0003c0 b3 7c 82 40 30 e0 20 41 73 c5 49 40 06 8b c7 41
       4.077722 10.054733 3.1526763 24.942883
0003d0 77 66 b3 c1 e4 75 d2 40 6f 66 6d c1 af 05 e4 c1
       -22.425032 6.576891 -14.837508 -28.502775
0003e0 0b d1 a5 41 a5 87 82 c1 78 90 d7 40 2a 64 76 41
       20.727072 -16.316233 6.7363853 15.399454
0003f0 2f 43 a0 c1 9e 70 ad c0 f1 27 32 40 bb 27 ce 3f
       -20.032804 -5.419997 2.7836878 1.6105875

fc1.bias f4 [64]
000000 42 08 cf 41 68 bb d2 41 20 b4 c9 41 d9 9c ac 41
       25.879032 26.341507 25.212952 21.576586
000010 f5 66 b6 41 26 f0 c4 41 61 9d b8 41 4e 74 cd 41
       22.800272 24.61726 23.076845 25.68179
000020 9c 95 c5 41 86 3a dd 41 7e 93 c4 41 c4 41 cc 41
       24.698051 27.653576 24.572018 25.532112
000030 4a 6e cc 41 67 52 d6 41 0f ab c8 41 50 ab ca 41
       25.553852 26.790236 25.083525 25.333649
000040 b7 1b b5 41 a1 65 c4 41 65 df ad 41 45 18 ce 41
       22.638533 24.549623 21.73408 25.76185
000050 04 83 c3 41 b8 37 d4 41 9f de b7 41 54 45 cf 41
       24.438972 26.527206 22.983702 25.908852
000060 48 1d ca 41 3c 8e bb 41 d6 c0 dd 41 bb 12 b9 41
       25.264297 23.44445 27.719158 23.134146
000070 2c 29 d5 41 e9 5d c8 41 99 ec c2 41 73 d5 c2 41
       26.645103 25.045855 24.365526 24.354223
000080 41 06 c5 41 fb 9b c8 41 d2 fc ce 41 93 88 b0 41
       24.628054 25.076162 25.873447 22.066687
000090 b2 38 c5 41 b6 88 d6 41 f0 29 d4 41 f6 01 dc 41
       24.652683 26.816753 26.520477 27.500957
0000a0 5c c2 c5 41 d3 15 cb 41 21 dc b9 41 02 55 c2 41
       24.719902 25.385656 23.232485 24.291508
0000b0 5b ea b5 41 1e 32 af 41 98 9d c4 41 6f f1 b3 41
       22.739431 21.899471 24.57695 22.492887
0000c0 d5 23 d3 41 52 36 d5 41 51 dc cc 41 e4 50 bb 41
       26.392496 26.651524 25.607576 23.414497
0000d0 74 e7 a8 41 a1 78 e1 41 6f 0b ba 41 01 67 cb 41
       21.113014 28.1839 23.255583 25.425295
0000e0 ba d6 b8 41 1e d9 ae 41 82 7b cc 41 c8 f3 c8 41
       23.104847 21.856014 25.560307 25.119034
0000f0 51 ee af 41 4b 45 b9 41 52 f3 c0 41 91 9b b6 41
       21.991365 23.158834 24.118809 22.82596

fc2.weight f4 [1, 64]
000000 39 86 7b 41 1d 7e b1 41 19 02 7b 41 64 5a 8f 41
       15.720269 22.186579 15.688012 17.919136
000010 ea c5 b8 41 5c 27 91 41 82 be a2 41 0e bb 94 41
       23.096638 18.144218 20.343021 18.591335
000020 7f 4b 7b 41 e1 cb 86 41 42 6d a8 41 02 6a 96 41
       15.705932 16.84955 21.053349 18.801762
000030 9e 22 be 41 f9 83 89 41 8c 66 8a 41 14 f3 76 41
       23.766903 17.18944 17.300072 15.434345
000040 55 e5 99 41 f5 3b 8a 41 78 f4 a4 41 da cf 7e 41
       19.236979 17.279276 20.61937 15.925745
000050 dc 0d 8d 41 49 7f 80 41 63 02 9b 41 33 05 b2 41
       17.631767 16.062151 19.376165 22.252539
000060 42 7e 7c 41 68 0d a5 41 cb 3f 8a 41 2b 8b ad 41
       15.780825 20.631546 17.281149 21.692953
000070 07 d8 8a 41 93 9a 81 41 d3 0c 97 41 54 8f 9a 41
       17.355482 16.200476 18.881262 19.319984
000080 bb 96 98 41 fd 71 81 41 5e 7c 7f 41 c8 e4 6c 41
       19.073599 16.180658 15.967863 14.805855
000090 0a ef 87 41 e2 73 c0 41 a3 fb a0 41 42 1f 87 41
       16.991718 24.056583 20.12287 16.890263
0000a0 cf 3f 62 41 e7 82 9b 41 6f 58 85 41 62 5b 88 41
       14.140578 19.438917 16.66818 17.04462
0000b0 b0 ba 84 41 47 21 90 41 46 60 a7 41 87 bd a3 41
       16.591156 18.016249 20.922009 20.467543
0000c0 a8 06 99 41 26 f5 68 41 3a 2f a8 41 fe 57 85 41
       19.12825 14.559851 21.02306 16.667965
0000d0 e5 83 8a 41 a8 5b 7e 41 6a 79 a4 41 b4 d1 56 41
       17.314402 15.897377 20.559284 13.426197
0000e0 64 42 c2 41 7c 13 9a 41 8d 66 8e 41 4b 59 81 41
       24.282417 19.259514 17.800074 16.1686
0000f0 71 93 a5 41 17 fc 90 41 33 11 98 41 61 36 9c 41
       20.696993 18.12309 19.008398 19.526552
