best_model_lg.pth (torch, 92872 bytes, 7 tensors)

lstm.weight_ih_l0 f4 [256, 5]
000000 26 82 7e 40 5d ae 8b 40 e8 34 84 40 26 fe 9c 40
       3.9766936 4.3650346 4.1314583 4.906024
000010 12 5c 9b c0 87 03 c8 3f 6f c9 c6 3f 82 6d be 3f
       -4.854989 1.5626076 1.5530223 1.4877169
000020 29 04 3f c0 5c 85 27 40 3e 7e 82 40 c4 c7 7e 40
       -2.984629 2.6175146 4.0779104 3.9809427
000030 d0 a9 7a 40 95 c3 db be 70 f0 9e 3f 22 80 4a 41
       3.9166145 -0.42922655 1.2417126 12.656282
000040 cd 49 53 41 e4 a9 4e 41 37 34 6a 41 67 c3 48 3f
       13.205518 12.916477 14.637748 0.7842316
000050 20 34 f8 bf 8e 64 18 c0 8f ba 05 c0 ca c7 8e bf
       -1.9390907 -2.3811374 -2.0895116 -1.1154721
000060 0b e3 b8 c0 a8 f6 0e c1 06 b3 12 c1 d0 57 0d c1
       -5.777715 -8.935219 -9.168707 -8.833939
000070 17 a6 c9 be e8 0b 2c 40 bc 14 fb 3e c2 64 c5 3e
       -0.3938453 2.6882267 0.49039257 0.38553435
000080 41 9e b7 3e f6 29 54 40 28 5d 3c bf e0 ef 68 bf
       0.35862926 3.315061 -0.73579645 -0.9099102
000090 c4 2e 4a bf d8 85 4e bf e3 b3 3c bf ce ba 97 bf
       -0.7897761 -0.8067298 -0.73711985 -1.1853883
0000a0 e6 71 ba 40 09 ad c2 40 7f ee bd 40 3b 9a 11 41
       5.8264036 6.0836225 5.9353633 9.100154
0000b0 35 e5 71 bf c3 05 8d 3f 51 c5 88 3f e0 1c 98 3f
       -0.9449037 1.1017383 1.0685216 1.1883812
0000c0 1d 34 65 40 02 aa 64 bf 86 e8 3f bc 8f a1 5e 3e
       3.5813057 -0.8932191 -0.011713153 0.21741317
0000d0 3e 4f b2 3e 00 32 14 3f 86 b8 52 40 d4 40 9a c0
       0.34826082 0.57888794 3.2925124 -4.8204136
0000e0 7c 6c 93 c0 46 88 8f c0 e6 a6 cd c0 c3 16 37 3f
       -4.6069927 -4.485385 -6.4266233 0.71519107
0000f0 64 cd 93 40 d7 d8 97 40 5a ef 8e 40 82 e7 9a 40
       4.618822 4.7452197 4.4667177 4.84076
000100 22 3a f7 3f 33 4b 80 40 75 27 8a 40 12 55 8e 40
       1.9314616 4.0091796 4.3173165 4.4478846
000110 6f 98 f8 40 a3 6c d5 3e d0 48 d1 3c 60 b7 a2 be
       7.7686076 0.41684446 0.025547415 -0.3178053
000120 70 89 53 3d 53 10 bd 3e f1 cd e7 c0 d2 3f a4 40
       0.051644742 0.36926517 -7.2438893 5.1327906
000130 b6 7c bd 40 de 2b ba 40 06 f3 be 40 d7 1d 69 bf
       5.9214735 5.817855 5.967166 -0.91061157
000140 78 97 80 bf 01 d1 5e bf 9a 27 70 bf dc 0b 70 be
       -1.0046225 -0.87037665 -0.9381043 -0.23442024
000150 f4 35 31 be 69 fd 7d bf 65 fc 82 bf e0 b7 81 bf
       -0.17305738 -0.992148 -1.0233275 -1.0134239
000160 c4 0d b3 c0 47 4d a6 3f 40 fc dd bf 3c 17 d6 bf
       -5.5954304 1.2992333 -1.7342606 -1.672584
000170 7b b6 d8 bf ca 06 60 bf 6c 55 50 3e 44 18 86 c0
       -1.6930689 -0.8751036 0.20345086 -4.190462
000180 fd 9a 81 c0 c4 be 81 c0 dc 8a f2 bf 10 3c 0e 40
       -4.0501695 -4.054537 -1.8948627 2.222416
000190 43 cc b9 bf d3 cc b4 bf 39 d4 d5 bf 1e d4 e9 bf
       -1.4515461 -1.4125007 -1.670539 -1.8267858
0001a0 25 43 83 3f 46 49 5f be b5 69 bf 3d 97 b6 77 bd
       1.0254866 -0.21805295 0.09346334 -0.060476866
0001b0 50 e4 89 3f ee d9 32 bf 66 e6 da bf 09 88 c8 bf
       1.07728 -0.69863784 -1.7101562 -1.5666515
0001c0 bb 67 db bf 4f 53 99 bf fe 4f 9b bd 11 93 45 40
       -1.7141031 -1.1978549 -0.07583617 3.0871012
0001d0 0b a5 39 40 b4 b4 38 40 c7 8f 39 40 fd 73 43 40
       2.9006984 2.8860292 2.8994005 3.0539544
0001e0 fe e0 b0 40 45 9e b3 40 f9 ae b6 40 3e de e7 3f
       5.527465 5.61307 5.708859 1.8114698
0001f0 86 fe 53 bf 7a f6 88 40 6b 8c 83 40 4d 30 84 40
       -0.82810247 4.2800875 4.110891 4.130896
000200 dc cf 04 41 4b d1 06 c1 ed 3e 77 3f 15 a1 73 3f
       8.300747 -8.426097 0.9658039 0.95167667
000210 0d e8 5d 3f 96 88 71 3f 2a f0 b0 3f cc cf 0f c0
       0.86682206 0.9434904 1.3823292 -2.247058
000220 91 a7 30 c0 63 75 0f c0 5d e9 28 40 8d 9c 00 3e
       -2.7602274 -2.2415397 2.6392434 0.1255972
000230 f8 a6 09 40 d7 db 0b 40 53 ff 0b 40 09 19 56 bf
       2.150816 2.185293 2.1874588 -0.8363195
000240 0f 6c 22 3e 1f f3 c1 c0 b7 8c c5 c0 c8 4a c2 c0
       0.15861534 -6.060928 -6.173427 -6.0716286
000250 76 24 38 c1 bb 34 e7 3f 6c aa 17 bf 37 ed 27 bf
       -11.508902 1.8062967 -0.5924442 -0.65596336
000260 c7 2f 10 bf 41 1b 3c be 5c 08 66 bf 80 06 27 40
       -0.563229 -0.18369772 -0.89856505 2.6097717
000270 f8 34 33 40 15 f9 2e 40 65 dd 7e 40 04 b9 5c c0
       2.800108 2.7339528 3.9822628 -3.4487925
000280 2d 2b 99 3e 19 6f 99 3e 01 0b 97 3e 04 7e 94 c0
       0.29915753 0.29967573 0.29500583 -4.640383
000290 42 61 aa bf 31 ad c3 bd 00 0f 8f bd 83 b4 9b 3d
       -1.3310931 -0.09554518 -0.06985283 0.07602789
0002a0 15 6f 01 3f e1 01 d5 3f e0 02 88 40 eb 64 87 40
       0.5056012 1.6641198 4.250351 4.231069
0002b0 1c 90 8c 40 a3 2f b8 40 b4 4a 58 40 41 77 fe be
       4.3925915 5.755815 3.3795595 -0.4970036
0002c0 56 92 0b bf 1a 73 34 bf 21 c4 73 c0 a0 96 3e 40
       -0.54520166 -0.7048813 -3.8088458 2.9779434
0002d0 5d 31 b8 bf 94 60 9f bf 5a 48 6d bf ce d8 01 c1
       -1.4390064 -1.2451348 -0.92688525 -8.115431
0002e0 40 95 d1 b9 55 3b 58 40 de b3 4c 40 d6 5c 5f 40
       -0.00039974786 3.3786213 3.1984782 3.4900413
0002f0 a2 d8 5b 3e b6 1f cc 3e 9f 60 0c 40 75 1e 43 40
       0.21469358 0.39867944 2.1933973 3.048734
000300 0c 53 32 40 34 dd 73 40 df e8 07 40 ca 39 56 40
       2.7863188 3.8103762 2.1235883 3.3472772
000310 3a 39 50 40 31 01 52 40 8e dd 91 40 73 75 e7 bf
       3.2534928 3.2813227 4.5582952 -1.8082718
000320 0f d0 87 3f d9 60 f3 3f 24 fb ff 3f dd 18 34 41
       1.061037 1.901393 1.9998517 11.25607
000330 dc 28 f9 3e c9 19 1e c0 5a 91 18 c0 f8 04 1f c0
       0.48663986 -2.4703238 -2.3838716 -2.4846783
000340 43 88 45 c0 aa 95 ac 40 c0 e4 86 3f 0e b1 a8 3f
       -3.0864418 5.3932695 1.0538559 1.3179033
000350 cb 2a 92 3f f3 00 f3 3f 88 62 81 40 5d cc e4 3f
       1.1419309 1.8984665 4.0432777 1.7874867
000360 23 5b 05 40 d9 bb 02 40 3f 96 88 3f 00 bd 39 3e
       2.0836875 2.0427153 1.0670851 0.18138504
000370 2c f8 b0 40 ec bf b9 40 8a e5 bc 40 05 6c c0 40
       5.5302944 5.804678 5.90302 6.013186
000380 25 2a 81 3f 24 fa 95 be a1 47 9a be 68 81 8f be
       1.0090986 -0.29292405 -0.30132774 -0.28028417
000390 d8 80 68 be ae da b8 bf ba e3 68 bf 8d ba 8a bf
       -0.227054 -1.4441736 -0.90972483 -1.0838181
0003a0 9f ef 70 bf 9d 86 9e bf dd 67 32 bf 25 6e 81 3e
       -0.9411563 -1.2384831 -0.6968973 0.25279346
0003b0 b4 e9 4f 3e ac 5f 79 3e e9 5f 1d 3f 3b a7 e8 3e
       0.20303994 0.24352902 0.6147447 0.45440087
0003c0 a3 08 06 c0 e0 58 cd bf a6 1f da bf c6 60 65 3f
       -2.0942771 -1.6042747 -1.7040908 0.8960079
0003d0 c6 97 1c 40 f6 60 a1 40 4a e3 9a 40 83 04 9f 40
       2.4467635 5.043086 4.8402452 4.9693007
0003e0 f3 4f 55 40 6d 23 ea bf e3 e0 c2 3f f0 0d cc 3f
       3.3330047 -1.8292061 1.522488 1.5941753
0003f0 de 07 e1 3f d5 f9 33 40 c1 73 83 bc 90 00 bc bf
       1.7580526 2.8121235 -0.016046407 -1.4687672

lstm.weight_hh_l0 f4 [256, 64]
000000 3e b6 1d bf 50 4b 02 c0 2b dd 6b 3f 20 88 f9 bf
       -0.61606205 -2.0358467 0.9213435 -1.9494667
000010 14 83 f5 40 01 2e 72 3f 9b 85 11 be ef f3 3d 40
       7.6722507 0.94601446 -0.14211123 2.9680135
000020 10 2c f6 40 f0 92 74 c0 e9 d7 85 3f 11 b8 20 3d
       7.6928787 -3.8214684 1.0456516 0.03923804
000030 09 90 02 40 09 cb d1 3f 3f c8 22 40 8a 43 2c 40
       2.0400412 1.6390086 2.543472 2.6916223
000040 05 98 41 c0 82 2d f6 3d 45 65 8c 40 0d 32 67 3f
       -3.0249035 0.12020399 4.387362 0.90310746
000050 3e fb 41 c0 b1 10 15 c0 6b 09 2a be a8 7e 0d 40
       -3.0309596 -2.3291438 -0.16605155 2.2108555
000060 60 98 8c c0 59 04 ba bc 24 e2 0e c1 1c f1 2e 3e
       -4.3936005 -0.022707151 -8.93021 0.17084163
000070 ab 5a fa bf 8c c1 e7 3f 1e 9c ae 40 1e 83 f9 3e
       -1.955892 1.8105941 5.4565573 0.48732847
000080 c0 0c 4a c0 7b 16 3f 3f f4 fa 9e 3f bb bb 89 bf
       -3.1570282 0.7464368 1.2420335 -1.0760416
000090 70 c6 a1 40 89 67 f3 3e df eb d8 bf 94 24 51 40
       5.0554733 0.4753993 -1.6946982 3.2678576
0000a0 27 eb 15 40 ce 48 8f 3f 3d d1 31 c0 6e a9 c1 bf
       2.3424776 1.1194093 -2.778396 -1.5129831
0000b0 21 94 dc bf e0 ee 54 bf 4d 40 8c 40 04 22 98 c0
       -1.7232705 -0.83176994 4.382849 -4.7541523
0000c0 cf 62 0d c0 c0 17 20 c0 b0 6e 07 40 5c 0f 06 be
       -2.2091558 -2.5014496 2.1161308 -0.13091797
0000d0 3d 7a 19 be 96 9d a9 3f 41 f2 5e bf 83 22 04 40
       -0.14988036 1.3251216 -0.870884 2.0646064
0000e0 49 ed 04 3e ea 5e ae c0 91 be 77 c0 91 07 00 bf
       0.12981142 -5.449086 -3.8710063 -0.50011545
0000f0 52 3a 36 c1 32 d5 24 40 07 46 c7 40 19 28 c8 40
       -11.389238 2.5755124 6.2272983 6.2548947
000100 21 2b 73 40 37 06 68 bf 51 6f 3a bf 66 25 89 40
       3.7995074 -0.90634483 -0.72826105 4.2858152
000110 68 9a 3b 40 bf 23 69 bf 23 bb 0a bf 9f ef a3 3f
       2.9312992 -0.9107017 -0.541918 1.2807502
000120 84 b1 9f 3e c9 08 c4 bf b6 b4 a3 3f a4 b3 76 c0
       0.3119012 -1.5315181 1.2789524 -3.8547144
000130 db f6 ca 3f bd ee ed 3f 86 ab 18 c0 7f d3 ba 3f
       1.5856584 1.8588482 -2.385469 1.4595793
000140 28 61 92 bf 74 58 ba 3f bf d6 2b 3d 34 18 a3 bf
       -1.14359 1.4558244 0.041952845 -1.2741761
000150 8a 03 9f c0 dd 4b f9 3f 1b 05 3f c0 f4 80 d2 40
       -4.969182 1.9476277 -2.9846866 6.5782413
000160 19 70 92 3f 9f 2b 82 40 32 12 95 bf 62 40 84 bf
       1.144046 4.067825 -1.1646178 -1.0332148
000170 77 a4 ce bf e0 b4 33 3e 0a 95 02 40 d7 9a 64 c0
       -1.6143941 0.17549467 2.0403466 -3.5719507
000180 f3 8b 8f be 50 cf 90 bf 18 01 e1 3f 55 a0 7d bf
       -0.2803646 -1.1313267 1.7578459 -0.9907277
000190 87 dc 75 3f 7e 7d 6e bf 6c 3e ad 3f e4 55 07 3e
       0.96039623 -0.93160236 1.3534675 0.13216358
0001a0 40 6c 32 40 11 f3 8f 3f a6 c1 89 3f 28 ee 9c 3f
       2.787857 1.1246053 1.0762222 1.226018
0001b0 7c 14 d4 3e e9 b2 cb 3e 25 2c 2e 40 a2 41 5c c0
       0.41421878 0.39784935 2.7214444 -3.441506
0001c0 84 80 d8 3f 0f 90 f0 40 40 40 06 40 c7 71 58 40
       1.691422 7.5175853 2.0976715 3.3819444
0001d0 81 3e bf bd cb 35 51 3f 8b f4 96 be 35 62 e7 bf
       -0.093380935 0.81722707 -0.29483446 -1.8076845
0001e0 75 ce be 40 a1 0e 2c 3f 4e af 8f 3f 44 18 40 3f
       5.9627023 0.6720982 1.1225374 0.75037026
0001f0 45 91 61 bf 37 fb d3 3f e0 d8 ef be 18 a4 70 40
       -0.8811229 1.656104 -0.4684515 3.7600155
000200 a4 bb f3 3e f2 48 92 3e 0b 95 f6 bf f6 46 34 3e
       0.47604096 0.28571278 -1.9264234 0.17605194
000210 d5 02 7b 40 84 92 42 3f 5e 8d 4b 3f 1c 11 d7 be
       3.9220479 0.76004815 0.79512584 -0.4200524
000220 7f 1e a7 40 30 0c b6 c0 31 51 44 3f 33 4d 83 c0
       5.2224727 -5.6889877 0.7668639 -4.1031737
000230 19 c6 50 3e 77 8b 49 40 41 57 10 3f 0c ee 43 3f
       0.20388068 3.1491373 0.5638314 0.76535106
000240 7d b3 8b 40 8f b4 c5 bd 32 80 3e 3f 8d 76 a5 40
       4.36566 -0.096535794 0.7441436 5.1707215
000250 ca 11 c7 c0 e9 e5 0e c0 b7 11 e1 40 6d fb a9 be
       -6.2209215 -2.2327826 7.0334125 -0.33199635
000260 a8 b0 6a 3f ad e8 33 40 24 49 2a c0 87 57 2e bf
       0.91675806 2.8110764 -2.6607141 -0.68102306
000270 e7 97 fa be d4 1f 6a c0 c5 25 d9 3f 89 5b 9f c0
       -0.48944017 -3.6581926 1.6964651 -4.9799237
000280 a2 b0 42 40 59 5c 38 c0 e0 39 58 bf e6 47 f2 40
       3.0420308 -2.8806365 -0.8446331 7.5712767
000290 39 f3 b1 bf c0 d4 0e c0 45 54 28 41 5a 67 e4 3f
       -1.3902351 -2.2317352 10.520574 1.784404
0002a0 77 c4 03 40 b1 60 46 40 17 67 c5 3e bd fa 6e 40
       2.0588663 3.0996516 0.38555214 3.7340539
0002b0 d1 73 f3 3e e7 78 58 be b4 b4 15 41 ce 37 fb bd
       0.47549298 -0.2113987 9.356617 -0.12266503
0002c0 40 cf 8a bf b8 16 c6 40 21 c3 00 3f 8c ac b2 bf
       -1.0844498 6.1902733 0.50297743 -1.3958907
0002d0 29 9e 8e 3f fa 67 1e c0 0e 45 41 bf be 6d 6c 40
       1.1142017 -2.4750962 -0.75495994 3.6941981
0002e0 e7 63 ec 40 e2 3e 97 3e 52 51 94 40 90 ff 2c bf
       7.387195 0.29540163 4.634927 -0.6757746
0002f0 a0 d9 66 bf c8 84 6a c0 b7 13 f8 3f 63 34 82 40
       -0.9017582 -3.6643543 1.9381016 4.068895
000300 50 9e b8 40 10 85 40 be 58 30 55 40 40 49 c5 40
       5.7693253 -0.1880076 3.3310757 6.1651917
000310 22 fd 78 40 71 82 2b 40 87 03 82 3f de f5 92 c0
       3.89045 2.6798365 1.0157326 -4.592513
000320 57 64 b4 bf d1 cf 02 c0 d9 e4 8f 40 ce 89 3d 3d
       -1.4093121 -2.043934 4.4966855 0.046274
000330 f0 12 0d 40 db 8a ad 3f c0 66 30 3e 2d 7c 5b 3f
       2.2042809 1.3558 0.17226696 0.8573635
000340 e3 5b 7d 40 8e 9d 90 bf f6 40 74 c0 de 77 cc 40
       3.9587333 -1.1298082 -3.816465 6.389632
000350 40 01 cd 3f 07 20 d1 40 13 47 7b 40 a6 ad ab c0
       1.6016006 6.5351596 3.926213 -5.3649473
000360 80 a4 3b 3f 39 1a 6d 40 8c d8 e6 3e 62 40 95 bf
       0.7329788 3.7047255 0.45087087 -1.1660273
000370 3b db 94 bf c9 4f 2d c0 40 d6 60 3e b8 ed 41 c0
       -1.1629404 -2.7079947 0.2195673 -3.0301342
000380 25 17 d9 c0 8d e6 eb bf 9b 94 7d bf cb d4 ca 3e
       -6.7840753 -1.8429734 -0.9905488 0.39615473
000390 99 64 ad c0 b7 d5 ff 40 ca 23 a8 3f f8 c5 44 c0
       -5.41853 7.994838 1.3135922 -3.074583
0003a0 38 d6 86 3f a9 d2 45 3f a1 cc b4 bf bf 21 9c c0
       1.0534124 0.77274567 -1.4124948 -4.8791194
0003b0 b2 fd 17 41 ea f8 3a bf a4 18 69 c0 55 20 4b 3f
       9.499437 -0.7303606 -3.642129 0.7934621
0003c0 c4 21 bb 40 dd a1 6b 3f d1 bf 0d 40 9a 82 ee 40
       5.847872 0.9204386 2.2148325 7.4534426
0003d0 11 52 00 c0 9f 68 31 40 57 01 d5 c0 cc 23 b4 40
       -2.005009 2.7720106 -6.6564136 5.6293697
0003e0 af bd 55 3e 15 2d 71 bf 10 92 cd 40 7a 50 65 c0
       0.2087314 -0.94209415 6.42408 -3.583037
0003f0 c3 17 89 40 d8 1f ae c0 b0 d7 17 40 15 a8 97 bf
       4.2841506 -5.441387 2.3725395 -1.184817

lstm.bias_ih_l0 f4 [256]
000000 3b 27 f3 bf e0 4d a8 c0 b9 c0 73 c0 40 4f bf 3f
       -1.8996347 -5.259506 -3.8086379 1.494606
000010 89 0a 0a 41 be c4 11 c1 bb 3b f1 3e b6 b9 1c c1
       8.627572 -9.110533 0.47115883 -9.79534
000020 d4 b7 46 40 26 84 85 40 10 e8 8c c0 97 31 ed 3e
       3.10497 4.1723814 -4.403328 0.46326897
000030 61 b8 a3 c0 a8 27 40 c0 8b c6 ad c0 0a cf d0 bf
       -5.116257 -3.0024204 -5.430486 -1.6313183
000040 67 ae 83 40 44 2e 29 3f 8d 74 9f 40 ab 6e bb 3f
       4.1150393 0.6608622 4.9829774 1.4643148
000050 12 67 85 40 84 3d 54 40 fd cd 42 40 da 7e 0b 3f
       4.168832 3.3162546 3.0438225 0.54490435
000060 df 20 09 c1 01 6c 9e 40 c7 0a 9b 40 0f af 81 c0
       -8.570525 4.950684 4.8450656 -4.0526195
000070 e9 9c c0 3f bc fd 96 c0 ff 92 c1 c0 e6 0c 85 40
       1.5047885 -4.7184734 -6.049194 4.1578245
000080 1b a3 a1 c0 0c 7c 5f 40 a3 d4 55 bf f2 a1 be 40
       -5.0511603 3.4919462 -0.8352758 5.9572687
000090 9e ca 02 c1 69 bd 11 3f ac ad a4 be 91 84 24 c1
       -8.174467 0.5692964 -0.3216375 -10.282365
0000a0 7d dc 49 c0 02 19 c8 40 87 3c a2 bf 2f e6 69 c0
       -3.1540825 6.2530527 -1.2674721 -3.6546743
0000b0 a4 5e b6 c0 f2 e3 81 40 af 4b 65 40 bf f4 36 40
       -5.699053 4.0590754 3.5827444 2.858688
0000c0 c2 b0 95 40 33 78 fe 3d 69 fd ac c0 6d 83 1e c0
       4.677827 0.1242527 -5.405934 -2.4767716
0000d0 41 90 1b 41 26 ca 1a c1 3b 90 b7 c0 da 1b fe 40
       9.722718 -9.674353 -5.7363563 7.9409
0000e0 16 75 b7 40 24 a0 d7 c0 45 b6 8b 3f 00 2f 09 c0
       5.7330427 -6.7382984 1.0914999 -2.1434937
0000f0 ac 7d 64 40 d5 15 4f 40 34 f5 85 40 29 55 3b bf
       3.5701704 3.2357075 4.186182 -0.7317682
000100 01 03 2d c0 73 0b 40 40 5f fc 92 c0 23 55 90 c0
       -2.7033083 3.0006988 -4.593307 -4.5103927
000110 d8 13 4d 40 ad 01 0a bf 27 88 47 be 29 ef 8c 40
       3.2043362 -0.5390881 -0.19485532 4.4041944
000120 41 fb 17 c0 52 da af 3f bf 6f f1 3f b5 d1 cc bf
       -2.3747103 1.3738501 1.8862227 -1.6001498
000130 43 67 a0 40 9c 2a b7 40 60 71 d2 bf 15 a4 cf 3e
       5.012605 5.7239513 -1.6440849 0.40554872
000140 9b 54 ba 3f 7c 00 09 40 a2 d2 4c 3f 10 c4 89 bf
       1.455707 2.1406546 0.800089 -1.0762959
000150 9c f4 4d 40 3a 1d 69 40 45 cf b6 bf 22 b0 4a bf
       3.2180548 3.6424088 -1.4282004 -0.7917501
000160 cb 2b 20 40 33 0d 97 3f 43 75 b1 40 5d 1a 35 40
       2.502673 1.1800903 5.545564 2.829734
000170 5e 30 2b c0 2f 5c 8d c0 f1 c9 f8 3f af 62 b7 40
       -2.674827 -4.417503 1.9436628 5.7307963
000180 8e ba 37 40 9b f1 95 be 16 e4 90 c0 04 6f 43 c0
       2.8707614 -0.29285893 -4.5278425 -3.0536509
000190 92 7c 8c 40 e2 05 fb bd 78 00 0f bf c0 5a fa 3f
       4.3902063 -0.122569814 -0.5586009 1.9558945
0001a0 e5 bd 48 40 96 0e d5 bf 78 3c bf bf 52 32 ba 3f
       3.1365902 -1.6645076 -1.4940329 1.4546607
0001b0 d7 aa e2 3f 1a 4c 9b c0 44 07 af 3e 4c 00 ff bf
       1.7708386 -4.8530397 0.3418523 -1.9921966
0001c0 a2 d8 72 40 4f 3e b6 40 0d 75 2a 3f 70 6f 93 40
       3.7944722 5.695106 0.66584855 4.607353
0001d0 b4 89 86 40 f3 1a 79 3f 99 d4 a9 40 5e c2 5a 3f
       4.2043095 0.97306746 5.307202 0.8545283
0001e0 98 dc a6 c0 a5 3d 5f 40 ac c2 65 c0 c9 7e eb 3f
       -5.214428 3.4881375 -3.5900068 1.8398067
0001f0 b9 d1 73 40 93 36 6b c0 90 ea 13 c0 de de c4 40
       3.8096755 -3.675206 -2.3111916 6.1522055
000200 0d 3f 25 bd 76 76 aa bf 17 eb a2 40 f2 de 02 41
       -0.040343333 -1.3317401 5.0911975 8.17943
000210 46 36 51 3f 8e d8 6b 3d 0a b5 17 3e d9 94 c0 3f
       0.8172344 0.05757957 0.14815155 1.5045425
000220 e5 fd 14 40 9f 1a 46 c0 cb 71 0f c0 71 7d cc 3f
       2.3279965 -3.0953748 -2.2413204 1.5975782
000230 91 0c 93 40 3b d3 4d 40 ba c9 95 40 ad 47 df 3e
       4.595284 3.2160175 4.680875 0.43609372
000240 d7 a1 02 c0 8a 9b d6 3f 67 d8 82 40 b3 78 82 c0
       -2.041128 1.6766217 4.0889163 -4.077234
000250 f1 07 79 c0 7e 57 9b c0 00 56 89 40 a6 9d 3f 40
       -3.8911097 -4.85443 4.291748 2.993997
000260 29 d7 10 40 34 6a 4f 40 74 4f 48 c0 8b c6 2e c0
       2.2631323 3.2408571 -3.1298494 -2.730868
000270 bb 57 a0 bf 90 ab 9f bf 98 b5 e9 3f 2c 41 84 c0
       -1.2526773 -1.2474232 1.8258543 -4.1329556
000280 e6 5b 04 c0 0d 36 cd c0 d5 73 5c 40 85 bf ca 3f
       -2.068109 -6.412848 3.4445698 1.5839697
000290 00 a9 37 c0 ee 63 1b bf 80 55 d9 3f 29 8a a2 3f
       -2.86969 -0.60699356 1.6979218 1.2698413
0002a0 95 3e 28 40 de 6f 33 40 66 8b ac 3e 82 de a3 3f
       2.6288197 2.8037028 0.33700103 1.2802279
0002b0 30 46 c9 bf 36 65 30 40 e8 5b 63 c0 f7 6e b7 c0
       -1.5724545 2.7561774 -3.5524845 -5.7322955
0002c0 6f 97 68 40 48 7d 1b 3f 9f ec 03 be b4 aa 36 bf
       3.6342428 0.6073804 -0.12883233 -0.7135422
0002d0 15 87 b9 40 01 27 1b 3d 77 f4 1f 3f 2e 59 b4 be
       5.7977395 0.037878994 0.624824 -0.3522429
0002e0 ff dd a2 40 c6 90 0e 3f 0f 54 29 c0 f4 52 7a c0
       5.089599 0.55689657 -2.6457555 -3.911313
0002f0 3e 68 d4 c0 0d 13 21 40 ee 63 4d 40 a8 35 a6 40
       -6.637725 2.5167878 3.2092242 5.19405
000300 ea 9a 3d c0 a5 15 a3 bf fd 85 f9 be 0e c9 08 40
       -2.9625802 -1.274098 -0.48735037 2.1372714
000310 6d fb a5 40 38 df 7f bf 2c 13 af c0 3b 35 34 3e
       5.1869416 -0.9994998 -5.4710903 0.17598431
000320 70 ae 9f 40 ec f2 f2 3d c2 51 84 c0 b0 21 9d c0
       4.9900436 0.1186274 -4.13498 -4.9103622
000330 0b 99 82 c0 ed c2 28 40 45 0c 76 40 60 99 90 c0
       -4.081182 2.6368973 3.8444989 -4.5187225
000340 41 f6 d0 40 0e 45 90 c0 0f 16 c3 40 35 22 b2 3f
       6.5300603 -4.5084295 6.0964427 1.3916689
000350 eb f6 d6 40 6f 70 61 c0 34 13 ad bf e2 45 a1 bf
       6.7176414 -3.5224874 -1.3521485 -1.2599452
000360 03 77 7d 40 64 7a ae 40 35 01 4d 40 a8 e9 79 c0
       3.960389 5.4524403 3.2031987 -3.9048862
000370 71 56 0f c0 09 60 00 40 11 9d 83 c0 a1 1a 54 40
       -2.239651 2.0058615 -4.112923 3.3141253
000380 db 6e ba c0 f9 e6 c5 3f 83 af ed 40 f5 76 66 bf
       -5.826032 1.5461112 7.427675 -0.90025264
000390 31 ce 0e 40 49 34 26 c0 a6 fe 39 40 65 70 95 be
       2.231335 -2.5969412 2.9061675 -0.29187313
0003a0 4b f4 e0 3f 96 65 8a 40 9d 04 ec c0 e6 e3 72 c0
       1.7574552 4.3249006 -7.375563 -3.7951598
0003b0 46 1a 20 40 1c 59 2c be 4f e1 4d c0 a0 c9 09 c0
       2.5016036 -0.16830868 -3.2168767 -2.1529312
0003c0 e2 ef e9 40 9a ce 96 40 32 b2 eb 3e 50 c7 3f 3f
       7.3105326 4.71272 0.4603439 0.749135
0003d0 ca da 00 41 2d a6 32 3d 0f 09 40 c0 47 fa 9c 40
       8.053415 0.04361551 -3.000553 4.9055514
0003e0 9a 2a 99 40 82 96 62 3f b3 63 24 40 9e b8 b8 3f
       4.7864504 0.88510907 2.5685852 1.4431341
0003f0 96 67 a7 bf e2 c0 08 40 79 96 41 40 39 46 67 c0
       -1.3078487 2.1367726 3.0248091 -3.613661

lstm.bias_hh_l0 f4 [256]
000000 64 79 e9 bf cc 2b ac c0 ef 3b 75 c0 7c e1 b6 3f
       -1.824017 -5.3803463 -3.831783 1.4287562
000010 0b b6 08 41 b2 dd 11 c1 da 51 c4 3e 70 2c 1c c1
       8.544444 -9.116625 0.38343698 -9.760849
000020 6c 8a 4a 40 44 2e 84 40 81 15 8b c0 0a a2 02 3f
       3.1646986 4.1306477 -4.346375 0.510285
000030 2b 62 a1 c0 ba 44 44 c0 03 5f ab c0 0a 35 e2 bf
       -5.0432334 -3.0666947 -5.355348 -1.7672436
000040 96 8c 88 40 88 55 14 3f 00 3b 9f 40 15 68 d1 3f
       4.2671614 0.5794301 4.975952 1.6359888
000050 8c 4a 81 40 62 34 52 40 f1 d2 44 40 03 34 23 3f
       4.04035 3.2844472 3.0753748 0.6375124
000060 2b 48 0a c1 9f 39 a4 40 bf 69 9b 40 71 ae 80 c0
       -8.642619 5.132034 4.8566585 -4.021294
000070 a7 c8 c0 3f 16 26 99 c0 af 61 c2 c0 6c 46 88 40
       1.5061234 -4.785899 -6.0744243 4.2585964
000080 53 82 9f c0 a6 1a 61 40 e1 13 56 bf f2 ed bf 40
       -4.9846587 3.5172515 -0.8362408 5.997796
000090 04 8b 00 c1 85 f6 0c 3f 1f 3f ee be 61 0e 23 c1
       -8.033939 0.5506366 -0.46532533 -10.19101
0000a0 81 f3 48 c0 22 5f c7 40 41 82 b2 bf 89 cd 64 c0
       -3.1398623 6.230363 -1.3946 -3.5750449
0000b0 28 99 b3 c0 ba a3 85 40 29 38 5e 40 58 6e 42 40
       -5.612446 4.176236 3.4721777 3.0379848
0000c0 51 ab 93 40 a1 5b 3a 3e f9 c8 ac c0 cb 7e 27 c0
       4.6146626 0.18199016 -5.399533 -2.6171138
0000d0 37 3e 1b 41 70 e4 1b c1 29 11 b2 c0 cc 16 fd 40
       9.702689 -9.743271 -5.5645947 7.909033
0000e0 50 31 be 40 8c 3e d3 c0 24 ab 6f 3f 22 3c 16 c0
       5.9435196 -6.601385 0.93620515 -2.3474202
0000f0 ca 94 67 40 51 33 42 40 fa e7 88 40 79 45 3a bf
       3.6184564 3.034382 4.2783175 -0.72762257
000100 f7 4c 34 c0 0b 8f 3c 40 92 5d 92 c0 37 35 8e c0
       -2.8171976 2.9462306 -4.573922 -4.443996
000110 c2 00 4a 40 73 ed b6 be 54 1d 06 be df e9 87 40
       3.1562963 -0.35728034 -0.13097125 4.2472987
000120 6b 39 18 c0 b6 64 a7 3f 29 39 f6 3f 48 07 d9 bf
       -2.3785045 1.307761 1.9236194 -1.6955347
000130 ff 2a 9b 40 dc f6 b5 40 dc 56 df bf 19 b0 a4 3e
       4.8489985 5.686384 -1.7448382 0.32165602
000140 f1 28 a1 3f d0 15 00 40 b9 8f 47 3f a1 62 8d bf
       1.2590619 2.0013313 0.7795368 -1.1045724
000150 52 cf 47 40 77 10 6d 40 15 0d ae bf a0 09 2c bf
       3.1220288 3.70413 -1.3597742 -0.67202187
000160 ad 71 28 40 48 52 8a 3f 20 99 b0 40 37 44 32 40
       2.6319382 1.080636 5.518692 2.7854135
000170 02 a1 2a c0 a4 eb 90 c0 69 9b fc 3f 02 bb b8 40
       -2.6660771 -4.5287647 1.9734927 5.772828
000180 45 e6 31 40 92 67 b6 bd 53 b0 90 c0 f7 87 4a c0
       2.7796795 -0.08906473 -4.521524 -3.1645486
000190 d3 11 8d 40 c0 6c 33 be ca 28 23 bf 5e c5 f7 3f
       4.408426 -0.17521954 -0.63734114 1.9357107
0001a0 3d 4e 4e 40 07 eb d2 bf 97 2f da bf 8b 69 c7 3f
       3.2235253 -1.6477975 -1.7045773 1.5579084
0001b0 57 13 df 3f 34 66 9f c0 84 f0 17 3e d5 dc 07 c0
       1.7427777 -4.981226 0.14837843 -2.1228535
0001c0 72 ea 72 40 5d a1 b3 40 33 1e 3a 3f bb b2 94 40
       3.7955594 5.6134477 0.7270233 4.6468177
0001d0 19 a7 8c 40 af ba 8b 3f 61 95 aa 40 6e 87 56 3f
       4.3953977 1.0916346 5.3307347 0.838004
0001e0 40 9d a5 c0 ff a4 60 40 e4 6f 6b c0 51 81 e9 3f
       -5.1754456 3.5100706 -3.6787043 1.8242589
0001f0 89 f0 75 40 b7 a9 76 c0 91 52 21 c0 ef dc c2 40
       3.842806 -3.8541086 -2.5206645 6.0894694
000200 97 d2 f1 bd a4 45 a8 bf 78 b2 a6 40 ce fe 00 41
       -0.11807745 -1.3146253 5.2092857 8.062208
000210 48 ee 3e 3f 4e 80 36 3d da cb 81 3d b5 1a c1 3f
       0.7458234 0.044555955 0.0633771 1.5086275
000220 ed 3d 15 40 69 2c 4a c0 74 dc 11 c0 1b 2f cf 3f
       2.3319046 -3.1589606 -2.2790804 1.618625
000230 c8 8b 90 40 fb 90 4d 40 9f 41 94 40 87 9d d0 3e
       4.517063 3.211974 4.6330104 0.40745184
000240 b4 a5 f7 bf 28 fe e2 3f 1f 35 7d 40 a1 ef 83 c0
       -1.9347444 1.7733812 3.9563673 -4.1230016
000250 8a c8 79 c0 84 9f a0 c0 38 81 8e 40 aa 77 40 40
       -3.902865 -5.019472 4.453274 3.0073037
000260 f7 a4 07 40 10 96 4f 40 0e a6 4d c0 fc 01 2b c0
       2.1194437 3.243534 -3.2132602 -2.671996
000270 b0 90 b1 bf 52 45 9e bf f6 93 f0 3f d5 f3 86 c0
       -1.387228 -1.2364905 1.8795154 -4.2172647
000280 ad 89 fb bf 3f 03 cd c0 3f 2b 53 40 f9 8a e2 3f
       -1.965139 -6.4066463 3.2995145 1.7698661
000290 22 c0 39 c0 9e e7 11 bf 74 d9 ce 3f e5 ba ab 3f
       -2.9023519 -0.56994045 1.6160111 1.3416411
0002a0 37 9b 27 40 6c d2 34 40 2c 63 2e 3e 78 94 9d 3f
       2.6188486 2.8253431 0.17030019 1.2310934
0002b0 16 5b b5 bf e4 06 34 40 52 60 6b c0 5d 81 b3 c0
       -1.4168422 2.8129206 -3.677754 -5.6095414
0002c0 65 9e 5c 40 5e 27 0f 3f 45 05 53 be fa 48 16 bf
       3.4471676 0.55919445 -0.20607479 -0.58705103
0002d0 af 0e b6 40 22 a0 d9 3c 48 24 12 3f 83 5a 34 be
       5.6892924 0.026565615 0.5708661 -0.17612652
0002e0 65 d1 a2 40 a9 c2 1a 3f 43 92 2a c0 9c be 80 c0
       5.088061 0.6045328 -2.665177 -4.0232677
0002f0 5e 40 d2 c0 03 5d 16 40 c2 ad 4d 40 98 29 a6 40
       -6.5703573 2.349427 3.2137303 5.1925774
000300 90 1b 40 c0 a2 b4 92 bf 11 ae e3 be 01 8f 03 40
       -3.0016823 -1.1461375 -0.4446874 2.0556033
000310 85 d1 ab 40 b4 d3 8e bf 28 57 ae c0 fc 85 82 3e
       5.369326 -1.1158357 -5.448139 0.25492847
000320 5e b2 9e 40 a0 2f 42 3e f2 da 84 c0 d3 fa 97 c0
       4.9592733 0.1896348 -4.1517267 -4.749368
000330 41 30 7f c0 65 99 2c 40 eb e0 68 40 8f 95 91 c0
       -3.9873202 2.6968625 3.638728 -4.5495067
000340 eb 04 cc 40 79 7a 8d c0 c3 de c7 40 71 14 b5 3f
       6.3756003 -4.4212003 6.2459426 1.4146863
000350 5c 82 d7 40 87 31 57 c0 5c 60 b9 bf 40 c3 be bf
       6.734663 -3.362398 -1.4482532 -1.4903336
000360 22 42 77 40 ed 35 af 40 b7 83 4f 40 f8 2d 7a c0
       3.8634114 5.4753327 3.2424142 -3.9090557
000370 33 e4 0d c0 bd bd 0d 40 f0 04 85 c0 08 8e 59 40
       -2.2170532 2.2147057 -4.1568527 3.399294
000380 25 79 bd c0 b9 f2 c4 3f 11 51 ea 40 de 07 84 bf
       -5.921038 1.5386573 7.322396 -1.0314901
000390 19 2a 05 40 eb e7 23 c0 30 55 34 40 fc ee 0c be
       2.0806944 -2.5610301 2.8176994 -0.1376304
0003a0 20 64 fc 3f d9 5f 8b 40 c5 20 e9 c0 f0 62 6f c0
       1.9718056 4.35545 -7.28525 -3.7404137
0003b0 af 09 18 40 b8 a0 55 be 31 0b 4a c0 ec 84 05 c0
       2.375591 -0.2086209 -3.156933 -2.086238
0003c0 20 1c ea 40 f2 5a 90 40 a0 c2 08 3f c4 6d 20 3f
       7.315933 4.5111017 0.53421974 0.6266749
0003d0 35 1f 02 41 ea 72 3d 3e 21 5f 33 c0 d5 a7 9a 40
       8.132619 0.18500867 -2.8026812 4.8329873
0003e0 93 23 95 40 90 ee 5b 3f 27 b4 1f 40 e2 d0 b8 3f
       4.6605926 0.8591089 2.4953706 1.4438746
0003f0 c2 a1 aa bf 5a 3f 08 40 21 48 3b 40 8a ff 5e c0
       -1.3330615 2.1288667 2.9262774 -3.4843469

fc1.weight f4 [64, 64]
000000 61 9f ce c0 f1 c3 14 3f 52 25 5e 40 d9 3d 5f c0
       -6.4569554 0.5811148 3.4710279 -3.48815
000010 f4 f9 84 40 18 7c cc c1 f2 f3 ae c0 08 07 39 41
       4.155512 -25.560593 -5.4672785 11.564217
000020 be 9b 7d 40 39 ae 95 c0 61 66 8a 40 85 12 56 c1
       3.9626307 -4.6775174 4.3249974 -13.379521
000030 d6 4a 95 40 29 22 ad 3f 0f ce 77 c0 68 82 7b 40
       4.6653852 1.352605 -3.8719518 3.9298344
000040 c6 6e ae c0 a0 24 5a 40 2e 09 4b 40 30 9e d0 3e
       -5.451022 3.4084854 3.1724353 0.40745687
000050 5d 12 1e 3e 5e c2 15 c0 6e 63 b8 3f 16 10 bf 40
       0.15436693 -2.3399882 1.4405344 5.9707136
000060 97 ee c3 40 63 16 c8 40 42 ad b3 bf 67 b5 13 c1
       6.1228747 6.2527328 -1.4037249 -9.231788
000070 be 7e 0e c0 d7 66 9e 41 de 78 ad 40 2e a3 35 c0
       -2.2264857 19.800215 5.4210043 -2.8380847
000080 33 e6 a8 c0 6f a2 72 3f b1 58 a0 3f 18 75 82 3f
       -5.2781005 0.94779104 1.2527066 1.0191984
000090 7d 17 55 41 99 40 c3 3d c4 61 88 40 f9 29 d2 40
       13.318234 0.095338054 4.2619343 6.5676236
0000a0 2a ca 5d 40 ab d1 08 40 65 5e 8b c0 ad bb 8a 40
       3.465464 2.137797 -4.355273 4.3354096
0000b0 cf 1f 16 41 93 e6 e4 bf f0 88 80 3e 95 34 bd bf
       9.382766 -1.7882866 0.25104475 -1.4781672
0000c0 12 b2 69 3f 4c 5a f7 3f c1 b4 8c 40 47 28 17 bf
       0.9128734 1.9324431 4.3970647 -0.59045833
0000d0 b7 7c 35 40 11 77 16 c0 09 9e 58 40 64 b2 c2 be
       2.835737 -2.3510172 3.3846457 -0.38026726
0000e0 1b ee cb bf 57 a9 88 c0 ab 93 eb bf de ac a3 c0
       -1.5932039 -4.2706714 -1.840444 -5.114852
0000f0 49 32 95 c0 71 ad 16 41 76 be f5 bf 72 4b 0e 40
       -4.6623883 9.417344 -1.9198749 2.2233548
000100 6d ac 5a c0 ae 2f b5 40 f1 a2 16 41 a1 69 1d c0
       -3.416774 5.6620703 9.414781 -2.459572
000110 55 bd 54 bf bb e3 f2 bf d8 6f 83 c0 78 0f e0 3f
       -0.831014 -1.8975748 -4.107403 1.7504721
000120 8a 2e cd 40 c5 eb cb bf 1d f3 a5 40 13 dd 8e c0
       6.411931 -1.5931326 5.185927 -4.4644866
000130 07 33 00 41 a6 15 98 40 b2 b0 cf bf fb d8 f4 40
       8.012458 4.7526426 -1.6225798 7.651487
000140 c5 94 f7 bf 53 83 0a 41 d9 e5 4d 40 0e 95 1f 40
       -1.9342276 8.657062 3.2171538 2.4934726
000150 04 e1 16 c0 9b 4f 07 3f 05 24 d9 3d 33 a2 3f 40
       -2.3574839 0.52855843 0.10602573 2.9942749
000160 e6 d1 87 40 93 5d 56 40 f1 79 ff bf 05 76 19 c1
       4.2443724 3.3494613 -1.9959089 -9.591313
000170 10 7c 27 c0 7a 6b 43 c0 6a 63 bb 3f d3 27 cd c0
       -2.6169472 -3.0534348 1.4639714 -6.4111114
000180 c2 6b d4 c0 1e f8 4a 3f 76 ee 98 3e 0a e6 af 3f
       -6.638154 0.79284847 0.2986943 1.3742077
000190 fe 8c d3 3f bf fd 26 c0 33 e3 8c 40 cd f6 61 40
       1.6527402 -2.6092374 4.4027343 3.5306885
0001a0 69 5d 53 40 ff 05 66 c0 1f 13 56 c0 f9 48 6a 40
       3.3025763 -3.594116 -3.344917 3.660704
0001b0 f7 61 d2 40 93 18 82 c0 bf 04 9d 3d ee 58 86 c0
       6.5744586 -4.0655 0.07666921 -4.1983557
0001c0 09 40 68 3f e2 0d 3c 3e 0a 2a 05 41 6c 67 f2 bf
       0.9072271 0.18364671 8.322763 -1.8937812
0001d0 4f 37 0a bf a2 2c c0 bf e6 d5 5c bf 72 68 2c bd
       -0.53990644 -1.5013621 -0.86263883 -0.042091794
0001e0 42 c5 e3 bf 0a 80 df bf 70 ac 3e c0 b2 09 89 c0
       -1.7794573 -1.746095 -2.9792747 -4.2824335
0001f0 a4 0f 5c c0 71 6a d4 40 3a 18 0d 40 f6 d9 68 40
       -3.4384546 6.6379933 2.2046037 3.6383033
000200 e4 46 08 c1 c7 3f 58 40 d8 9c 0a 40 0c 10 5c c0
       -8.517307 3.3788927 2.165823 -3.4384794
000210 c5 54 cd 3f 52 3f b5 c1 a3 3b c5 c0 04 a0 e5 40
       1.6041495 -22.655918 -6.16353 7.175783
000220 3a 8d 8f 40 80 83 17 c0 3a 33 47 40 3f 31 a5 c1
       4.4859896 -2.3674011 3.1125016 -20.649046
000230 5d de 3f be bb 9d 9b be b9 fa 3f c1 6d 0b 8b 40
       -0.18737169 -0.30393776 -11.998712 4.3451447
000240 ec d9 6d c0 b9 d8 f4 40 e3 1c 1b 40 d7 d4 0d c0
       -3.716426 7.6514554 2.423638 -2.2161157
000250 e7 2e af 3c d7 4c 83 c0 53 da b6 40 a9 b6 2d 40
       0.02138467 -4.10313 5.714151 2.7142737
000260 f7 f9 a9 40 a6 1b f3 40 75 b8 94 c0 99 a9 68 c1
       5.3117633 7.597125 -4.6475167 -14.541406
000270 80 42 2e 3e 1e ac a9 41 dd a0 a4 40 e5 75 1f c0
       0.17017555 21.209042 5.1446366 -2.4915707
000280 c7 d5 6d c0 66 5d b3 c0 72 bf 9b bf 4d 71 98 40
       -3.716173 -5.605151 -1.21678 4.7638307
000290 68 ea 5c 41 ca b1 aa be 96 49 53 c0 5c b4 ce 40
       13.807228 -0.33338767 -3.3013663 6.4595165
0002a0 bf 97 75 40 b9 af 85 3f e4 29 60 c0 cc 4e a0 40
       3.8373868 1.0444251 -3.5025568 5.0096188
0002b0 97 9d ad 40 d7 a0 8a bf 88 9c 6e 3f 1c 7c db c0
       5.425487 -1.0830334 0.932076 -6.8589
0002c0 e5 69 c6 3f 67 65 1a 40 90 53 c9 40 48 d7 4e c0
       1.5501066 2.412439 6.2914505 -3.2318897
0002d0 3c 2f 81 bf 37 66 74 bf 16 9b a3 3e 5d 17 74 3e
       -1.009254 -0.9546847 0.3195426 0.23837037
0002e0 84 82 e1 be b2 01 6a c0 8f e2 db c0 3a 12 00 40
       -0.44044888 -3.6563535 -6.871406 2.0011125
0002f0 6a e4 3b c0 e2 02 c8 40 5c ae b6 3f 14 fd bc 40
       -2.9358163 6.250352 1.427196 5.9058933
000300 52 3c a2 c0 ee a5 2b c0 dd 3a d2 be f3 7b 3c be
       -5.0698633 -2.6820025 -0.41060534 -0.18406658
000310 c4 47 ad 40 40 58 c0 c1 96 69 53 c0 ef 40 d0 40
       5.4150105 -24.04309 -3.3033195 6.5079265
000320 98 cb d8 bf 7d ca b9 bf ec 92 b4 40 f4 f8 95 c1
       -1.6937132 -1.451492 5.642935 -18.74656
000330 93 fc 75 40 6a 98 07 bf d4 0c 06 c1 e1 48 18 c0
       3.843541 -0.5296694 -8.378132 -2.3794482
000340 75 5c bf c0 b3 9f 1d 41 9d b4 10 40 b6 6b 17 c0
       -5.9800363 9.851489 2.2610238 -2.3659492
000350 5c 0c 82 c0 78 04 84 c0 39 ac ca 40 60 9c c9 40
       -4.0640087 -4.1255455 6.3335233 6.3003387
000360 64 11 9b 40 46 05 19 40 39 6a 75 c0 8c de 76 c1
       4.845873 2.3909469 -3.8346083 -15.429333
000370 f2 71 b2 c0 a5 0c c6 41 58 f4 56 40 0e a3 05 40
       -5.5764093 24.756174 3.3586636 2.088077
000380 d5 bb 9b c0 ce 48 af bf 50 d7 1f 40 10 52 92 bf
       -4.8666787 -1.3694093 2.4975166 -1.1431293
000390 ea 97 49 41 05 f1 10 3e b6 a9 6d 40 c0 66 13 41
       12.599588 0.14154442 3.7134833 9.212585
0003a0 fd aa dc 40 9f 07 cb 40 b3 08 76 c0 ed 5b 9d 40
       6.8958726 6.3446803 -3.844281 4.9174714
0003b0 dd da 00 41 af 77 5e bf 81 0a 30 40 66 52 9a bf
       8.053433 -0.8690137 2.750641 -1.2056396
0003c0 cb d3 93 3e 6e 24 25 40 b8 38 e5 40 8d 14 1b bf
       0.28872523 2.5803485 7.1631737 -0.60578233
0003d0 be aa 12 bf d9 a8 ed bf ca 89 2d 40 c9 3b 09 c0
       -0.5729178 -1.8567153 2.711535 -2.144274
0003e0 bf 68 c7 bf 74 db a5 c0 43 8c 92 c0 af ab 20 c0
       -1.5578841 -5.1830387 -4.579622 -2.5104787
0003f0 02 e8 81 c0 06 fb d0 40 6e c1 59 c0 2d 4e d9 40
       -4.0595713 6.5306425 -3.402431 6.790793

fc1.bias f4 [64]
000000 2d 94 34 42 50 f4 42 42 3b cb 2f 42 44 d3 2f 42
       45.144703 48.738586 43.948467 43.956314
000010 dc 94 41 42 97 75 38 42 43 00 4b 42 e5 df 3f 42
       48.39537 46.114834 50.750256 47.968647
000020 ab da 30 42 4b 02 3e 42 28 9b 33 42 64 a2 38 42
       44.213543 47.50224 44.90152 46.158585
000030 dd b1 4f 42 3e d2 40 42 69 df 33 42 79 b6 46 42
       51.923695 48.205315 44.968174 49.678196
000040 b8 bb 3d 42 55 d9 46 42 dc 18 45 42 9f a6 49 42
       47.43332 49.71224 49.274277 50.412716
000050 f4 9e 43 42 7e 38 33 42 8e dc 2d 42 f3 89 3b 42
       48.905228 44.80517 43.465385 46.884716
000060 4b 50 41 42 5c 77 45 42 a4 4c 3c 42 5d 97 4a 42
       48.32841 49.36656 47.074844 50.647816
000070 be a2 3e 42 fd 56 39 42 98 5a 3e 42 44 23 36 42
       47.658928 46.33495 47.58847 45.53444
000080 da b1 4a 42 d8 b5 34 42 4c 29 38 42 7d 27 46 42
       50.673683 45.17758 46.04033 49.538563
000090 11 b4 38 42 0e 42 37 42 ba 2f 37 42 22 2f 36 42
       46.175846 45.814507 45.796608 45.54603
0000a0 4f 60 46 42 eb fe 45 42 92 0e 37 42 ac e0 38 42
       49.59405 49.498943 45.76423 46.219406
0000b0 5d 89 39 42 cd 02 45 42 1f 8b 3d 42 e6 7d 3e 42
       46.384144 49.252735 47.38586 47.622948
0000c0 e3 c7 49 42 98 94 35 42 da 8a 36 42 bc a7 39 42
       50.4452 45.39511 45.635597 46.413803
0000d0 29 51 44 42 14 de 43 42 5b 3c 3c 42 e8 0b 3a 42
       49.079258 48.966873 47.05894 46.511627
0000e0 cc e8 41 42 85 e3 3a 42 bb 16 42 42 bd 48 4a 42
       48.47734 46.722187 48.522198 50.571033
0000f0 aa 69 4f 42 3a 7a 48 42 b0 a4 43 42 1c e5 40 42
       51.853188 50.11936 48.910828 48.22374

fc2.weight f4 [1, 64]
000000 0b be 0c 41 b6 3f 08 41 52 e3 14 41 07 44 0c 41
       8.796397 8.515554 9.305498 8.766608
000010 b4 4a 8d 41 a6 bb 1a 41 73 b2 0d 41 27 27 1b 41
       17.661476 9.670813 8.856067 9.697059
000020 50 66 17 41 f5 e6 11 41 19 f7 15 41 f7 b5 11 41
       9.462479 9.118886 9.372827 9.106925
000030 92 cc 16 41 9b f6 17 41 00 f0 08 41 c4 7f fd 40
       9.424944 9.497706 8.558594 7.9218464
000040 2c 72 13 41 e7 b0 8e 41 fb 88 27 41 5f db 19 41
       9.215374 17.836378 10.4709425 9.616057
000050 6c a0 02 41 bc 27 0d 41 65 6d 00 41 ed 61 1c 41
       8.1641655 8.822201 8.026708 9.773908
000060 1b c7 fc 40 ac 60 15 41 54 99 1a 41 c5 72 98 41
       7.899305 9.336102 9.662434 19.05604
000070 5b 59 1b 41 d2 1f 14 41 62 bd 1a 41 1b 29 fd 40
       9.709315 9.257769 9.671236 7.9112678
000080 18 58 09 41 60 15 1b 41 dc ba 13 41 51 89 11 41
       8.584007 9.6927185 9.23312 9.0960245
000090 bb 9a fb 40 e5 4f 20 41 bf 24 0c 41 c9 77 02 41
       7.862638 10.0195055 8.758971 8.154244
0000a0 cd 18 12 41 f3 85 8a 41 54 71 17 41 aa 71 03 41
       9.131055 17.315405 9.465168 8.21525
0000b0 b6 d0 11 41 41 30 0a 41 c6 ce 11 41 a3 4b 03 41
       9.113455 8.636781 9.112982 8.205966
0000c0 a6 77 0d 41 e0 11 17 41 29 6a 0e 41 33 9e 1b 41
       8.841711 9.441864 8.900918 9.726123
0000d0 02 d7 09 41 55 f9 63 41 35 4f 22 41 11 54 0d 41
       8.614992 14.248372 10.144338 8.833024
0000e0 e3 86 19 41 2a 61 12 41 99 14 af 41 33 c7 0c 41
       9.595431 9.148722 21.885057 8.798633
0000f0 32 05 1b 41 d8 ec 06 41 c9 1f 05 41 05 eb 05 41
       9.688768 8.432823 8.32026 8.369878
