best_model.pth (torch, 92836 bytes, 7 tensors)

lstm.weight_ih_l0 f4 [256, 5]
0	0x403ca7d5	2.9477437
1	0x403d2cc4	2.9558573
2	0x403666e0	2.850029
3	0x403b7c21	2.9294512
4	0x401003f2	2.2502408
5	0xc0fdb0e6	-7.927844
6	0xc0f48d0d	-7.642218
7	0xc0f73c10	-7.726082
8	0xc10ca020	-8.789093
9	0xc097ee3e	-4.7478323
10	0x4103b1c4	8.2309
11	0x40fe7aa6	7.9524717
12	0x410209f7	8.127433
13	0x41040016	8.250021
14	0x4021a912	2.5259442
15	0xc043be9b	-3.0585086
16	0xc0460a76	-3.0943885
17	0xc03c41fe	-2.9415278
18	0xc04e5511	-3.223942
19	0xc0569461	-3.3528063
20	0xc0161c35	-2.3454716
21	0xc0187dd7	-2.3826807
22	0xc0098d77	-2.1492593
23	0xc00481d6	-2.0704246
24	0x3ebdb70f	0.37053725
25	0xc042288e	-3.0337253
26	0xc03d94a8	-2.9621983
27	0xc03ed048	-2.9814625
28	0xc0309b9a	-2.7594972
29	0x3fa3160c	1.2741103
30	0xbeb215f5	-0.34782377
31	0xbe29cbb7	-0.16581617
32	0xbe8352be	-0.25649065
33	0xbf2ee047	-0.6831097
34	0xbeae3ba9	-0.34029892
35	0xbed08df7	-0.4073331
36	0xbe508443	-0.20362954
37	0xbeb574a0	-0.3544054
38	0xbe80bbc1	-0.25143245
39	0xc007585f	-2.1147687
40	0xc0796d4b	-3.8972957
41	0xc05f3724	-3.4877405
42	0xc068f4a2	-3.6399312
43	0xc058f18a	-3.3897424
44	0xbffd2576	-1.9777057
45	0x407cd3de	3.9504313
46	0x406d1c8c	3.7048674
47	0x40721c86	3.782991
48	0x406ca4fe	3.6975703
49	0xbea4d788	-0.32195687
50	0x40083d65	2.1287472
51	0x3ffefa5e	1.9920156
52	0x3ff3ea83	1.9055942
53	0x3fe1ace7	1.7630891
54	0x402339e8	2.5504093
55	0xbf1c5753	-0.61070746
56	0xbf1e513e	-0.61842716
57	0xbf268579	-0.65047413
58	0xbf10686e	-0.5640935
59	0x3dcedd30	0.10100782
60	0xc08088d0	-4.0167007
61	0xc07ef579	-3.9837325
62	0xc07a63d7	-3.9123437
63	0xc078c6a0	-3.887123
64	0xc0811db2	-4.034875
65	0x404aad32	3.166821
66	0x402ff2fc	2.7492056
67	0x40362598	2.8460445
68	0x40317729	2.772898
69	0x3ff80cdf	1.9378928
70	0x3f91fafc	1.1404719
71	0x3f7e7bf1	0.9940787
72	0x3f6dd0f6	0.92896974
73	0x3f489df2	0.78366005
74	0x3eed20ac	0.4631399
75	0x3fad0bff	1.3519286
76	0x3fb13738	1.3844976
77	0x3fb9ad13	1.4505943
78	0x3fa7d495	1.311175
79	0xbef0d426	-0.47036856
80	0xc129369e	-10.575834
81	0xc129d827	-10.615272
82	0xc129c040	-10.609436
83	0xc1267014	-10.402363
84	0x3fb8be84	1.4433141
85	0x4117837c	9.469601
86	0x41137912	9.217058
87	0x41143331	9.262498
88	0x41133625	9.200719
89	0x40982558	4.7545586
90	0x4032d201	2.7940676
91	0x40322187	2.7832963
92	0x402f517f	2.7393491
93	0x40300741	2.7504427
94	0x404ea220	3.2286453
95	0x3ea64604	0.32475293
96	0x3ebea79a	0.37237245
97	0x3e3f3204	0.18671423
98	0x3e673fab	0.22582881
99	0x404b0646	3.172258
100	0xc0b3aae9	-5.614613
101	0xc0b4af23	-5.646379
102	0xc0afed3c	-5.4977093
103	0xc09f70f4	-4.982538
104	0x404c1ce7	3.189264
105	0xbf393f11	-0.72361857
106	0xbf4ad1d7	-0.7922644
107	0xbf14ae04	-0.58078027
108	0xbf310708	-0.69151354
109	0x3fb2fb83	1.3983005
110	0xc0ceac9b	-6.45857
111	0xc0d55a22	-6.6672525
112	0xc0d30e01	-6.5954595
113	0xc0e417d8	-7.1279106
114	0xc02758ea	-2.614802
115	0x3f954994	1.1663079
116	0x3f713a97	0.94230026
117	0x3f8c441f	1.0958289
118	0x3f6f6deb	0.93527097
119	0x3f897c98	1.0741148
120	0x40da78ce	6.8272467
121	0x40e077ab	7.014608
122	0x40dcdb9f	6.901809
123	0x40df4eae	6.9783545
124	0x3d95a932	0.07307662
125	0xc090a51e	-4.520156
126	0xc090b029	-4.521504
127	0xc09ab5a1	-4.8346715
128	0xc091a756	-4.5516768
129	0xc0006032	-2.0058713
130	0xc0d89f53	-6.7694488
131	0xc0dc05dc	-6.8757153
132	0xc0df4154	-6.9767246
133	0xc0e126cc	-7.035986
134	0xbfae6745	-1.3625265
135	0xc130d10f	-11.05104
136	0xc12dd962	-10.865572
137	0xc12e6abe	-10.90106
138	0xc1290a07	-10.564948
139	0xc0d2c0b9	-6.5860257
140	0xbe42a69f	-0.19008873
141	0xbe914bd0	-0.28378153
142	0xbee32b3d	-0.44368926
143	0xbe2e320f	-0.17011283
144	0x3ec6eb0d	0.38851205
145	0x40527d5c	3.2889013
146	0x40558625	3.3363125
147	0x4049592f	3.1460683
148	0x40577368	3.3664188
149	0x40ec22b7	7.3792377
150	0x3f4c184d	0.7972458
151	0x3f1e8513	0.61921805
152	0x3f146044	0.5795939
153	0x3f6774b6	0.9041246
154	0x40475b47	3.1149461
155	0x40ae86ae	5.4539404
156	0x40ab719c	5.3576183
157	0x40ac924e	5.3928595
158	0x40af7280	5.482727
159	0xbfa3c01c	-1.2793002
160	0x3f1d9ee2	0.6157056
161	0x3ee67c75	0.45016828
162	0x3f13cd38	0.57735014
163	0x3ed7c901	0.4214554
164	0x3d24b7ce	0.040214352
165	0xbe0a0e48	-0.1348201
166	0xbe2a12a8	-0.1660868
167	0xbded1a35	-0.11577264
168	0xbe6c812b	-0.23096149
169	0x4011bb70	2.2770653
170	0x3f214b58	0.6300559
171	0x3f051b0a	0.51994383
172	0x3ec53c27	0.38522455
173	0xbbb7ad6d	-0.0056053908
174	0x40530b86	3.2975783
175	0xc0811de3	-4.0348983
176	0xc080ea6e	-4.028617
177	0xc0797f3d	-3.898391
178	0xc08073f1	-4.014153
179	0xbfad0aed	-1.3518959
180	0x40564928	3.348215
181	0x405fbf0e	3.496036
182	0x405f0cb9	3.4851515
183	0x4068e9ed	3.6392777
184	0x3fb8bb9d	1.4432255
185	0x3f877fa0	1.0585823
186	0x3fb80ee4	1.4379544
187	0x3fbfd2bd	1.4986187
188	0x3fdcc64d	1.7248017
189	0xc048ef66	-3.1396117
190	0x4082ffc9	4.093724
191	0x408bd2de	4.3694906
192	0x408ab8ec	4.3350735
193	0x40924d01	4.5719
194	0xbf9ec1e7	-1.2402924
195	0x4073b571	3.8079493
196	0x4072121c	3.7823553
197	0x4076f683	3.858796
198	0x407c8bf4	3.946042
199	0x40d2395c	6.569502
200	0x4083b972	4.1163874
201	0x407cef0d	3.9520905
202	0x4078caad	3.8873703
203	0x406228cc	3.53374
204	0xc005114d	-2.079181
205	0x3fa1426f	1.2598399
206	0x3faebae0	1.365078
207	0x3fbaa449	1.4581386
208	0x405f83a4	3.4924097
209	0x4110526d	9.0201235
210	0x3f09e48a	0.5386435
211	0x3ef3fbb7	0.4765298
212	0x3f119ac0	0.56876755
213	0x3eafb85f	0.3432035
214	0xbdd4fd2a	-0.1039985
215	0xbf920836	-1.1408756
216	0xbf9f2380	-1.2432709
217	0xbfa49c55	-1.2860209
218	0xbfc71eb0	-1.555624
219	0x406992de	3.649589
220	0x40b29e37	5.5818133
221	0x40afede4	5.4977894
222	0x40b10105	5.5313745
223	0x40e80c33	7.251489
224	0x4038c84a	2.8872247
225	0x4030df94	2.7636461
226	0x40275eaa	2.6151528
227	0x402324d1	2.549122
228	0x401b179c	2.423316
229	0x405efa01	3.484009
230	0x40b35862	5.604539
231	0x40b31bd3	5.5971465
232	0x40ab6260	5.3557587
233	0x40a4529a	5.135083
234	0xc0a9bf3b	-5.3045936
235	0xbff1f103	-1.8901676
236	0xbfd65095	-1.6743342
237	0xbfd522cc	-1.6651244
238	0xbfce3258	-1.6109114
239	0xbff23ed5	-1.8925425
240	0xc0aaa6d0	-5.332863
241	0xc0a3c608	-5.1179237
242	0xc0a7d30c	-5.2445126
243	0xc0b0e883	-5.528383
244	0xc0e3c13c	-7.117338
245	0xc0280001	-2.6250002
246	0xc0327cc1	-2.7888644
247	0xc0411555	-3.016927
248	0xc036153e	-2.8450465
249	0xbfabdbae	-1.3426416
250	0xbef59646	-0.47966212
251	0xbf1391ec	-0.57644534
252	0xbf2f1cae	-0.68403137
253	0xbf09d573	-0.5384132
254	0xc04bec03	-3.18628
255	0xbfc381f2	-1.5274031

lstm.weight_hh_l0 f4 [256, 64]
0	0xbf7398b5	-0.9515489
1	0x3f02f236	0.51150835
2	0x401e5754	2.47408
3	0x40456b73	3.0846832
4	0xbfd719e0	-1.6804771
5	0x405c3b3e	3.4411159
6	0xbee9738d	-0.4559597
7	0xbf8569a6	-1.0422866
8	0xbf9981fb	-1.1992792
9	0x3f9c6b94	1.222033
10	0xbf823b8a	-1.017442
11	0x3ea9d66b	0.331714
12	0xbf69ec6d	-0.9137638
13	0x3eabe38d	0.33572045
14	0x403deefc	2.9677114
15	0xc04b1eb4	-3.173749
16	0x3fdfeeb1	1.7494718
17	0x40197df8	2.3983135
18	0xbfb77476	-1.4332416
19	0x3f0e6c56	0.5563406
20	0xbf97fcb9	-1.1874
21	0xbf70ac5b	-0.94012994
22	0xbfc60288	-1.5469522
23	0x3f9b1543	1.2115864
24	0xc06f9ba4	-3.7438745
25	0x402bab19	2.682318
26	0x400e4287	2.2228105
27	0xbfcac1f8	-1.5840445
28	0xbeeadb94	-0.4587065
29	0xbf9623b3	-1.1729645
30	0xbf9f75d2	-1.2457831
31	0x401f419e	2.48838
32	0x3f2987ac	0.66222644
33	0xc01335de	-2.3001628
34	0xbff177e7	-1.8864716
35	0x3f851e39	1.0399848
36	0xc03b6019	-2.9277403
37	0x402ceb8a	2.7018762
38	0x4038dda2	2.8885274
39	0xbf396370	-0.72417355
40	0xbffdcc63	-1.9827999
41	0xbf01d964	-0.50722337
42	0xc0a2b4a0	-5.084549
43	0xc0902d20	-4.5055084
44	0x3f9ab977	1.2087849
45	0xbf0398fc	-0.5140531
46	0xbeb9723f	-0.36219975
47	0xbf5f76e6	-0.872908
48	0xbe2b3a31	-0.16721417
49	0xc0000811	-2.0004923
50	0xbf4a2340	-0.7896004
51	0x3fc8f569	1.5699893
52	0x3f08e103	0.5346834
53	0xbf50b4fa	-0.8152615
54	0xbf91fe05	-1.1405646
55	0x3e820d55	0.25400797
56	0xbfbdc7e1	-1.4826623
57	0x3eafdc9a	0.34347993
58	0x3f1eb076	0.6198801
59	0x40596807	3.3969743
60	0xbfced2ea	-1.6158116
61	0xbfe490e2	-1.7856715
62	0x4016990e	2.3530917
63	0xc01569d1	-2.3345835
64	0x4018c6d2	2.387135
65	0xbf9ea567	-1.2394227
66	0x3ffec5ae	1.9904077
67	0x3e2fd96a	0.1717278
68	0x3e6cfdc9	0.23143686
69	0x40858214	4.1721287
70	0x403359ef	2.802364
71	0x406c9131	3.6963618
72	0xbeb3396c	-0.35004747
73	0x402eb12d	2.729564
74	0xc058ba88	-3.386385
75	0x3f75e4a2	0.9605199
76	0xc02d9585	-2.712251
77	0xc02843a5	-2.6291287
78	0x3fd02595	1.6261469
79	0xbdb2325c	-0.087010115
80	0x40b1143e	5.533721
81	0xc0df219c	-6.9728527
82	0xc05d2c63	-3.4558342
83	0x40b746c5	5.727389
84	0xbed88550	-0.4228921
85	0xbfbe7bf2	-1.4881575
86	0x3d6b5257	0.057451572
87	0x404ed5db	3.2318027
88	0xbf2d16e8	-0.6761308
89	0x40129abd	2.2906945
90	0xbfb25d08	-1.3934641
91	0xc07bbd2f	-3.9334219
92	0xc001a52f	-2.025707
93	0xbfd4fda9	-1.6639911
94	0x40222061	2.5332263
95	0x3ebdae0e	0.37046856
96	0xc0483533	-3.128247
97	0xc0b6df5a	-5.7147646
98	0x4103b97f	8.232787
99	0x3fed915c	1.8559985
100	0x412e61f2	10.898912
101	0xc00a01d3	-2.1563613
102	0x3fd685d2	1.6759589
103	0x41007223	8.027865
104	0x3f840ca7	1.0316361
105	0x4081e90e	4.059699
106	0x40f5ab6e	7.6771765
107	0xc011b84d	-2.2768738
108	0xc0a29065	-5.0801263
109	0xc1051227	-8.316932
110	0xc04adabf	-3.1696012
111	0xc0b2c591	-5.586617
112	0x3fa31bd0	1.2742863
113	0x3fc29daa	1.5204365
114	0x4149b651	12.607011
115	0x40842826	4.129901
116	0xbf033f1a	-0.5126816
117	0xc07ee1e3	-3.982537
118	0x3edad641	0.42741588
119	0x40bd2b0b	5.9115043
120	0xc095cf73	-4.6815734
121	0x406dacaf	3.7136648
122	0x3f27aad7	0.65495056
123	0x3f6dc36c	0.92876315
124	0xc078e38e	-3.8888888
125	0x40905be1	4.5112157
126	0xbb3f8514	-0.0029223608
127	0x410bb0c0	8.730652
128	0x3f9b455f	1.2130545
129	0x3f82ba02	1.0213015
130	0x3f1f0985	0.621239
131	0xbf46207f	-0.77393335
132	0xbf70554a	-0.9388014
133	0xc05d9cbd	-3.4626915
134	0xc117a124	-9.476841
135	0xbe8e4f18	-0.2779472
136	0x3fe9d84f	1.8269137
137	0x401f7072	2.491238
138	0x3dedd178	0.116122186
139	0xc07ddd6e	-3.96664
140	0x3f6f74ea	0.9353777
141	0xbfed88a0	-1.855732
142	0x3f850f5d	1.0395314
143	0xc051d28b	-3.2784755
144	0xc0a57018	-5.1699333
145	0x404c89b7	3.1959054
146	0x3d5437e4	0.051811114
147	0x40297d9f	2.6482923
148	0xbf3a85fa	-0.7286068
149	0xbff1f017	-1.8901395
150	0x3f162548	0.58650637
151	0x3fd0612e	1.6279657
152	0xc03d883d	-2.9614403
153	0x40917829	4.545918
154	0x3dc91618	0.09818667
155	0xbeb9456b	-0.36185774
156	0xc0555434	-3.3332644
157	0x3f890385	1.0704199
158	0x3f5c464d	0.8604477
159	0xbdc1339a	-0.0943367
160	0x406673a4	3.6008081
161	0xc06d1f0f	-3.7050207
162	0xc0028c60	-2.0398178
163	0xc08e45e9	-4.446034
164	0x40864708	4.196171
165	0x40887a36	4.2649183
166	0xbf5b3309	-0.8562475
167	0x3f11f585	0.5701526
168	0xc03c69fd	-2.943969
169	0x40745180	3.8174744
170	0xc0ec0036	-7.3750257
171	0x3fbdecd9	1.4837905
172	0x4069ef1e	3.6552196
173	0xbf587786	-0.8455738
174	0x3ea47684	0.3212167
175	0x40b26b5f	5.575607
176	0x409c1211	4.8772054
177	0xc0d6852b	-6.703756
178	0x40730bab	3.7975872
179	0xbfe045a2	-1.752125
180	0x40009a75	2.0094273
181	0xbfa75702	-1.3073428
182	0xc12b6e16	-10.714376
183	0x3f39ea6c	0.72623324
184	0xc035021a	-2.8282533
185	0xbfa17e4a	-1.2616665
186	0x3fb851dd	1.4399983
187	0x409e8144	4.9532795
188	0xc044b19d	-3.0733407
189	0xbf035b28	-0.5131097
190	0xbf3d78eb	-0.7401263
191	0xc0dba683	-6.864076
192	0xc0c5558b	-6.1666923
193	0x3fac987a	1.3484032
194	0x4071ffbe	3.7812343
195	0x40ca98f5	6.3311715
196	0xbffac47e	-1.9591215
197	0xc099e70d	-4.8094544
198	0xc059ca2a	-3.402964
199	0xc0e2e3b2	-7.090295
200	0xc018c119	-2.3867857
201	0x3f86c705	1.0529486
202	0x400ddaa3	2.2164695
203	0xc0621e36	-3.533094
204	0xc0c950ee	-6.291129
205	0xbda37a38	-0.07982296
206	0x40ca7538	6.326809
207	0xc073579e	-3.8022227
208	0xc02b50ee	-2.6768146
209	0x40ba6e62	5.8259745
210	0xbf6aa77c	-0.9166181
211	0x3ef594e5	0.4796516
212	0xc048883e	-3.1333156
213	0xc0cd030a	-6.406621
214	0xbe0846bc	-0.13308233
215	0x3f3786dd	0.7169016
216	0xc071bd72	-3.7771878
217	0x40c5d6c6	6.1824675
218	0xbe4b6607	-0.19863139
219	0xbf547621	-0.8299275
220	0xc0920feb	-4.564443
221	0xc02fe658	-2.748434
222	0xc08315f8	-4.0964317
223	0x4086bcac	4.210531
224	0x4085f612	4.186288
225	0x40194889	2.3950522
226	0xc0731ba9	-3.7985632
227	0x3ecf9d1a	0.40549546
228	0xc067660d	-3.6156037
229	0x40cb5028	6.3535347
230	0x3f6f745b	0.9353692
231	0x40647153	3.5694168
232	0xc0cce955	-6.403483
233	0x406abf08	3.6679096
234	0xc09aa54b	-4.8326774
235	0xc0b9d37f	-5.8070674
236	0x3ee99b48	0.45626283
237	0x401a3dd6	2.4100242
238	0xbed366d5	-0.41289392
239	0x404328c4	3.0493631
240	0xbfd0fe6a	-1.6327641
241	0xc0ab7a66	-5.358691
242	0xc01aa065	-2.4160397
243	0x3ec09c99	0.37619475
244	0xbece4def	-0.40293834
245	0xc098758a	-4.764348
246	0xbf00eecc	-0.50364375
247	0x407620f6	3.8457618
248	0xc0bd66e0	-5.918808
249	0x3f8150b0	1.0102749
250	0x3ef1f660	0.47258282
251	0x3fd74bfd	1.6820065
252	0xbff1b652	-1.8883765
253	0xc02dac7b	-2.7136524
254	0x40aa9f65	5.3319573
255	0xc10bf7a2	-8.747957

lstm.bias_ih_l0 f4 [256]
0	0x3f1d0958	0.6134238
1	0xbf502722	-0.8130971
2	0xc01ef6d4	-2.4838152
3	0xbda1df8d	-0.07903967
4	0xc067a9b8	-3.6197338
5	0xbf805a60	-1.002758
6	0x409476f8	4.6395226
7	0x40ab57ae	5.354453
8	0x3fd2faa8	1.6482744
9	0xc0dd9fd1	-6.925759
10	0xbfb78d18	-1.4339933
11	0x409e6c2d	4.950705
12	0x3df09d8e	0.11748801
13	0xbfe75f88	-1.8076029
14	0x4051bc22	3.2771077
15	0x409b7b5b	4.858808
16	0xbeabb053	-0.33532962
17	0xc093fead	-4.6248384
18	0xc032c1cf	-2.7930791
19	0x405df233	3.4679077
20	0xc11e56c4	-9.896183
21	0xc00904c0	-2.140915
22	0xc01b535c	-2.4269629
23	0x3fc38442	1.5274737
24	0x400866e5	2.1312802
25	0xbffcdd03	-1.9754947
26	0xbed3c6bd	-0.41362563
27	0xbf80f73c	-1.007545
28	0x40646994	3.568944
29	0xc071305a	-3.7685761
30	0x3f484586	0.78231084
31	0x3fd5a5ac	1.6691184
32	0x40ac8a7c	5.391905
33	0xc00ca4aa	-2.1975503
34	0xc04c846c	-3.1955824
35	0x3eb2e656	0.34941357
36	0xc114923f	-9.285705
37	0x3fefeba9	1.8743793
38	0xc1384760	-11.517426
39	0xc025f251	-2.5929148
40	0x400d0155	2.2032063
41	0xc066da1c	-3.6070623
42	0x40920bab	4.5639243
43	0xc09c3f48	-4.882725
44	0xc00e7c6b	-2.2263439
45	0xbf97f0f5	-1.1870409
46	0x40acc8f1	5.399529
47	0x3f9f2b4c	1.2435088
48	0x402a9210	2.665165
49	0x40264e66	2.598535
50	0x40a2db9d	5.0893083
51	0x4001cec1	2.0282443
52	0xc01d049c	-2.4534063
53	0x3fb8bf75	1.4433428
54	0x402be115	2.685613
55	0x3f57eefd	0.8434904
56	0x406cb28a	3.6983972
57	0x404bae40	3.1825104
58	0xc07594e9	-3.8372138
59	0x402bfc35	2.6872685
60	0xc0857082	-4.169984
61	0x3f39e243	0.72610873
62	0x3fefa41a	1.8721955
63	0xc0b760b2	-5.7305536
64	0xc01c6449	-2.443621
65	0xc08ec98b	-4.4621024
66	0xbfa7fa42	-1.3123248
67	0x40284c79	2.6296675
68	0x406e312f	3.721752
69	0xc0d8d18e	-6.7755804
70	0x4024169f	2.5638807
71	0xc0442b5e	-3.065147
72	0x40357038	2.8349743
73	0x3f8280ab	1.0195516
74	0xbfde53e0	-1.7369347
75	0x401bccc3	2.4343727
76	0x406cba2d	3.6988633
77	0x400da221	2.2130206
78	0xc098c7f5	-4.774409
79	0xc0db2b50	-6.849037
80	0xc0136935	-2.3032963
81	0x408da571	4.4264455
82	0x407e47f8	3.9731426
83	0xc05e18ae	-3.4702563
84	0x3f81a504	1.0128484
85	0x40957742	4.670808
86	0x409ac834	4.836939
87	0x4013607e	2.3027644
88	0x3ffa12e6	1.9537017
89	0x40479c47	3.1189134
90	0x40052198	2.0801754
91	0xbff6a8fb	-1.9270319
92	0x401d1ca7	2.4548738
93	0x403b795d	2.9292824
94	0x40019e6f	2.025295
95	0x40de3903	6.9444594
96	0x409e32dc	4.9437084
97	0xc0139768	-2.306116
98	0x40e9f302	7.310914
99	0xc001ff10	-2.0311928
100	0x3fa83dd9	1.3143874
101	0x3fb7347e	1.4312894
102	0x3f54d8cf	0.83143324
103	0x40e44b7a	7.1342134
104	0xc0a5107e	-5.158263
105	0xbfe0baa7	-1.7556962
106	0xc0bc6c04	-5.8881855
107	0x40049ed5	2.0721943
108	0xc09ea81f	-4.9580226
109	0xc014b848	-2.3237476
110	0x4055f675	3.3431675
111	0x401507e1	2.328606
112	0xbfb23736	-1.3923099
113	0x40a3a31a	5.11366
114	0xc0047029	-2.0693457
115	0x40bbdc49	5.8706403
116	0xc01be490	-2.4358253
117	0xc0a6143b	-5.1899695
118	0xc0a0b5e3	-5.022203
119	0x4074ad6e	3.8230853
120	0x402149b0	2.5201225
121	0xbdad567a	-0.0846376
122	0xbf4df697	-0.8045439
123	0x3f5c239d	0.8599184
124	0xbf872ada	-1.0559952
125	0x401cc716	2.4496512
126	0x3fe46802	1.7844241
127	0xbfba518b	-1.4556135
128	0x405d3cce	3.4568362
129	0xc0d8252b	-6.754537
130	0x3fb6d8e9	1.4284946
131	0x40411639	3.0169814
132	0x3f3daa7d	0.7408827
133	0xc093e9a6	-4.6222715
134	0x3fa1a3d9	1.2628127
135	0xc0d7e8de	-6.747176
136	0xbec9758e	-0.393475
137	0x3f8ba929	1.0910999
138	0xbf9eefd3	-1.2416939
139	0xc03e8e95	-2.9774525
140	0xbe824346	-0.2544195
141	0xbd5725a4	-0.05252613
142	0xc0d8bf73	-6.7733703
143	0xc08f7d7c	-4.484068
144	0x3fd76216	1.6826808
145	0xc03c24a3	-2.9397361
146	0xbf8530a0	-1.0405464
147	0xc048a7e7	-3.135248
148	0xbfdc2b10	-1.7200642
149	0xbf44f992	-0.76943314
150	0x40899432	4.2993402
151	0x4027c8f8	2.6216412
152	0xc09744e4	-4.7271595
153	0x401f69e6	2.4908385
154	0x402586b9	2.5863478
155	0xc094e5a3	-4.653032
156	0xc08c2b8b	-4.3803153
157	0x3f64f9a7	0.8944344
158	0xbed3d12a	-0.41370517
159	0x3f54f22a	0.83182013
160	0xbf82ae17	-1.0209378
161	0xbf16679f	-0.58751863
162	0xbf63531c	-0.8879869
163	0x40916b87	4.544376
164	0xc09f2696	-4.97346
165	0x4019a1f4	2.4005098
166	0xbf7e2d29	-0.9928766
167	0xc030919d	-2.7588875
168	0xc06fce5d	-3.7469704
169	0xc08288d6	-4.0792036
170	0xc0838ab9	-4.110684
171	0x40febc4f	7.960487
172	0x403366ae	2.803142
173	0xc015d0c3	-2.3408668
174	0xc07159c7	-3.7711046
175	0x40951bb8	4.6596336
176	0x3f33f717	0.70298904
177	0xc09df70c	-4.936407
178	0xc08179a7	-4.0461
179	0xc03c8d74	-2.9461336
180	0xbe37546f	-0.17903303
181	0xc04e0913	-3.2193038
182	0x40f84311	7.758187
183	0x401e8568	2.4768925
184	0x4097a8aa	4.739339
185	0x40866912	4.200326
186	0xbf051156	-0.5197958
187	0x4015284c	2.3305845
188	0x405f4ccc	3.4890623
189	0xc09f3653	-4.9753814
190	0x4056a6a3	3.3539207
191	0xc0542bf4	-3.3151827
192	0xc0e8fa04	-7.2805195
193	0xc0624e00	-3.5360107
194	0x3f601c87	0.8754353
195	0x40ec00da	7.375104
196	0xc01a1e44	-2.4080973
197	0xc0e20a8d	-7.063788
198	0x3e4fbbbd	0.2028646
199	0x409786e5	4.7352166
200	0xbee7925f	-0.4522886
201	0xbfce36fd	-1.6110531
202	0x3fad6690	1.3546925
203	0x401a0aba	2.4069047
204	0xbf9da577	-1.2316121
205	0x3f6e7802	0.9315187
206	0x3f59ff2c	0.85154986
207	0xbf0c46ad	-0.5479534
208	0x3fe0f874	1.7575822
209	0x40500cb4	3.2507753
210	0xc02852a6	-2.6300445
211	0x3f84baf4	1.0369554
212	0x40c65c26	6.1987486
213	0x40579a48	3.3687916
214	0x4063ac98	3.5574093
215	0xc058d6f1	-3.388119
216	0x401604cb	2.3440425
217	0xc0bafd96	-5.8434553
218	0x400ead82	2.22934
219	0x406c5bd0	3.6931038
220	0x406771c7	3.6163194
221	0x3f01b7a5	0.50670844
222	0xc09cd905	-4.9014916
223	0xbfa13187	-1.259324
224	0xbfcd5c40	-1.6043777
225	0xbfd30ae5	-1.64877
226	0x3f4a3338	0.78984404
227	0xc040898b	-3.008395
228	0x4092b183	4.584169
229	0xc06bf743	-3.6869667
230	0x3f4f30f0	0.8093405
231	0xbf8de910	-1.108675
232	0x4029c64b	2.6527278
233	0x40af08e3	5.469835
234	0x3fe224c3	1.7667469
235	0x3fa8d24f	1.3189181
236	0x3fdf1b77	1.7430257
237	0x3e259d7a	0.16173354
238	0x3fc5635f	1.5420951
239	0xc0832028	-4.0976753
240	0x408ac784	4.336855
241	0x3ff58708	1.9181833
242	0x40ba4a68	5.821583
243	0x40934634	4.6023197
244	0xc063af72	-3.5575833
245	0x40465304	3.0988169
246	0x40758f72	3.8368802
247	0x3f6f678c	0.93517375
248	0xbfadc0f3	-1.3574508
249	0xbf6555f6	-0.8958429
250	0xc05597a0	-3.3373795
251	0x3fd1eddb	1.6400713
252	0xc0ba36d7	-5.8191943
253	0xc0d61ddc	-6.691145
254	0xba90ccfc	-0.0011047418
255	0xc0c32828	-6.098652

lstm.bias_hh_l0 f4 [256]
0	0x3f036e60	0.51340294
1	0xbf4dc6fc	-0.8038175
2	0xc01e1ff8	-2.4707012
3	0xbe24eddd	-0.16106363
4	0xc05fd0ae	-3.4971118
5	0xbf797ea6	-0.97458875
6	0x408efcba	4.4683504
7	0x40addc12	5.433114
8	0x3fd06a16	1.6282375
9	0xc0da1009	-6.8144574
10	0xbfbd6854	-1.4797463
11	0x40a3e488	5.121647
12	0x3e6ad417	0.22932468
13	0xbfd46c90	-1.6595631
14	0x404f0a6d	3.2350113
15	0x409c4ce9	4.8843884
16	0xbe92c35f	-0.2866468
17	0xc096ed32	-4.7164545
18	0xc0357371	-2.835171
19	0x40560123	3.3438194
20	0xc11d609a	-9.836084
21	0xc0132553	-2.299153
22	0xc026b7c2	-2.6049657
23	0x3fb5e2a4	1.420979
24	0x40098aac	2.1490889
25	0xbffa91bc	-1.9575725
26	0xbf004b28	-0.5011468
27	0xbf5175c1	-0.81820303
28	0x40694dca	3.6453729
29	0xc06de116	-3.7168632
30	0x3f58c63e	0.84677494
31	0x3fcf1234	1.617743
32	0x40a9d31e	5.307021
33	0xc0124ebd	-2.2860558
34	0xc0499628	-3.1497898
35	0x3ee00a6e	0.43757957
36	0xc1134bc5	-9.205998
37	0x3ffe8b14	1.9886193
38	0xc1386ece	-11.527052
39	0xc02ca4b8	-2.6975536
40	0x40120ec1	2.2821505
41	0xc06bfb6a	-3.68722
42	0x4091e330	4.558983
43	0xc09a468c	-4.8211117
44	0xc00775ce	-2.1165652
45	0xbf883f4c	-1.0644317
46	0x40a8dadb	5.2767158
47	0x3f9187ba	1.1369545
48	0x402c6e42	2.6942296
49	0x4024cd91	2.5750468
50	0x40a6f5b4	5.217493
51	0x40006618	2.0062313
52	0xc01c0412	-2.4377484
53	0x3fadefb9	1.3588783
54	0x402ff304	2.7492075
55	0x3f208d95	0.6271604
56	0x406fbe40	3.745987
57	0x40560654	3.3441362
58	0xc07086ff	-3.7582395
59	0x402c5711	2.692814
60	0xc086e716	-4.2157087
61	0x3f59169f	0.8480014
62	0x3fd8a97b	1.6926721
63	0xc0b2a918	-5.5831413
64	0xc019ee64	-2.4051752
65	0xc08cba71	-4.397759
66	0xbfa82dca	-1.3138974
67	0x40210cea	2.5164132
68	0x406e514b	3.7237117
69	0xc0d6e2c7	-6.715183
70	0x4020dd99	2.5135252
71	0xc0425768	-3.0365849
72	0x4038378a	2.8783898
73	0x3f6b9ad1	0.92033106
74	0xbff517ec	-1.9147925
75	0x4028bd1c	2.6365423
76	0x406aacf0	3.6668053
77	0x400fd9cb	2.247668
78	0xc09b5a71	-4.85479
79	0xc0dacdaa	-6.8376055
80	0xc0172fc6	-2.3622909
81	0x408948b5	4.2901254
82	0x407d1d40	3.9549103
83	0xc062bfac	-3.5429487
84	0x3f87e942	1.061806
85	0x40940b40	4.6263733
86	0x40944ef0	4.634636
87	0x40145c29	2.318125
88	0x3fe85f63	1.815411
89	0x404adaf7	3.1696146
90	0x401117e3	2.267083
91	0xbffaa03d	-1.9580151
92	0x401641da	2.3477693
93	0x4039ac20	2.9011307
94	0x400276ec	2.0385084
95	0x40d9d77d	6.8075547
96	0x409a47ef	4.821281
97	0xc010938a	-2.259005
98	0x40e9e616	7.3093367
99	0xc004afb3	-2.0732238
100	0x3fbf3911	1.493929
101	0x3fc302f5	1.5235277
102	0x3f55d4bf	0.8352775
103	0x40e596aa	7.1746416
104	0xc0a985b0	-5.2975693
105	0xbfdce5ad	-1.7257591
106	0xc0bbd3ea	-5.8696184
107	0x4002b6f0	2.0424156
108	0xc09f19a2	-4.971879
109	0xc00da2d2	-2.2130628
110	0x40551d43	3.329911
111	0x40137fe1	2.30468
112	0xbfbb3aef	-1.462736
113	0x40a4cb15	5.1497903
114	0xc005897f	-2.086517
115	0x40bc1f4b	5.87882
116	0xc01b8d3d	-2.4304955
117	0xc0a13ace	-5.0384283
118	0xc0a680a0	-5.2032013
119	0x40781777	3.8764322
120	0x402325e8	2.5491886
121	0x3daba8a7	0.08381777
122	0xbf4b34c5	-0.79377395
123	0x3f6a7a77	0.91593117
124	0xbfa3bb05	-1.2791449
125	0x4027a73c	2.6195822
126	0x3fdab0c7	1.7085198
127	0xbfad308f	-1.3530444
128	0x405b95ca	3.4310174
129	0xc0d4800d	-6.640631
130	0x3fcae9b5	1.5852572
131	0x403b25b1	2.9241755
132	0x3f33140d	0.6995247
133	0xc0970a3c	-4.7199993
134	0x3f913c1b	1.1346468
135	0xc0d7a34e	-6.7386847
136	0xbeee1912	-0.46503502
137	0x3f8760a1	1.0576364
138	0xbfab1ef7	-1.3368825
139	0xc0365fcb	-2.8495967
140	0xbeb79e52	-0.35862976
141	0x3d0c27a8	0.034217507
142	0xc0da728b	-6.8264823
143	0xc08fa019	-4.488293
144	0x3fc714c5	1.5553213
145	0xc03499a6	-2.821878
146	0xbf906668	-1.1281252
147	0xc04a5f9f	-3.1620862
148	0xbfcf66d2	-1.6203253
149	0xbf5b02e6	-0.855513
150	0x408f0966	4.4698973
151	0x402b75e2	2.67907
152	0xc096f31e	-4.7171774
153	0x401efb9a	2.4841065
154	0x401f294b	2.4868953
155	0xc094d2e3	-4.650743
156	0xc08b28a2	-4.34871
157	0x3f82ccdf	1.0218772
158	0xbea19ff8	-0.3156736
159	0x3f3d6814	0.73986936
160	0xbf89db07	-1.0769967
161	0xbeef7cac	-0.46774805
162	0xbf7c9a9f	-0.98673433
163	0x4091651d	4.543593
164	0xc09b8491	-4.8599324
165	0x402478b5	2.5698674
166	0xbf7eea7d	-0.9957655
167	0xc03912e5	-2.8917782
168	0xc06fe711	-3.7484782
169	0xc08095de	-4.0182943
170	0xc089a935	-4.301905
171	0x41019ff2	8.101549
172	0x40347aba	2.8199906
173	0xc01111d8	-2.266714
174	0xc0736d0c	-3.8035307
175	0x409ac5a3	4.8366256
176	0x3f18b711	0.5965434
177	0xc09ca07c	-4.8945904
178	0xc085b02b	-4.177755
179	0xc0446082	-3.0683904
180	0xbe37f9df	-0.17966412
181	0xc047b66e	-3.1205096
182	0x40fa8d09	7.829716
183	0x401d2335	2.4552739
184	0x4094ad09	4.6461225
185	0x4083e46f	4.121635
186	0xbecbc434	-0.3979813
187	0x400f6995	2.2408192
188	0x405ea54c	3.478839
189	0xc0a07d89	-5.015324
190	0x4053d5fc	3.3099356
191	0xc05c573d	-3.4428246
192	0xc0e63085	-7.193423
193	0xc06ecc91	-3.7312357
194	0x3f7f8f26	0.998278
195	0x40e8d0fc	7.275511
196	0xc01c0a6e	-2.4381366
197	0xc0e41481	-7.127503
198	0x3d9b3d75	0.075800814
199	0x409b1a79	4.8469815
200	0xbeada55b	-0.3391522
201	0xbfc2d1ab	-1.5220236
202	0x3fa95fd9	1.3232375
203	0x400e4acb	2.223315
204	0xbf9aa20d	-1.2080704
205	0x3f70a27d	0.9399794
206	0x3f58f81b	0.8475358
207	0xbf1fe0fd	-0.6245268
208	0x3fea41b3	1.83013
209	0x40535c90	3.3025246
210	0xc02e56cc	-2.7240477
211	0x3f85b1e6	1.0444915
212	0x40c809ae	6.2511816
213	0x40583084	3.3779612
214	0x40681ff0	3.6269493
215	0xc05c3d07	-3.4412248
216	0x401ddd83	2.466645
217	0xc0bbb270	-5.865532
218	0x4002fbaf	2.0466115
219	0x4061cbb9	3.5280592
220	0x4064e1e7	3.576288
221	0x3f1597d5	0.584348
222	0xc09ac705	-4.8367944
223	0xbf8fa7eb	-1.122312
224	0xbfccd9c6	-1.6003959
225	0xbfd52e91	-1.6654836
226	0x3f361717	0.7112898
227	0xc03a7e63	-2.913964
228	0x409600ef	4.687614
229	0xc0664bff	-3.5983884
230	0x3f5a5c1a	0.85296786
231	0xbf8a011f	-1.0781592
232	0x402a6d6d	2.6629288
233	0x40b26663	5.5749984
234	0x3fd94fed	1.6977516
235	0x3fabfa89	1.3435832
236	0x3fdcb28c	1.7241988
237	0x3da5c205	0.08093647
238	0x3fc62307	1.547944
239	0xc082cd1c	-4.087538
240	0x4088832c	4.266012
241	0x3ffdbf62	1.982403
242	0x40b9963c	5.799589
243	0x408d6f1e	4.419814
244	0xc05a0246	-3.4063888
245	0x404592ed	3.0870926
246	0x4070b3ac	3.7609663
247	0x3f75cf22	0.96019185
248	0xbfacf02b	-1.3510793
249	0xbf7cd0bf	-0.9875602
250	0xc056afb6	-3.3544745
251	0x3fd63559	1.673503
252	0xc0be71b5	-5.9513803
253	0xc0d40a72	-6.626275
254	0x3a932384	0.0011225794
255	0xc0c7dba2	-6.2455606

fc1.weight f4 [64, 64]
0	0xc170f500	-15.059814
1	0x3f385a8e	0.72013175
2	0x41414c93	12.081195
3	0x40a20c03	5.0639663
4	0x40faf56e	7.8424597
5	0x40cf8140	6.4845276
6	0xbf6f0540	-0.93367386
7	0x40e25ade	7.073592
8	0x40fb4432	7.8520746
9	0x40e348c2	7.1026316
10	0x4044921f	3.0714185
11	0xc0884f4b	-4.2596793
12	0x41417b61	12.092622
13	0x41180d82	9.503298
14	0xc1122fd0	-9.136673
15	0x40a6969c	5.205885
16	0x3f0ecf03	0.55784625
17	0xc17a9cc5	-15.663274
18	0x40380d3a	2.8758073
19	0x4111a747	9.103339
20	0xbf968181	-1.1758271
21	0xc0b59d05	-5.6754174
22	0x3f5d8b30	0.8654051
23	0x40d75cbb	6.7300696
24	0xc0c30ed6	-6.095561
25	0xc019900e	-2.3994174
26	0xc082c0ed	-4.0860505
27	0x40a89ece	5.2693853
28	0x41108bf5	9.034169
29	0x40859ef0	4.1756516
30	0xbfcffde8	-1.6249361
31	0x412dbaa8	10.85807
32	0x3ed51a1d	0.41621485
33	0x405f05c3	3.4847267
34	0xbf592e34	-0.84836125
35	0x3f4ad76a	0.79234946
36	0xc10dcac5	-8.862004
37	0xc0e9a7bd	-7.301726
38	0xc086d397	-4.213329
39	0xc02fc5f4	-2.746457
40	0xc1894494	-17.158485
41	0xc03b6934	-2.928296
42	0x3ec76cfd	0.3895034
43	0x40ca0b73	6.3138976
44	0x40cf37a5	6.4755425
45	0x3eb6df97	0.3571746
46	0xc1499585	-12.599004
47	0x3ffbbb64	1.9666562
48	0x3f4a8f29	0.79124695
49	0xc0c4ea1f	-6.153579
50	0xc034b20f	-2.8233678
51	0x3fff7002	1.9956057
52	0xbfe3355f	-1.7750663
53	0x405765e6	3.3655944
54	0x407c2d64	3.9402704
55	0x408e7fd4	4.453104
56	0x40bf4af1	5.977898
57	0xc0e772ee	-7.2327795
58	0xc0383c71	-2.878689
59	0x3fa57be5	1.2928435
60	0xbf7195d2	-0.9436923
61	0xc11f86f9	-9.970452
62	0xc10f0292	-8.9381275
63	0xbf72f652	-0.94907105
64	0xc1810856	-16.12907
65	0x3f5d92fa	0.86552393
66	0x3ffc7667	1.9723634
67	0xbf67ba9c	-0.9051912
68	0xc0a052b3	-5.010095
69	0x411c1062	9.754
70	0xc12316c8	-10.193062
71	0xc0159db3	-2.3377502
72	0x4129612a	10.586222
73	0x4161d571	14.11461
74	0x41535bdf	13.209929
75	0xbf9795f5	-1.1842638
76	0x3f7ddc79	0.9916454
77	0xbfc88ab1	-1.5667325
78	0xbf0b2832	-0.5435821
79	0xc00853ac	-2.130107
80	0xc165dead	-14.366864
81	0x40ba1465	5.8149896
82	0x410bb525	8.731725
83	0xc0de3491	-6.943917
84	0xc095275f	-4.661056
85	0xbfce90a9	-1.6137897
86	0x40109be3	2.2595146
87	0x40e29afe	7.08142
88	0xc057b2de	-3.3702922
89	0x40b15f97	5.5429187
90	0xc11c0a41	-9.752503
91	0xc00b92f2	-2.1808438
92	0x3f6b4498	0.9190154
93	0xbfbc2fb5	-1.4702059
94	0xc03f837a	-2.9923997
95	0xbefdf3de	-0.49600118
96	0x405d8432	3.4611936
97	0x40b9880f	5.7978587
98	0xc0acf7a7	-5.405231
99	0xc11949ae	-9.580488
100	0xc015848d	-2.3362153
101	0xc0a6142f	-5.189964
102	0xc16a989c	-14.662258
103	0xc043be42	-3.0584874
104	0x3ef3dd0c	0.47629583
105	0x400357a5	2.0522244
106	0x404e1d2e	3.220531
107	0x3fb518c1	1.4148179
108	0xbf57b76d	-0.8426426
109	0x3ede8e8a	0.43468124
110	0x40c0fa08	6.0305214
111	0x3e82c166	0.25538176
112	0x3f8c57b4	1.0964265
113	0xbe319946	-0.17343625
114	0xc11db6ab	-9.857097
115	0xc0b707ff	-5.719726
116	0x3fc4b121	1.5366555
117	0xbee21ac5	-0.4416105
118	0xc1127819	-9.154321
119	0xc03494d4	-2.8215837
120	0x4073842d	3.8049424
121	0xbf3b6393	-0.73198813
122	0xbf1ccdf6	-0.6125177
123	0xbeacfcd9	-0.33786657
124	0xc095788c	-4.670965
125	0xc159db40	-13.616028
126	0xbe7bd91e	-0.24594542
127	0xc1812e94	-16.147743
128	0xc064b311	-3.5734293
129	0xc047598b	-3.1148403
130	0x405700d0	3.3594246
131	0x41138aa6	9.22135
132	0x3e9525a4	0.2913028
133	0x40ddc67d	6.9304795
134	0x4020aec4	2.5106668
135	0xbf9dd732	-1.2331297
136	0x3ffdcb23	1.9827617
137	0x4165616c	14.336285
138	0xbe9a8e16	-0.30186528
139	0x3f8043ad	1.0020653
140	0xbf17b07b	-0.5925366
141	0x403283b2	2.789288
142	0xc01c237a	-2.4396653
143	0xbf02e458	-0.51129675
144	0xc058d167	-3.387781
145	0xc0ea172c	-7.3153286
146	0xc0573ede	-3.363212
147	0x403bc6fb	2.9340198
148	0xc106643d	-8.399472
149	0x3e66e282	0.22547343
150	0xbe574c42	-0.21025184
151	0x40126729	2.2875464
152	0xc1061b40	-8.381653
153	0x3efac283	0.48976526
154	0x3fd8562b	1.6901296
155	0xbf6fc522	-0.93660176
156	0x40599b35	3.400098
157	0xc0875c50	-4.2300186
158	0xc1356043	-11.336001
159	0x40d57fef	6.671867
160	0x3fa66fc0	1.3002853
161	0x3f17d009	0.5930181
162	0xc02894bc	-2.634078
163	0xc04a9517	-3.1653497
164	0xc0951ff4	-4.6601505
165	0xc02fae0e	-2.7449985
166	0xc0e72781	-7.2235723
167	0xc098b7dc	-4.772444
168	0xc1148337	-9.282035
169	0x40d0a55f	6.520187
170	0xc0a2eecd	-5.0916505
171	0xc085fcd5	-4.1871133
172	0x3fcda9df	1.6067466
173	0x3f9ff663	1.2497066
174	0xc1226612	-10.1499195
175	0xbce1d228	-0.02756603
176	0x3fa64c92	1.2992117
177	0x40ab1591	5.3463826
178	0x3fe58546	1.7931297
179	0x3f51bfdf	0.819334
180	0xbf51a078	-0.8188548
181	0x3ec37139	0.3817232
182	0xbf5fa0a8	-0.87354517
183	0xbffe0199	-1.9844238
184	0x4005d4d2	2.0911145
185	0xc0a1071d	-5.0321183
186	0xc023c6ea	-2.5590158
187	0xbd2c78c0	-0.042107344
188	0x3f820891	1.0158864
189	0xc1411ca9	-12.069497
190	0xc0a1f438	-5.061062
191	0xc15da191	-13.851945
192	0xc14bee84	-12.745731
193	0x3dae5474	0.08512202
194	0x40b623e0	5.6918793
195	0xbff944ab	-1.9474081
196	0xc0855ffa	-4.167966
197	0x41252320	10.321075
198	0xc012b149	-2.2920706
199	0x3fbb1cfa	1.4618218
200	0x3ee6aca1	0.4505358
201	0x411f4b93	9.955951
202	0xc01f3541	-2.4876254
203	0xc07c7aa1	-3.9449847
204	0x3f5c3a02	0.8602601
205	0xbf63d4f0	-0.8899679
206	0xbfa8bbc9	-1.3182307
207	0xc0701ed2	-3.7518811
208	0xc13eaf2f	-11.917769
209	0x3fe9542a	1.822881
210	0x40a45a6d	5.1360383
211	0xc1064a2e	-8.39311
212	0xc13976a7	-11.591468
213	0xc070bf07	-3.7616594
214	0xbea383b3	-0.31936416
215	0x40cc03b4	6.375452
216	0xc0e6b5ec	-7.2097073
217	0x4006ab6c	2.1042128
218	0xc01a303f	-2.4091947
219	0xbf9c1c81	-1.2196199
220	0xc0791807	-3.8920915
221	0xc025560e	-2.5833774
222	0xc07eb35c	-3.9796972
223	0x406ccbd6	3.6999412
224	0x403862f4	2.8810396
225	0xc09da0d4	-4.9258823
226	0xc0d29e28	-6.581806
227	0xbc4e6bd4	-0.01259895
228	0xc136173a	-11.380671
229	0x3ff0b17b	1.8804163
230	0xc0b5a65b	-5.676557
231	0xc1439fb6	-12.226492
232	0xc0d56c5f	-6.669479
233	0x4046d223	3.1065757
234	0xc0bb0071	-5.843804
235	0xc02226e2	-2.5336232
236	0x410065af	8.024825
237	0x3f98b57f	1.1930388
238	0xc0a10367	-5.0316653
239	0xbf9666da	-1.1750138
240	0x3e795fce	0.24352953
241	0xbf761728	-0.96129084
242	0x3fb6768d	1.4254929
243	0x40367737	2.8510263
244	0xbfad267b	-1.3527368
245	0xc01814c8	-2.3762684
246	0x3f834bed	1.0257546
247	0xc0a785d0	-5.2350845
248	0x3fa2ee39	1.272895
249	0xbe671960	-0.22568274
250	0x3c16e5a6	0.009210026
251	0x3fcd8484	1.6056066
252	0xc04dc6bb	-3.2152545
253	0xc11f8e83	-9.972293
254	0x404e9407	3.2277849
255	0xc163e5b7	-14.243583

fc1.bias f4 [64]
0	0x4202f90c	32.74321
1	0x4212a80b	36.664104
2	0x42239f25	40.905415
3	0x421a3116	38.547935
4	0x42132184	36.78273
5	0x4220eaba	40.229225
6	0x4201b87f	32.430172
7	0x42165754	37.58528
8	0x4214d1e1	37.20496
9	0x4213f678	36.990692
10	0x420add23	34.715954
11	0x4217d4b2	37.95771
12	0x420570c2	33.360115
13	0x4225be35	41.43575
14	0x4209a675	34.412556
15	0x4213b581	36.92725
16	0x420a4a6e	34.572685
17	0x420f4ecc	35.82695
18	0x4219f0dd	38.485218
19	0x4226b41a	41.67588
20	0x4170314b	15.012034
21	0x41caa9fc	25.333
22	0x42289f0f	42.15533
23	0x4213bb46	36.932884
24	0x421e54f6	39.58297
25	0x4213d20c	36.955124
26	0x421a7e0d	38.623096
27	0x421a41f2	38.5644
28	0x4207746f	33.863705
29	0x42150c5a	37.262062
30	0x42061c07	33.52737
31	0x421f8d68	39.888092
32	0x41dd53eb	27.665976
33	0x42098bb4	34.38643
34	0x4201e1bb	32.47044
35	0x420a408b	34.56303
36	0x42113ea0	36.311157
37	0x421254fe	36.583
38	0x42114e46	36.32644
39	0x4214337e	37.050285
40	0x4214ecef	37.23138
41	0x41e97df7	29.186506
42	0x4211fd0f	36.497128
43	0x42136cbe	36.856194
44	0x42158f35	37.38985
45	0x4210826d	36.12737
46	0x421936af	38.303402
47	0x422a91f3	42.64253
48	0x420d82d7	35.377773
49	0x421994f6	38.39547
50	0x420f8778	35.882294
51	0x4214ecf3	37.231396
52	0x42129370	36.643982
53	0x421a93d4	38.644363
54	0x4218476b	38.069744
55	0x420f5271	35.83051
56	0x420eaa01	35.66602
57	0x422ef045	43.73464
58	0x421af49d	38.73888
59	0x42074bc5	33.823994
60	0x4217e9b8	37.97824
61	0x42237dd3	40.872875
62	0x420d3a70	35.307068
63	0x420e4a3c	35.572495

fc2.weight f4 [1, 64]
0	0x411b31e6	9.699682
1	0x410e28de	8.884977
2	0x41026cc2	8.151552
3	0x40f2dfa8	7.589802
4	0x40d8081a	6.750989
5	0x411dfe35	9.874562
6	0x41158998	9.346092
7	0x40ce3a5f	6.4446254
8	0x40ce73bf	6.451629
9	0x40c5000a	6.156255
10	0x410705ac	8.438885
11	0x40db4ccb	6.853124
12	0x41286471	10.524522
13	0x41077c7a	8.46789
14	0x412fe5e8	10.993629
15	0x40dcc90f	6.8995433
16	0x4143c244	12.234928
17	0x41373ea5	11.452794
18	0x415ae185	13.6800585
19	0x410f1a45	8.943913
20	0x41689ae4	14.537815
21	0x40f5aa18	7.6770134
22	0x4122e613	10.18117
23	0x40c8ff22	6.281144
24	0x41014b7c	8.080929
25	0x4125089e	10.314604
26	0x40e8d796	7.2763166
27	0x410fee2c	8.995647
28	0x4124f06e	10.308699
29	0x40c52ebe	6.161956
30	0x40f79685	7.737124
31	0x40f48ed0	7.642433
32	0x410f99c8	8.975044
33	0x4131ec2b	11.120158
34	0x41167849	9.4043665
35	0x4147f664	12.497654
36	0x412a4337	10.64141
37	0x40eb9d8f	7.362983
38	0x41349f77	11.288932
39	0x40e0c840	7.0244446
40	0x413946ac	11.579754
41	0x412006fb	10.001704
42	0x40f49d8d	7.6442323
43	0x40d0040e	6.500495
44	0x40f2b4c5	7.5845666
45	0x4107b15d	8.480802
46	0x40cc3036	6.380885
47	0x416325f1	14.196763
48	0x410f8326	8.969519
49	0x40e08312	7.016
50	0x4124253c	10.25909
51	0x40e11824	7.034197
52	0x40f2f321	7.592179
53	0x40f57a07	7.671146
54	0x40fb243a	7.848172
55	0x4115b63c	9.356991
56	0x411fbb0c	9.983166
57	0x41367495	11.403462
58	0x41023f25	8.140416
59	0x4116db65	9.428563
60	0x40ef303d	7.4746385
61	0x410e00d9	8.875207
62	0x40de041c	6.9380016
63	0x4133818b	11.219127
