best_model_sk.pth (torch, 92872 bytes, 7 tensors)

lstm.weight_ih_l0 f4 [256, 5]
00000000: c79e cb3f 68e8 b43f 9d0f 993f 9c1f 9b3f
00000010: fb70 a7be 203f 18c1 786a 10c1 a53b 16c1
00000020: 9c84 10c1 811d b240 969a cf41 16ca da41
00000030: 5795 d041 595b dc41 9f9b 3c41 da73 9941
00000040: 64b2 9b41 1171 9a41 be46 9b41 d8ee 2a40
00000050: 4f68 22be b11e f6be 343a 23bd 18fb 97be
00000060: 27ee 9540 9894 cb3f 27d1 1040 63f7 d73f
00000070: 2fc1 1240 392b 8f40 e67b 7b41 dc3a 8041
00000080: f38f 7b41 0cbe 7e41 51b9 b140 a85b 11c1
00000090: 7e29 0ec1 984e f6c0 3005 08c1 192a 8b3f
000000a0: 071d 93c1 577c 92c1 4eaa 8fc1 760b 92c1
000000b0: a9f1 c5c0 b0a1 a7c0 faa6 a5c0 c64b aac0
000000c0: 55f5 aec0 8195 2440 33eb a4bf 1f94 61bf
000000d0: e098 bcbf d8bb a1bf 0ce1 ba40 8446 c540
000000e0: 3a4a c240 3948 bd40 3084 b840 b248 5240
000000f0: 02e6 d0bc 891e aebd 3282 2fbe ab6f d4be
00000100: 9239 f43f 6237 afbe 60e9 c1bc 1bc7 f73e
00000110: 0fd9 0f3f 9fa0 00bd c17a 2041 0481 2241
00000120: 9983 1e41 242d 1d41 f4d0 80bf ae3e 3541
00000130: 5708 3841 8733 3241 eeb7 3841 841b dbc0
00000140: 838b d640 0413 da40 7c0e d040 1a9d e040
00000150: c8ea 51bf a540 8dc0 0549 67c0 e01d 81c0
00000160: 106b 58c0 6987 43bf 996d 9d40 f797 7940
00000170: 59ec b140 1d91 7140 1653 67c1 90cb 5d41
00000180: d11b 7741 9f1f 5d41 22ae 7541 888b 3140
00000190: 444e f6c0 5daa f2c0 6959 04c1 0039 fdc0
000001a0: 5dea d741 a142 09c1 3ffe 17c1 0cdd 1cc1
000001b0: 9e3e 24c1 adcb 3441 b47c c13e beda 4d3e
000001c0: 57c7 0b3e 49a6 89bd 497d 8b3f 2545 97c0
000001d0: f12d b6c0 4939 afc0 e12b b9c0 3e9d 7a41
000001e0: a0b0 abbe 48e3 bfbe 2d63 59be 804f 45be
000001f0: 6578 113f d804 d4c0 4c0b f4c0 2995 cac0
00000200: 8eaa ebc0 2d0a 9340 f244 3241 3135 3341
00000210: e851 2e41 8074 2c41 3aac 2cc0 fc54 52bf
00000220: ea5a c13f b115 9f3d 1da2 e83f 4570 973f
00000230: 6200 c8be abfa 4abf 0756 f0be ff81 fcbe
00000240: 911c 15bf cdda 8bc0 e054 9fc0 4cc8 88c0
00000250: ba3d 91c0 8a47 99c0 98ee 49c1 bb67 52c1
00000260: ae67 46c1 d30a 58c1 7f60 05c1 9022 dc40
00000270: 7195 e540 c2d9 ee40 9793 f240 6f98 06bf
00000280: 0cf2 64c1 8118 78c1 5bdc 5cc1 fd77 7bc1
00000290: 2786 66c0 cdbc 2341 9e0b 2341 2562 1d41
000002a0: 9b4d 1c41 5eae fe40 5fd9 67c0 9b95 61c0
000002b0: ee83 6bc0 0b14 76c0 5fa5 febf 4576 9f3f
000002c0: df39 9d3f 7cd3 813f c09e 783f 2e70 6840
000002d0: b976 d03d e784 963e d387 17bc f0ad 333d
000002e0: 7c57 ba3f 8ce4 573c 171e c0be f65d 693e
000002f0: b638 c4bd 6e3f e7be 1f80 a140 c87f a440
00000300: 7521 9040 99b6 8740 cc98 52c0 4af5 0c41
00000310: 70ab 1741 23f0 0f41 19cf 1541 b25d 1cbf
00000320: e919 db40 07f4 e640 219b c740 8764 d240
00000330: 6f78 9cbf 1b2d f3c0 96f8 f2c0 591d d2c0
00000340: 4a5f d2c0 81f8 c6bf 080b 6041 e708 7e41
00000350: 87c8 6b41 c408 8341 f99f 1f40 32b5 9740
00000360: 1d35 8640 e452 9a40 d6f6 9440 8f77 88c0
00000370: e8ef 97c0 c8eb 92c0 33b8 8cc0 97a7 65c0
00000380: 3626 71c1 0fe8 1e3f bb52 163f 4076 05bf
00000390: ef70 abbd c13a 2a41 bf14 b33e 24d2 e73e
000003a0: c997 753e 1072 813e 18dc 763f 8ec0 7e40
000003b0: 0d55 7040 4f58 7c40 a6e6 8140 2d5a 5d40
000003c0: 745c 45c0 349a 72c0 f583 6cc0 a792 7dc0
000003d0: 5b3b 6d41 47e4 8d40 55a3 9540 5f3f a940
000003e0: 2d24 af40 a83d 23c1 059b f23f b840 e93f
000003f0: 7c38 e63f 62c1 d03f a601 7d3e 8bef a4bf
1.590783 1.4133425 1.195789 1.2119021 -0.32703385 -9.515411 -9.025993 -9.389562
-9.032375 5.5661016 25.950481 27.348675 26.07292 27.544603 11.787993 19.181568
19.462105 19.305208 19.409542 2.6708279 -0.15860103 -0.4807029 -0.03985043 -0.29683757
4.6853213 1.5904722 2.2627656 1.6872371 2.293041 4.474026 15.717749 16.02874
15.722644 15.921398 5.5538716 -9.084877 -8.88513 -7.697094 -8.5012665 1.0872222
-18.389174 -18.310713 -17.958157 -18.255596 -6.1857495 -5.2384872 -5.176633 -5.3217497
-5.4674478 2.571625 -1.2884277 -0.8811664 -1.4734154 -1.263545 5.8399715 6.164858
6.071561 5.9150662 5.766136 3.285687 -0.025500301 -0.08501918 -0.1713951 -0.41491446
1.9080069 -0.3422194 -0.023670852 0.48394093 0.5619058 -0.03140318 10.029969 10.156498
9.907128 9.823521 -1.0063767 11.327803 11.502036 11.13758 11.544905 -6.847109
6.7045302 6.8148212 6.501768 7.0191774 -0.8199887 -4.414141 -3.6138318 -4.034897
-3.3815346 -0.76378495 4.9196286 3.8999002 5.560101 3.774482 -14.457785 13.862198
15.444291 13.82022 15.355013 2.7741413 -7.697054 -7.5832963 -8.271829 -7.913208
26.989435 -8.578767 -9.499572 -9.8039665 -10.265287 11.299726 0.37790453 0.20102975
0.13650261 -0.067211695 1.0897609 -4.7271905 -5.693108 -5.475743 -5.7866063 15.663389
-0.33533192 -0.3747809 -0.21229239 -0.19268608 0.5682433 -6.6255913 -7.626379 -6.330708
-7.3645697 4.594992 11.141832 11.200486 10.894997 10.778442 -2.6980119 -0.82160926
1.510587 0.07767809 1.8174473 1.1831137 -0.39062792 -0.7928874 -0.46940634 -0.4931793
-0.58246714 -4.370459 -4.9791107 -4.2744503 -4.538785 -4.789983 -12.62075 -13.150325
-12.400312 -13.502643 -8.336059 6.879219 7.1744924 7.464082 7.5805163 -0.52576345
-14.309093 -15.505982 -13.803798 -15.716794 -3.601938 10.233594 10.190336 9.836461
9.768947 7.958785 -3.6226423 -3.5247562 -3.6799273 -3.8449733 -1.9894217 1.2457968
1.2283286 1.0142665 0.97117233 3.631847 0.101788945 0.2939827 -0.009248692 0.04386705
1.4557948 0.013177048 -0.37522957 0.2278975 -0.09581129 -0.4516558 5.04689 5.1405983
4.504084 4.2410398 -3.290576 8.809885 9.479355 8.996127 9.363061 -0.6108047
6.846913 7.2172885 6.2376866 6.5747714 -1.2224253 -7.599256 -7.592845 -6.5660825
-6.574132 -1.5544587 14.002693 15.877173 14.736457 16.37928 2.494139 4.7408686
4.1939836 4.8226185 4.6551313 -4.2645946 -4.7480354 -4.591282 -4.3974853 -3.5883539
-15.071829 0.62072843 0.58719987 -0.5213356 -0.0837115 10.639344 0.34976766 0.45277512
0.23983683 0.25282335 0.96429586 3.9805026 3.755191 3.94289 4.0594053 3.458629
-3.083768 -3.7906618 -3.695554 -3.962076 14.826991 4.434116 4.676188 5.2889857
5.473166 -10.202553 1.8953558 1.8222876 1.7985988 1.6309016 0.2470766 -1.2885603

lstm.weight_hh_l0 f4 [256, 64]
00000000: e3aa 0440 903a 89c0 9e49 993f 0165 68bf
00000010: 2527 ccbf bb9a b4c0 691c 97c0 5178 4340
00000020: 90a6 893f 4c5c 4b40 7db2 9540 1d18 60bf
00000030: 2219 9f40 0bfc 273e 38ea ddbf beae d0bf
00000040: 475f c1bf 0a33 0040 5e19 44c0 c2c4 5ebf
00000050: 7d8b 29bf 26b4 c2c0 3f37 9e40 ceea 0940
00000060: 4a36 9240 a541 7f40 fac0 dc3f 2082 efbf
00000070: b255 5140 262f 9140 93bd 1cc0 7e32 843f
00000080: 5280 a2bf 264c 9340 e5be 7ec0 4515 4dc0
00000090: c04f 2c40 9b9d 1f40 c216 703e 5693 3f40
000000a0: 5af0 8abf 288e 8940 2b5d 8abf 1625 31bf
000000b0: cb8f 25c1 f754 83be b195 5640 f275 11c0
000000c0: 3f6c 3640 d7e6 f63e 33ad 2e40 7d1d 8640
000000d0: b1e6 10c0 e553 35be f901 2040 bf78 0b40
000000e0: 7b89 8a3f 2293 a83f f008 db40 18a3 953f
000000f0: 4810 3ec0 a003 c1bf 0a38 cf3f 754d a03f
00000100: 09e9 46c0 b57d c1c1 e53a 4f41 0b3c a4c0
00000110: 0cdf 54be 2642 4bc1 7534 bb40 44a9 c140
00000120: 5931 2e3f c0b6 df3f ba23 1a41 d953 e5bf
00000130: 28a8 eb3e 80b2 7c40 3b6e 59c1 4285 373f
00000140: 3f38 eec0 9698 2040 6b86 3840 f350 5740
00000150: e66a b2c0 82a9 9fbe 2f6f 1e41 a596 c840
00000160: 5aa3 d03f 633c 1541 bd98 293f ddc4 f2bf
00000170: 5a1c 96bf be34 4441 84d3 c840 df1f c93f
00000180: f0c6 2b41 6441 be41 0d13 2bc0 ef5b fc3d
00000190: eb22 89c1 eefe c940 a2c2 2cc1 0348 3241
000001a0: 8c6f df3f b531 28c1 763f 16c0 deff 15c1
000001b0: 5e04 8ac0 795a 7140 15a5 b5c0 8ef9 e0c0
000001c0: 1916 2a41 a5ec 8841 d7b2 7d40 8725 2141
000001d0: e2fa 89c0 b21c c53e 6ecc b83f 824b 9241
000001e0: 0ff0 03be 39b3 0d40 0a15 b040 1d2b 8c40
000001f0: f581 cabf eb72 0640 1307 0e41 dad0 66be
00000200: 5d27 3e40 5b6c 2240 42f3 f2c0 18f4 c4be
00000210: 4073 edc0 2fb0 6540 22c2 2640 0792 3040
00000220: 2ce7 95bf 2d4e 35bf 1e8b f540 e04f 1d40
00000230: 9b82 01c0 d6b4 e03f 0475 b240 7b33 5540
00000240: ffe6 66bd 9b44 fdc0 b6d6 6ec1 a8ce 5b40
00000250: 9d94 243f b007 e240 aaca ed3f b012 83be
00000260: a2d3 a340 4c95 8640 9c6b 89bf 11f1 e33f
00000270: 461c 3bc0 ba97 94bf e0f7 7440 249a c5c0
00000280: 4979 a240 eda6 bdbf c4a9 1c3f 3a0c da3e
00000290: 1a29 eb40 d1ee 80c0 333b d240 3d4c 04c1
000002a0: 79ba 31c1 08d4 c2c0 750c 38c0 ea45 1741
000002b0: 7848 6840 9b88 6cc1 046c c040 191d 9c3f
000002c0: bb8f 1a40 48b4 27c1 f3f9 be3f 966e d8bf
000002d0: 237a 123f f23f 4c40 aef8 9340 4e00 8140
000002e0: a0f4 54c0 ff8e 143f 1834 0ac1 20e8 5640
000002f0: b0e8 b5c0 d421 e340 ae21 fbc0 58fd 4241
00000300: 6309 2640 ac8d 04c0 75ba 0c41 5cdd 4a41
00000310: 5c58 4840 f35f 63bf 50d2 02c1 7d59 f440
00000320: 1cd6 bd41 2534 dc3f c761 d53f 2fbe 5fc0
00000330: d41a 1041 ca4b f13f 0dc4 c03e ff03 55c0
00000340: 53d5 8841 b385 49c0 dad0 0641 9889 f23f
00000350: 2321 8cbe 642f 89c0 7cd1 b8be 2799 ccbf
00000360: 85d3 d5c0 8dd4 86be ebcf 3140 aacc 8340
00000370: 0ce1 0f40 10d6 d9c0 3d71 dec0 c8a8 00c0
00000380: aced e33f 7ffe ca40 c66c 0240 7b58 4540
00000390: dbb9 f3c0 a188 bcc0 aaf8 cf40 c248 88bf
000003a0: 6984 2cc0 e562 9bc0 87bd 23c1 dc71 a9bf
000003b0: 674d 3141 962c 5640 dac5 17c1 d4fa e540
000003c0: 2a00 f3bd f68b 2941 0439 ffc0 475d 4940
000003d0: af4c 51c0 5130 36c1 8da8 9cbf 7a5e 9e3e
000003e0: 03dd 69c0 8383 f3c0 7811 5241 2093 2640
000003f0: beb9 a2bf b64e d1bf 3517 fc40 1a9c aebf
2.07293 -4.2883987 1.1975591 -0.9077912 -1.5949446 -5.643888 -4.722218 3.0542185
1.0753956 3.1775084 4.678038 -0.87536794 4.971818 0.1640474 -1.7337103 -1.6303327
-1.5107201 2.0031152 -3.0640483 -0.8701898 -0.6622847 -6.084491 4.944244 2.1549563
4.569127 3.9883816 1.7246392 -1.8711586 3.2708554 4.5370054 -2.4490707 1.0327909
-1.269541 4.6030455 -3.9804013 -3.2044232 2.6923676 2.4939945 0.23446181 2.9933677
-1.08546 4.298603 -1.0809683 -0.69197214 -10.347606 -0.2565076 3.3528864 -2.2728238
2.8503568 0.48222992 2.7293212 4.1910996 -2.2640803 -0.17707784 2.5001204 2.1792448
1.0823206 1.3169901 6.844841 1.1690397 -2.9697437 -1.5079231 1.6188977 1.2523638
-3.1079733 -24.18638 12.951879 -5.1323295 -0.2078821 -12.7036495 5.8501534 6.0519123
0.6804405 1.7477646 9.633722 -1.7916213 0.4602673 3.9483948 -13.589412 0.7168771
-7.444366 2.509313 2.8832042 3.3643157 -5.575549 -0.31184012 9.902144 6.268389
1.6299851 9.327243 0.66248685 -1.8966328 -1.1727402 12.2628765 6.27582 1.5712851
10.736069 23.781929 -2.6730378 0.123222224 -17.14205 6.3123693 -10.797518 11.142581
1.7455916 -10.5121355 -2.3476233 -9.374968 -4.313033 3.771147 -5.6764016 -7.030463
10.630395 17.11555 3.9640405 10.071662 -4.3118753 0.38498455 1.4437387 18.28687
-0.12884544 2.214064 5.5025682 4.380263 -1.582091 2.100764 8.876727 -0.22540608
2.9711525 2.5378635 -7.5921946 -0.3846748 -7.4203186 3.5888784 2.605599 2.7589128
-1.1711173 -0.7082241 7.673232 2.4580002 -2.0235965 1.7555187 5.576784 3.331267
-0.05637264 -7.9146247 -14.92742 3.4344883 0.64289266 7.0634384 1.8577473 -0.25600195
5.119584 4.2057247 -1.0735965 1.7807943 -2.9236007 -1.1608803 3.827629 -6.175066
5.0773053 -1.4816567 0.6119654 0.42587453 7.3487673 -4.0291524 6.5697265 -8.268613
-11.108026 -6.0883827 -2.8757603 9.454569 3.6294231 -14.783351 6.0131855 1.219638
2.4150226 -10.481514 1.4920028 -1.6908748 0.57217616 3.191403 4.6241064 4.031287
-3.3274307 0.58030695 -8.637718 3.3579178 -5.684654 7.0978794 -7.8478613 12.1868515
2.594323 -2.071147 8.795522 12.679043 3.130393 -0.8881828 -8.176346 7.635924
23.729546 1.7203413 1.6670464 -3.495983 9.00655 1.8851254 0.37649575 -3.328369
17.104162 -3.1487854 8.425989 1.894824 -0.2736903 -4.287035 -0.36097324 -1.5984238
-6.6820703 -0.26334038 2.7783153 4.1187334 2.2481108 -6.8073807 -6.951323 -2.0103016
1.7806907 6.3435664 2.037889 3.0835254 -7.6164374 -5.8916783 6.4991045 -1.0647204
-2.6955817 -4.855822 -10.233771 -1.3237872 11.081397 3.3464713 -9.485804 7.1868687
-0.11865266 10.59667 -7.97571 3.1463182 -3.2703054 -11.386796 -1.2238938 0.30931455
-3.6541145 -7.6098037 13.129265 2.6027298 -1.2712934 -1.6352146 7.877833 -1.3641388

lstm.bias_ih_l0 f4 [256]
00000000: c026 be40 53cb 9f40 c777 9940 ba40 c9be
00000010: 3081 0541 d7b4 fcc0 ba3a 4041 8570 0b3f
00000020: dd8a 24bf 842a 87bf 824c 0941 399a 97c0
00000030: dafe be40 4294 d3c0 f90e 3a41 6f0b de40
00000040: 6603 bc40 5638 1cc1 afb3 be40 3d13 713d
00000050: ae81 4cc1 5499 db3f 57fb 9e40 dbc0 8bc0
00000060: e2f4 e440 b5a0 c140 e427 30c0 6520 6f40
00000070: 035d 1cc1 fd0c 4040 084b 52c1 0662 ffc0
00000080: 845b 893e 5f4d 8bc1 88d5 d5c0 e86f 35c0
00000090: f698 e540 fa5a 3841 d9ea f340 22b8 8440
000000a0: 89c0 80c1 0d05 c540 938a 39c0 c859 62c0
000000b0: 3d7e 3b41 2ea9 f140 3db0 d040 b097 abc1
000000c0: 681e 0d41 2a88 3a41 8d99 3b41 5a7a fc40
000000d0: ad45 93c0 766f b540 a712 0440 fc24 8e40
000000e0: 8bdf 21c1 f745 16c0 8f12 84bf 5470 25bf
000000f0: ca9b d340 323d 0941 278e 41be 9672 1341
00000100: edea 9b40 6538 15c1 7560 ccc0 ba3a dec0
00000110: efcb 3441 8f3d b33f ebcc 92c0 986f abbf
00000120: a150 b540 a756 1b40 c878 3c3e 3382 c540
00000130: 0a6a 0241 084a babf 5949 1d41 56a8 2441
00000140: 878b 2cc1 ad57 f6bf 1355 3f40 198e ddc0
00000150: 90a6 9c40 29fb 2141 f281 0141 1ae3 8740
00000160: 8f9c d2c0 e97a 2fbf 3f03 8bbf 1d20 93c0
00000170: 3ff4 723f 5606 8f40 e42c 8940 e4a9 9140
00000180: b371 27c1 1735 dc40 a898 ce3e 436e a5bf
00000190: 6073 9440 8bfb 1b41 4ba2 6f40 f365 0141
000001a0: bb36 443f a1a8 0c41 0dd5 9040 4f8a ab40
000001b0: 8186 96c0 7ee5 69c0 ac65 c83f f569 6bc0
000001c0: 06f0 7940 5afb 6ac1 6d2f 9540 55be 9b3f
000001d0: e3c3 11c0 c846 cfc0 36ec 8d40 db8f 5abf
000001e0: 3469 6040 aaf8 b540 ef15 3e41 dbe8 14c1
000001f0: 6392 eac0 9606 d940 3f50 df40 95a4 8cc0
00000200: c7cc 0ec1 6964 9b40 94d9 9040 8c75 b5c0
00000210: d7e5 b1c0 d013 02c1 8f83 3ec1 71a0 6a40
00000220: 5869 9740 ca17 0d40 233c 4c40 b73c abc0
00000230: 1029 0441 97bb ec3f 16ca 9cc0 2eb5 efc0
00000240: 7332 acbf d867 1ac0 7a5c a2c0 abf5 4ac0
00000250: df1b 0ebf 0ee2 403f a0a1 a840 5de5 1741
00000260: c22c 3340 b7b4 8a40 0f91 ce3f e5e6 cf40
00000270: 42e3 d03f 2aaf 3841 1317 5940 f0b2 9540
00000280: 0bde d5c0 dacf 52c0 baec 2040 7dc8 69c0
00000290: e05b bf40 5035 38c1 c652 21c1 5bf9 5440
000002a0: 5c7a afc0 8d14 1b41 ea96 88c0 cc48 48c1
000002b0: a71a bcc0 7ec3 28c0 3297 4340 6efc 8740
000002c0: 6282 1ac0 bb86 fac0 cc25 d1c0 ef37 8f40
000002d0: cb9a 2140 af7b 4e40 5068 f640 e3ec 6440
000002e0: f69c 72c0 a6dc 3ac1 890d fa40 8d22 59c0
000002f0: 461f a8bf 2c58 f7c0 a8ab 6f40 3035 5c41
00000300: 4553 773f 3be5 c8c0 386e 2441 d918 45c1
00000310: 4aea 1d41 3a57 0641 0e3e cb40 9e89 33c1
00000320: 4712 ab40 095f 8fc0 1008 3cc1 2615 acc0
00000330: 180a 8840 3241 5e3f fbdb 4a41 4fd4 0c41
00000340: ca90 1241 21db 52bf 48c2 e440 f447 9440
00000350: bbe1 0240 7c8b 2341 6ddb 0140 6169 0640
00000360: c528 e040 2ea0 c940 b724 d5c0 4716 a840
00000370: ecec 9cc0 e2bd 92bf 05bf 0d41 e595 9fc0
00000380: 9d7a f940 d16c bf40 f346 b4c0 3e89 0ac1
00000390: 351b ab3f 1256 bd40 b81f a040 de8a d5c0
000003a0: 2d5d 8e40 25f6 e73e 3577 d740 e331 3c40
000003b0: be56 2841 71f5 38c1 3338 bb40 1823 28c0
000003c0: a97c ea40 c22f 2541 8cb9 0741 6566 06c1
000003d0: 384e d2bf 10b6 de40 9962 a2c0 e795 36c1
000003e0: 9ac9 91c0 1cc2 e7bf 1688 d340 35aa d9bf
000003f0: 9edb f440 37ae db3f f634 58bf 474a 6741
5.94223 4.99357 4.7958713 -0.39307195 8.34404 -7.897075 12.014338 0.54468566
-0.6427439 -1.055985 8.581179 -4.737576 5.96861 -6.611848 11.628655 6.9388957
5.875415 -9.763754 5.959434 0.058856238 -12.78166 1.7156167 4.968181 -4.367292
7.154893 6.0508676 -2.7524347 3.7363522 -9.772708 3.0007927 -13.143318 -7.9807158
0.26827633 -17.412779 -6.682316 -2.8349552 7.174922 11.522211 7.622418 4.147477
-16.094011 6.1568666 -2.899083 -3.5367298 11.71832 7.551902 6.5215135 -21.449066
8.819923 11.658243 11.724988 7.8899355 -4.6022553 5.669856 2.0636384 4.4420147
-10.117076 -2.3480203 -1.0318164 -0.64624524 6.612767 8.57744 -0.18901883 9.215475
4.8724275 -9.326268 -6.3867745 -6.944669 11.299788 1.4003161 -4.5875144 -1.3393431
5.6660924 2.4271638 0.1840545 6.1721435 8.150888 -1.4553843 9.830407 10.291098
-10.784064 -1.9245507 2.9895675 -6.923596 4.8953323 10.123818 8.094225 4.2464724
-6.581611 -0.6854692 -1.0860366 -4.59767 0.9490394 4.4695234 4.28673 4.5519886
-10.465259 6.8814807 0.40350842 -1.2924274 4.639084 9.748912 3.7442806 8.08739
0.7664601 8.791169 4.526007 5.3606334 -4.703919 -3.654632 1.5656028 -3.678342
3.9052749 -14.686365 4.6620393 1.216746 -2.277581 -6.4773903 4.4350843 -0.85375756
3.506421 5.6866045 11.880355 -9.3068495 -7.3303695 6.782054 6.9785457 -4.3950906
-8.924994 4.856007 4.52656 -5.670599 -5.5593066 -8.129837 -11.907119 3.6660426
4.7316093 2.204577 3.1911705 -5.3511615 8.260025 1.8494748 -4.8996687 -7.4908667
-1.3452896 -2.4125881 -5.0737886 -3.1712444 -0.5551128 0.7534493 5.2697296 9.493497
2.7996068 4.33456 1.6138018 6.4969354 1.6319354 11.542765 3.3920333 4.678093
-6.683355 -3.2939363 2.5144486 -3.6528618 5.979965 -11.513016 -10.082708 3.3277194
-5.4836864 9.692517 -4.268422 -12.517773 -5.8782535 -2.636932 3.0561032 4.249564
-2.414208 -7.8289466 -6.535864 4.475578 2.5250728 3.226299 7.7002335 3.5769584
-3.7908301 -11.678869 7.8141522 -3.3927338 -1.3134544 -7.729513 3.744852 13.762985
0.96611434 -6.277982 10.276909 -12.318566 9.8696995 8.396296 6.351325 -11.221098
5.345981 -4.480351 -11.751968 -5.3775816 4.251232 0.8681823 12.678706 8.801833
9.160349 -0.82365614 7.148716 4.6337833 2.0450275 10.221554 2.0290177 2.1001818
7.0049767 6.300803 -6.660732 5.2527194 -4.903921 -1.1464198 8.859136 -4.9870477
7.7962174 5.9820333 -5.633661 -8.658506 1.3367678 5.9167566 5.003872 -6.6732016
4.448874 0.4530498 6.7333016 2.9405448 10.521177 -11.559922 5.8506103 -2.627142
7.3277173 10.32416 8.4828 -8.399999 -1.643012 6.9597244 -5.074536 -11.411597
-4.5558596 -1.8106112 6.610362 -1.7005068 7.6518087 1.7162541 -0.8445581 14.455634

lstm.bias_hh_l0 f4 [256]
00000000: e028 bc40 ab69 a340 7a16 9e40 7e7c a6be
00000010: 16c0 0641 8ebb f9c0 6072 4041 56ba e33e
00000020: 0fac f5be d010 67bf c3c4 0a41 f942 95c0
00000030: fc6d c340 0bd2 d1c0 83c9 3841 7e80 dd40
00000040: 3e50 bf40 42dc 1bc1 6717 bd40 7dc6 d03d
00000050: 5c19 4bc1 282b cf3f 710e 9d40 0d17 90c0
00000060: b85b e740 e730 bd40 457d 39c0 4d07 7140
00000070: 7dbd 1cc1 8f58 3740 ea6f 52c1 ae78 ffc0
00000080: ae60 f33d 5277 8bc1 889b d1c0 d209 27c0
00000090: 2698 e740 7dfe 3841 ef96 f540 9c15 8440
000000a0: b52f 81c1 cbdb c040 c582 37c0 453d 61c0
000000b0: 558c 3941 6803 f340 e7b7 d340 e284 aac1
000000c0: 8e0d 0b41 b660 3a41 7190 3c41 ae4a f640
000000d0: bf82 94c0 6a3e b740 0da8 0b40 f220 9240
000000e0: c59c 22c1 6996 16c0 27bc 86bf 8198 e1be
000000f0: 3062 d940 e5c8 0841 c0dd 07be 178a 1241
00000100: f437 9840 f450 14c1 5a4a cdc0 7c32 dec0
00000110: 00f7 3541 d1c0 a83f 3361 93c0 8507 a1bf
00000120: 3b28 b140 ee02 1640 98ab 3f3e 6fcb c540
00000130: 0f56 0241 7899 c0bf fc5f 1f41 5ee2 2341
00000140: 5db9 2cc1 d163 eebf 9761 3f40 9b0e e4c0
00000150: 27da 9d40 ffa6 2041 eadd 0241 26bc 8d40
00000160: 41e1 ccc0 d3c7 3bbf 23d3 7bbf 807a 8cc0
00000170: 5240 6e3f 86d5 8e40 0767 8e40 f8cd 8b40
00000180: cf39 27c1 c5f4 d640 62e5 ed3e 32c1 9cbf
00000190: 4964 9540 dae4 1c41 4904 6940 6276 0241
000001a0: 5ef2 6a3f 7f2b 0d41 424d 9140 11e5 aa40
000001b0: 50fa 92c0 48bc 6bc0 1618 c53f f65e 6ac0
000001c0: 8112 7d40 f6ac 69c1 30aa 8f40 b1fe a13f
000001d0: 58ca 19c0 0ec6 ccc0 5ac8 8a40 8f37 4fbf
000001e0: 7462 5c40 d43f b640 4729 3f41 6d19 15c1
000001f0: ab60 e4c0 98d3 df40 6634 e340 b349 93c0
00000200: e48e 0ec1 fd11 9c40 5dec 8f40 480e b5c0
00000210: 0fbb b0c0 973e 00c1 cba2 41c1 4c69 6a40
00000220: 25af 9540 5b62 1540 2d7e 5440 c2cc acc0
00000230: c862 0441 aaff 0140 aa38 9cc0 6c0d edc0
00000240: b3cd a9bf d99e 1bc0 4c1b a9c0 c4a5 4dc0
00000250: 79d1 0abf ee9e 383f f3fa a940 12aa 1741
00000260: 1a10 2540 3f1b 8c40 3db4 c83f bd10 d240
00000270: 4e90 d23f b8ae 3741 e497 4d40 9d92 9540
00000280: ec0a d2c0 a445 53c0 78fd 2740 4f6b 6cc0
00000290: 3634 bf40 b254 3ac1 98f4 20c1 93b0 5a40
000002a0: 0104 acc0 5e73 1941 942a 8cc0 0c4d 49c1
000002b0: 1b02 c2c0 e41b 19c0 045a 3f40 cb30 8a40
000002c0: 52be 18c0 61c5 f8c0 02fa d6c0 2b02 9540
000002d0: 3f5d 2c40 c748 5240 6910 f640 25c0 6040
000002e0: c871 7ec0 e171 3bc1 b914 fc40 9d04 53c0
000002f0: c4ba a3bf 19d8 f6c0 7aa7 7040 f47c 5b41
00000300: f019 6b3f 42cf c9c0 1886 2441 8346 46c1
00000310: 06ea 1c41 5fd7 0341 9a1c d140 e864 35c1
00000320: 0b95 ab40 4980 91c0 d831 3bc1 4261 b1c0
00000330: ba2d 8b40 6209 5d3f 2961 4a41 1430 0e41
00000340: 2f16 1341 6df2 60bf 3c32 df40 ea89 9540
00000350: 0af7 0140 c895 2041 5fa3 fc3f ebfb 1140
00000360: 2dac e140 9a97 c640 dacb dcc0 1ac5 a940
00000370: 98fc 9cc0 cd23 75bf 69cb 0b41 4959 9fc0
00000380: 61d7 fc40 817d bc40 6302 b2c0 9288 0bc1
00000390: ef77 a53f 20ab b940 3c9e a440 8117 d7c0
000003a0: 23d0 8e40 999f 023f 9df8 d740 652e 4a40
000003b0: c6af 2841 0414 39c1 52a5 bc40 e419 22c0
000003c0: 157a ee40 1ac0 2541 81d8 0641 b4ad 05c1
000003d0: e62f d3bf 084e db40 c13a 9fc0 b90b 36c1
000003e0: 2adb 91c0 ad63 efbf 3642 d140 1938 ccbf
000003f0: 5920 f040 31f0 e03f d546 3fbf caa6 6541
5.8799896 5.106649 4.9402437 -0.32516855 8.421896 -7.804145 12.027924 0.444781
-0.47982833 -0.9026003 8.673038 -4.6644254 6.107176 -6.55689 11.549197 6.921935
5.978545 -9.741274 5.9091067 0.10194109 -12.693691 1.6185045 4.908013 -4.502814
7.229946 5.9122195 -2.8982708 3.7660706 -9.796262 2.8647802 -13.152323 -7.9834814
0.118836746 -17.433262 -6.5502357 -2.6099744 7.237323 11.562131 7.6746745 4.127638
-16.148294 6.02683 -2.8673565 -3.5193646 11.596761 7.594166 6.616199 -21.314884
8.690809 11.648611 11.785264 7.696616 -4.64096 5.726369 2.182132 4.5665216
-10.163274 -2.3529303 -1.052617 -0.44061664 6.793236 8.5490465 -0.13268185 9.158713
4.75683 -9.269764 -6.415326 -6.9436626 11.372803 1.3183843 -4.605615 -1.258042
5.536161 2.3439288 0.18717802 6.181083 8.14601 -1.5046835 9.960934 10.242765
-10.795255 -1.8624212 2.9903314 -7.126783 4.93288 10.040771 8.179178 4.4292173
-6.402497 -0.7335178 -0.98369044 -4.3899536 0.93066895 4.463565 4.4500766 4.3688927
-10.451613 6.717379 0.46464068 -1.2246459 4.668492 9.805872 3.6408865 8.153902
0.9177607 8.823119 4.540681 5.340462 -4.5930557 -3.6833668 1.5397975 -3.662046
3.9542544 -14.604727 4.489525 1.2655851 -2.402975 -6.3991766 4.336957 -0.8094415
3.443509 5.6952915 11.947577 -9.318707 -7.1368003 6.9945793 7.1001463 -4.6027465
-8.909885 4.877196 4.497603 -5.6579933 -5.5228343 -8.015281 -12.102244 3.6626768
4.67763 2.3341281 3.3202012 -5.399995 8.2741165 2.0312295 -4.881917 -7.4078884
-1.32659 -2.4315703 -5.284582 -3.2132425 -0.5422588 0.7211751 5.3118834 9.479021
2.5791078 4.378326 1.5680004 6.5645432 1.6450288 11.480156 3.2123957 4.674147
-6.563833 -3.3011255 2.6248455 -3.6940496 5.9751234 -11.645678 -10.059715 3.4170272
-5.3754888 9.590666 -4.3801975 -12.58131 -6.062757 -2.3923273 2.989869 4.318456
-2.3866162 -7.774094 -6.7180185 4.6565146 2.6931913 3.285692 7.689503 3.5117276
-3.9756947 -11.715302 7.8775296 -3.2971566 -1.2791371 -7.713879 3.760222 13.718006
0.9183645 -6.30655 10.282738 -12.392215 9.807135 8.240081 6.5347414 -11.337135
5.3619437 -4.54691 -11.699669 -5.5431223 4.349332 0.8634244 12.648721 8.886738
9.192916 -0.8786991 6.974882 4.673085 2.030703 10.036568 1.9737357 2.2810009
7.0522676 6.206006 -6.899884 5.3053102 -4.905834 -0.9575775 8.737161 -4.979649
7.9012914 5.8903203 -5.5627913 -8.720842 1.2927226 5.8021393 5.1443157 -6.721619
4.4629073 0.51024777 6.7490983 3.1590817 10.542913 -11.567387 5.8951807 -2.5328302
7.4524026 10.3594 8.427857 -8.354908 -1.6498992 6.8532753 -4.975922 -11.377862
-4.5580034 -1.8702294 6.5393324 -1.595462 7.5039487 1.7573301 -0.74717456 14.35322

fc1.weight f4 [64, 64]
00000000: ca9a 75c0 7692 8141 bf33 d340 0107 b340
00000010: 6c67 cbbf 0eb3 0041 ae69 af40 e001 3dc1
00000020: f2da 5a40 4713 b93f 6565 07c1 6852 4141
00000030: 8ba2 90c0 00b3 8ec0 70c3 5cc0 d889 e140
00000040: c0b4 9940 3a3f 3ec1 2b3d 1c3f 5c90 23c1
00000050: 1a1d 8ac0 0844 4740 db29 a6c0 5990 2d3f
00000060: 0428 b43e 0238 1fc1 184f f640 2f45 6840
00000070: a77e 533e fbde 4bc0 14bf 3abf 3b10 4cc0
00000080: dd80 05c0 6a53 f7bf b5e9 0d3f 326b 0f40
00000090: b1d2 9240 b253 d83f 67f9 7540 9ebd 06c0
000000a0: f9d4 bf3d a0a7 edbf e2e9 b53f 892a 6240
000000b0: 5374 7240 e63c 8fbf be02 c640 c758 3cc1
000000c0: 7357 03bf 2173 293f 7333 6340 4bd2 2541
000000d0: 5987 9040 e85b 80c0 cc8b 2bc1 740b b2c0
000000e0: 1ac2 16c1 fb8f 033f 0e69 06c1 8f69 803d
000000f0: f070 ac40 bce8 36bf 4195 bfc0 3d38 e4bf
00000100: df29 b1c0 09c9 afc0 f6f5 0d41 556d 53c0
00000110: e6c0 e140 5ec0 fb3f 33b8 32c1 0f88 33c1
00000120: 6828 c7bf 83cb f040 f593 afc0 32b2 8840
00000130: eb43 ef40 7195 2041 09f2 84c0 cc61 b640
00000140: 6d03 a43f 47c3 15c1 4fac 25c1 9634 5dc1
00000150: f17a 45c1 9d6e 8dbe f260 eebf 3cdd 0041
00000160: 4040 21c0 c282 03be 557f 2441 96b3 d140
00000170: 0dbf c740 3e3f 0640 3b0d 5fc0 498f ae40
00000180: 2a14 cdc0 3cca d540 77a4 10bf 2205 5d40
00000190: 3268 7ac0 717a 0741 d361 2ac0 0895 b1bf
000001a0: a318 b4c0 2f58 1bbc b5c7 cfc0 cd8e febf
000001b0: 2118 1740 d6fc 10c0 e158 e03f 7876 0e41
000001c0: 0f75 8a40 5bd3 4d40 5dfc 83c0 3df3 4941
000001d0: 1188 5cbe aa76 8ebf 7456 3840 69da 1fc1
000001e0: a28f 3bc1 43e4 00c1 9cab a6bf 90b0 aec0
000001f0: 722e bfc0 51d7 62c1 a503 2ec0 9b7e 0d3f
00000200: 05b2 18c0 0248 2c40 6b32 3141 0b90 27bf
00000210: b99c 2141 def7 02c1 af43 50c1 695a f9c0
00000220: c32a d440 2842 e140 ec3f e6bf 8a19 5340
00000230: 3de2 d640 e072 2b41 e86e b4c0 b1b7 ee40
00000240: 3189 7141 dddf 10c1 78e7 1cc1 c4ba d0c0
00000250: 9584 50c0 f2a5 9440 b491 3540 d2e8 6840
00000260: aeb9 68c0 2455 4c3f c56b 0541 3cf7 a540
00000270: fe0a ce40 1516 0140 04c1 4040 baf2 0441
00000280: ae71 1541 fb4c e33f 8407 febe 4b3d 5640
00000290: 911d 253f d376 5240 bee4 8dc0 8ccf b13f
000002a0: bf05 66c1 812d 0f40 be30 2ac1 16f3 9bbf
000002b0: 23b3 12bf 64dd 81c0 00b2 d73f f1bb 1541
000002c0: dbe8 bac0 0db8 5240 7c7a a1c0 f33d 4241
000002d0: b143 ecbd a53b 33c1 42ad 9940 c4ef 43c0
000002e0: 44db bdc0 3c38 93c0 32ba 1240 6355 8040
000002f0: acb0 f1be 0f78 35c1 76cd 7740 eb20 3440
00000300: 64a1 15c1 fc68 64c0 ff0e 1b41 163e dbc0
00000310: 599c 5c40 3e99 9fc0 6dd5 d7c0 c8ef 17c1
00000320: e65f 81c0 30f2 b240 7e0a 68bf 8669 3940
00000330: baf4 9b40 3aba 3b41 8ceb 8dc0 6397 dd40
00000340: 8707 183f bd33 4ac1 64f6 99c1 709e 01c1
00000350: d135 0ac0 4a01 8340 3480 76be 4148 803f
00000360: f7ba 0bc1 e3cf 7c40 a430 2441 339c 0a40
00000370: fac4 8b40 318f ab3e 4d0b 18c0 27d4 f040
00000380: 8202 8040 3384 da40 2f1a 45bf 4f5a 3540
00000390: 2af7 13bd 3d9e 873f 6b0b a4c0 8e10 88c0
000003a0: 534d adc1 a492 7fc0 3dec a3c0 b5f7 81c0
000003b0: a599 f13e dab3 88c0 dbe4 7cbf 78e3 7f41
000003c0: 9b8c 5fc0 46b3 95bf 6c6a a0c0 392e 7a41
000003d0: d0d2 86bf 8734 f3c0 6e6e e740 f70e b6bf
000003e0: 2e83 cac0 20c8 74c0 e303 1fc0 bc03 dabe
000003f0: bf59 2040 f2e7 e0c0 de1b 8140 861a 69bc
-3.8375726 16.196514 6.6000667 5.594605 -1.5890937 8.043715 5.4816504 -11.812958
3.4196134 1.4459008 -8.462255 12.082619 -4.5198417 -4.4593506 -3.4494286 7.0480766
4.803314 -11.890436 0.61030835 -10.222744 -4.3160524 3.1135273 -5.1926093 0.6779838
0.3518678 -9.951174 7.697155 3.6292226 0.20653783 -3.1854846 -0.7294781 -3.1884906
-2.0859902 -1.9322331 0.55434734 2.2409177 4.588219 1.6900542 3.8433473 -2.1053233
0.09366793 -1.856678 1.4212 3.5338461 3.7883499 -1.119046 6.1878347 -11.771674
-0.5130531 0.661913 3.5500152 10.363841 4.516522 -4.011219 -10.72163 -5.563898
-9.422388 0.5139157 -8.400648 0.06270134 5.3887863 -0.71448874 -5.9869695 -1.7829663
-5.536361 -5.4932904 8.872549 -3.303548 7.054797 1.9668081 -11.1699705 -11.220717
-1.5559206 7.5248427 -5.486811 4.2717524 7.477041 10.036485 -4.1545453 5.699438
1.2813545 -9.360175 -10.354568 -13.825338 -12.342515 -0.27623454 -1.8623335 8.054012
-2.5195465 -0.12842849 10.281087 6.553172 6.2420716 2.09761 -3.4851825 5.454991
-6.4087114 6.680937 -0.56500953 3.4534383 -3.9126096 8.467393 -2.6622207 -1.3873606
-5.6280074 -0.009481474 -6.4931283 -1.9887329 2.3608477 -2.265432 1.7527124 8.903923
4.3267894 3.216025 -4.124556 12.621884 -0.2153628 -1.1129963 2.8802767 -9.990823
-11.722567 -8.055728 -1.3021121 -5.459053 -5.9744196 -14.1775675 -2.7189724 0.5527131
-2.3858654 2.691895 11.074809 -0.6545417 10.100762 -8.185514 -13.016524 -7.7922864
6.63022 7.0393257 -1.7988257 3.2984338 6.715117 10.715546 -5.6385384 7.4599233
15.095994 -9.054654 -9.806511 -6.5227985 -3.2580922 4.645257 2.837018 3.6392102
-3.636333 0.79817414 8.338811 5.18643 6.438842 2.0169728 3.0117807 8.309259
9.340254 1.7757868 -0.4961511 3.347491 0.6449824 3.2885025 -4.4341726 1.3891463
-14.376403 2.2371523 -10.6369 -1.2183559 -0.5730459 -4.058275 1.6851196 9.358384
-5.8409247 3.2924836 -5.0462017 12.140124 -0.115363486 -11.202062 4.8023996 -3.0615091
-5.933016 -4.6006145 2.2926145 4.010423 -0.47205102 -11.341811 3.8719153 2.8145092
-9.351902 -3.5689077 9.691161 -6.851329 3.4470427 -4.9874563 -6.744803 -9.49604
-4.0429564 5.592064 -0.9064101 2.8970656 4.873624 11.732965 -4.4350033 6.92473
0.59386486 -12.637631 -19.245308 -8.101181 -2.1595347 4.0939074 -0.24072343 1.002205
-8.733146 3.9501884 10.261875 2.1657836 4.367795 0.33507684 -2.3756897 7.5258975
4.000306 6.8286376 -0.7699308 2.833637 -0.036124386 1.0595165 -5.126394 -4.252021
-21.662756 -3.9933252 -5.1225877 -4.0614877 0.47187534 -4.2719545 -0.98786706 15.993034
-3.4929569 -1.1695335 -5.012991 15.636285 -1.0533085 -7.600162 7.23223 -1.4223317
-6.328513 -3.8247147 -2.4846122 -0.42580974 2.5054777 -7.0283136 4.0346518 -0.014227515

fc1.bias f4 [64]
00000000: 3ddd e642 87ff d942 4a4c d942 97a4 e042
00000010: bb83 dd42 48f3 d842 52cf e042 f76f d742
00000020: cfe8 da42 57e6 ed42 160e e842 9fea e342
00000030: 4e20 e142 2248 d642 1377 db42 5b1a db42
00000040: 64bd da42 a25d d642 1691 db42 87db e742
00000050: d77b dd42 200b c442 6003 d842 efe0 dc42
00000060: 43f9 e742 98bd d942 919f d942 6321 e042
00000070: 89e5 e342 0ade d642 694d e142 5651 e142
00000080: d015 dd42 b8a9 db42 b6f7 db42 82ef eb42
00000090: 211e db42 e711 d842 c837 da42 7a83 e742
000000a0: 60c7 de42 a2ca db42 b085 d342 08a2 de42
000000b0: 7a83 d842 f5ee ed42 6faa e442 71aa dd42
000000c0: dd71 d342 ab9f da42 9291 e042 c680 9a42
000000d0: b303 dd42 c575 db42 0de3 e642 40b7 df42
000000e0: a0d7 df42 7fed db42 3a6f dd42 ed91 df42
000000f0: 586f d942 ddf1 d542 ba9a de42 0a15 e042
115.432106 108.99908 108.649 112.321465 110.757286 108.47516 112.40492 107.71868
109.454704 118.94988 116.02751 113.958244 112.563095 107.140884 109.73257 109.551476
109.3699 107.18288 109.78337 115.928764 110.741875 98.02173 108.00659 110.43932
115.98684 108.8703 108.81165 112.06521 113.94831 107.43367 112.65119 112.65886
110.5426 109.83148 109.98381 117.96779 109.558846 108.034966 109.10895 115.75679
111.389404 109.89577 105.76111 111.31647 108.25679 118.96671 114.33288 110.83289
105.72239 109.31185 112.28432 77.25151 110.507225 109.73002 115.44346 111.85791
111.92114 109.96386 110.71724 111.78501 108.71747 106.97239 111.3022 112.04109

fc2.weight f4 [1, 64]
00000000: 1550 2442 09d0 a141 95c8 9f41 8387 a841
00000010: d148 9b41 f8cc 9441 deb5 a941 8f95 9741
00000020: 6cd1 a341 7476 5c42 df6e 1e42 e3e8 4842
00000030: b12f ab41 7568 9241 fe68 9a41 dfe1 9b41
00000040: cefa 9741 5920 9941 5974 9f41 ac79 ca41
00000050: c2ac a341 384d 2042 1676 9841 f744 9b41
00000060: f297 2942 7b43 9441 44ba 9341 daee a441
00000070: 6e07 1a42 ac11 8d41 c8c0 af41 9417 b341
00000080: c319 a141 0c4e 9141 ebd5 a341 93cc 2f42
00000090: 9c4b a241 bcea 9141 2f5c 9d41 f987 5f42
000000a0: 3f81 9d41 b6fd a741 83b7 3942 ddca ac41
000000b0: 11af 1a42 3180 3542 2fd8 4942 5200 a241
000000c0: c315 ca41 f193 a541 a433 a341 ca2e d341
000000d0: bc28 9e41 f7d9 9d41 4609 3842 77b6 0c42
000000e0: 6ddd a841 6c58 9541 3811 9b41 ddfb ab41
000000f0: 1034 a041 0872 9241 2cbf 9a41 e53a ab41
41.078205 20.22658 19.97294 21.066168 19.410555 18.600082 21.213802 18.948027
20.477257 55.115677 39.608273 50.22743 21.398287 18.301004 19.301266 19.485289
18.997463 19.140795 19.93181 25.30941 20.459354 40.07541 19.05766 19.408674
42.398384 18.53295 18.46595 20.616627 38.507256 17.633629 21.969131 22.386513
20.137579 18.163109 20.479452 43.94978 20.286919 18.239616 19.670012 55.882786
19.688108 20.998882 46.42921 21.599054 38.670963 45.375187 50.461117 20.250156
25.260626 20.697237 20.400215 26.397846 19.76989 19.731428 46.009056 35.17819
21.108118 18.668175 19.383408 21.49798 20.025421 18.30568 19.343346 21.403757
