best_model_naver.pth (torch, 92908 bytes, 7 tensors)

lstm.weight_ih_l0 f4 [256, 5]
00000000: 9806 1dbf fa11 42bf 337b 88bf 0c94 87bf
00000010: 00ac 5840 b215 1f3f 5188 423f 7ea4 213f
00000020: fe12 4b3f 1092 7040 7049 6bbf 5340 82bf
00000030: 3cfe 5ebf 0f18 893f 85a2 293e 098b ca40
00000040: f710 c740 8cd7 c240 0f9b 1f41 12e3 90c0
00000050: 246c a13f faf8 a43f 5d01 b03f a57f f03f
00000060: 133d 6d3f f22c f0c0 5b94 eec0 c5c9 edc0
00000070: 704c 00c1 87f6 c13f 20a2 b7c0 d052 b5c0
00000080: 654f b0c0 3ee8 afc0 0564 c5bf 4996 84c0
00000090: a876 99c0 6526 90c0 3c30 a4c0 3305 bbbf
000000a0: b2d7 01c1 a6d5 f9c0 8eb5 03c1 35e2 03c1
000000b0: 4da9 6441 0d0f 6040 e164 6840 93bf 7240
000000c0: 903e 3e40 fce9 903f 79d1 b0bf 45ed c2bf
000000d0: b1c2 c5bf 3b4d cebf d5ee 353f 61a2 ba40
000000e0: c032 bb40 ed48 ba40 9d4a c840 4f9c 78c0
000000f0: dce0 a2c0 1d6f a8c0 5615 b6c0 21f5 8dc0
00000100: 15d1 953f ca54 433f 116e 613f c35b fd3e
00000110: 2a79 493f 720a 0d3e 2ef7 fc40 89bd 0741
00000120: 63fc 0541 5962 0c41 2076 703e 2b6e 6dc0
00000130: 604b 70c0 416f 70c0 93af 22c0 9d7b 55c0
00000140: 1399 d5c0 fe02 bec0 9139 cbc0 9546 d7c0
00000150: 8647 1940 ed8f bb3e f6f0 7d3e 67e3 8a3e
00000160: 0326 59be 5fb5 f3be b630 edbf fab6 f2bf
00000170: dabb debf c052 d2bf 5ed9 a2c0 e3a5 723f
00000180: dc4a 883f 4440 853f d151 cd3f 8654 e63f
00000190: e989 8d3f e426 813f 3f1c 993f 65dc ae3f
000001a0: 1638 243f bdc7 1a40 326c 1940 64c5 2140
000001b0: c7dd 1540 e259 403f d735 8c3e 7c07 373e
000001c0: 83cd 6b3e c50b 593f fd14 5440 0bd6 b9c0
000001d0: 0eab c4c0 1f28 c2c0 635d c4c0 acd6 10c0
000001e0: 7b90 313f 829c 553f 7dcf 703e 72c7 183f
000001f0: 998e bc40 0666 b6c0 bcc4 b6c0 7fa7 b5c0
00000200: 452b b7c0 a708 cf40 067b 663f 910f 753f
00000210: dfba 333f f3be 483f be23 8ebd d137 4240
00000220: c901 4e40 57bb 3740 8118 6240 c762 f040
00000230: 2e6c 8540 c789 8e40 f79a 8040 4cde 8140
00000240: 04b0 ea3f 1be6 79c0 1dbc 8cc0 348f 7cc0
00000250: c3e9 8dc0 7baa 5ebf 7b53 043f aaa7 fa3e
00000260: 514e 193f 21db e83e a09c 45bf 9577 f0be
00000270: 70c7 9bbe 97b6 cdbe 1f74 dcbe 79de 203f
00000280: fb28 be3f 9ffd b83f d508 ba3f 7e28 a73f
00000290: 708a d340 eb10 6bc0 e04d 79c0 56f6 5ac0
000002a0: 8f94 68c0 76b2 c0c0 b0d2 e140 2e66 e640
000002b0: 417b e640 c41a ea40 aa1a dd40 567b e240
000002c0: a33e ee40 9d1d f740 482b 0541 0f7e 27c1
000002d0: 0780 c33f 3579 ba3f 4ae0 a13f 2560 973f
000002e0: b102 8dbf 44ec 4dc0 7268 43c0 cc0f 50c0
000002f0: 7795 52c0 98b4 bcc0 3bb6 313e bbb0 9b3d
00000300: e01f 9ebf 662c 7cbf 1199 a040 4192 a63f
00000310: e58a 833f ddce 863f 87a5 8940 77c1 5cc0
00000320: 2f45 a440 eab4 ab40 d423 b740 9d5d bd40
00000330: 5ef1 53c0 754c 8e40 f6d7 8140 6429 8540
00000340: f4b8 8740 e270 aabf 8be7 f2c0 dd9b f6c0
00000350: 9072 fdc0 d20e 19c1 3461 9d40 b8bd a9be
00000360: 53e2 dcbd b804 b8bd 2e80 06be 31ba 94c0
00000370: 7a2d 663f 594f 843f 18e2 873f fb60 6c3f
00000380: 5f55 cabe cc94 293f 824f f43e 8037 b1bc
00000390: 940d ce3d 03bd cc3f 8c1b 3341 04cb 3541
000003a0: 563a 2b41 df6f 3641 4bbc 82c0 c873 debf
000003b0: d1f1 f1bf 83d9 e3bf ef38 00c0 ff49 7d40
000003c0: 4a56 e93e 64f6 1d3f 8f73 2a3f cb7d 1f3f
000003d0: 463c c6be 2ad5 c340 b80a d040 aa98 d440
000003e0: 4696 d740 dcf9 6b40 4bce 68c0 a242 69c0
000003f0: fa42 6ac0 d2da 74c0 c00a c1c0 9fe8 df3f
-0.61338186 -0.7580868 -1.0662597 -1.0592055 3.385498 0.6214248 0.7598925 0.6314162
0.79325855 3.758915 -0.9190893 -1.017588 -0.8710668 1.0710467 0.16565903 6.329472
6.220821 6.088812 9.975356 -4.5277185 1.2611127 1.2888482 1.3750416 1.8788954
0.92671317 -7.5054865 -7.45561 -7.43088 -8.0186615 1.5153359 -5.7385406 -5.666359
-5.5096917 -5.4971 -1.5421149 -4.1433454 -4.7957344 -4.504687 -5.130888 -1.4610962
-8.11516 -7.80733 -8.231825 -8.242726 14.291333 3.5009186 3.6311572 3.7929428
2.9725685 1.1321406 -1.3813926 -1.5228659 -1.545004 -1.6117319 0.71067554 5.8323216
5.849945 5.821402 6.259108 -3.8845403 -5.0899487 -5.2635636 -5.6901045 -4.436173
1.1704432 0.7630125 0.88058573 0.4948407 0.78700507 0.13773516 7.9051733 8.483773
8.374118 8.774011 0.23482561 -3.709849 -3.7546005 -3.7567904 -2.5419662 -3.3356698
-6.674936 -5.9378653 -6.350777 -6.727366 2.3949904 0.36633244 0.2479895 0.2712662
-0.21205907 -0.47599313 -1.853049 -1.896209 -1.7401078 -1.6431503 -5.089034 0.94784373
1.0647845 1.0410237 1.6040593 1.7994545 1.1057712 1.0089993 1.1961745 1.3661009
0.6414808 2.418441 2.3972287 2.5276728 2.3416612 0.7513715 0.27384827 0.17873949
0.23027615 0.84783584 3.313781 -5.8073783 -6.1458807 -6.0673976 -6.1363997 -2.2631025
0.69361085 0.83441937 0.2351665 0.5967933 5.892407 -5.699954 -5.7115154 -5.6766963
-5.724032 6.469806 0.9003147 0.9572688 0.7020702 0.78416365 -0.06940411 3.0346568
3.218859 2.8708093 3.5327456 7.512058 4.1694555 4.4543185 4.0189166 4.058386
1.8334966 -3.9046695 -4.397963 -3.9462404 -4.4347854 -0.8697888 0.5168988 0.48956043
0.59885126 0.45479682 -0.77192116 -0.46966234 -0.30425596 -0.40178367 -0.43057343 0.62839466
1.4856256 1.4452399 1.4533945 1.3059232 6.610649 -3.6729076 -3.895378 -3.4212852
-3.6340673 -6.021785 7.0569687 7.199973 7.2025456 7.3157673 6.909505 7.0775557
7.445146 7.722365 8.323067 -10.468276 1.5273446 1.456824 1.2646573 1.1826216
-1.1016446 -3.2175455 -3.0532498 -3.2509642 -3.2903726 -5.897045 0.17354672 0.07602068
-1.2353477 -0.98505247 5.018685 1.3013383 1.0276762 1.053188 4.301456 -3.4493082
5.1334453 5.365834 5.7231236 5.9176774 -3.311607 4.446833 4.0576124 4.1613026
4.2413273 -1.3315699 -7.5907645 -7.7065263 -7.9202347 -9.566118 4.9181156 -0.33152556
-0.107853554 -0.08985275 -0.13134834 -4.6477284 0.8991314 1.0336715 1.0615873 0.9233548
-0.39518258 0.6624267 0.4771691 -0.02163291 0.100611836 1.5995182 11.194225 11.362064
10.701742 11.402312 -4.085485 -1.7379084 -1.8901922 -1.7800754 -2.003475 3.9576414
0.45573646 0.6170409 0.6658258 0.6230132 -0.3871786 6.119771 6.5013084 6.6436357
6.737094 3.6871252 -3.6375911 -3.644692 -3.660338 -3.8258557 -6.0325623 1.7492865

lstm.weight_hh_l0 f4 [256, 64]
00000000: 243e 6f3f fb07 ce3e 448e 93c0 35c2 0640
00000010: cb7d 6f40 60ec a53f 4e82 06c0 bd21 873f
00000020: 924f 96bf e1e6 29c0 f57b cf3f ba81 5040
00000030: e22b 86bd d59e 2c40 46fb 8bbe 01f8 203c
00000040: 521c de3f a6d2 d8be 0318 b43f 04e3 d1bf
00000050: ad8b 8abe fd00 a6bf 811d f93f f082 eb3e
00000060: c95b 433f 7ef1 d8be 8c79 303f d975 4f40
00000070: c370 0a40 f543 7abf 5a04 9f3e e2bc aeba
00000080: 866e bd3f 36ac a03f 5743 18c0 22cf bd3e
00000090: cf33 9d3f f0f8 bb3f b663 0540 5564 f8bf
000000a0: ef48 943f 1a7b ee3e 4ac3 3fc0 6922 1140
000000b0: 827c c4bf b601 8b3f 7417 ae40 525a 793f
000000c0: 4ea5 2740 3c59 8d3e 9547 12c0 1184 a23f
000000d0: dd0d a740 14bd 9bbf bb62 ab3f 6ef1 693f
000000e0: f066 413f 311d 23bf 8eb7 0abf e5a9 613f
000000f0: 0702 10bf ece7 8fc0 ce26 0a40 4826 7dbd
00000100: 5933 7c3f 8764 34c0 84f7 1ac0 d34d ebbe
00000110: db6e 0f3e 699e 0cbf 0a12 503f f171 85be
00000120: e1de 02be de70 2640 daed 3bc0 35ea 22c0
00000130: d023 df3e 285a 3640 98f6 683f c4fc 5b40
00000140: 1f30 7fc0 9d0a a9bd adf4 39bf ada8 bebe
00000150: 6e94 18c0 55dd 7abf 3e3c 863d 0455 68bf
00000160: 5ded 1dc0 90fe 0c3f 1502 22bf c0d4 54bf
00000170: 926a 313e e7c6 64be 4db0 c5c0 4cdc 0340
00000180: 9730 6cbc e1f6 01c0 e3a2 b9bf 8073 05c0
00000190: b785 8340 7e75 73bf 0cd2 de3d 8ae0 523f
000001a0: e10c c03f ffa3 b2bf 78b4 423f f87e f9be
000001b0: b4e8 81c0 d488 b7bf 1e63 63c0 367f 3ebf
000001c0: 1ae1 42bf 2972 4c40 b2de 6e40 1c90 efbd
000001d0: cb66 86bf c13d 1440 40e4 b0bd 6454 b5be
000001e0: 0091 963e 1512 323f 5ec6 a040 7f27 11c0
000001f0: 8532 86c0 5c72 6240 234a 5abf fc93 693e
00000200: ee8c d7bf 1475 b8c0 bdad 1941 d7d2 d7c0
00000210: 35ea afc0 49f2 63c0 98ad ca40 eddf adc0
00000220: 7f30 bf40 160d 2dc0 4c7a b2bf 78b6 96c0
00000230: ddc9 c9bf d1a4 5cbe 15ba 9bc0 69de 25c1
00000240: dad3 0b3f 8e4d 0841 4ed4 fbbf 8a1c 5840
00000250: 4f40 4241 3d72 cc3e 94ee d9c0 4bb0 4cc0
00000260: d385 d83e 2153 f2bf daf5 92bf f5c6 0e41
00000270: 1ff2 8ac0 323d aa3f ca4b 43c0 69e5 6a40
00000280: e897 85bf 209c 9ebf bcaf c13f 332a 8ebf
00000290: 267c e9c0 a891 a9c0 79d9 e740 3e35 cf40
000002a0: 4f4a cabf e5b8 06c0 43f7 eb40 7c91 c13f
000002b0: ac6d 9540 6744 3240 f3e3 1dc1 5dfb 43bf
000002c0: 9493 5bbf c66d 303f b9b1 77c1 c788 043e
000002d0: 7b3e 4140 bb16 553f 44a9 febf e42c 183f
000002e0: e5a0 ef3f f710 db40 8b02 0d41 f549 3cc0
000002f0: 2d36 0640 b1b9 a940 b621 cac0 de3b 1240
00000300: bc49 6a40 22f3 3940 fcd0 07c1 8d6f 2041
00000310: 2d0a 5441 0aac c43f 03ff 14c1 348a 53bf
00000320: c5af 7dc0 d8e2 11c1 b276 b43f 6012 48bf
00000330: 46d7 8140 ece9 f63e 3814 91c0 f8d5 28c1
00000340: 521b ca3f 8afa b0c0 9922 ac40 7bcc 6340
00000350: a19f e2bf 1507 053f 6956 a540 fb2f c640
00000360: d14f d940 dae5 0640 1a7c 9440 6b2c be40
00000370: 33b0 9ec0 9c1a 84c0 dc24 0041 a9b1 21c1
00000380: 2808 37c1 68b2 bf40 f2a7 8b3f 1c8f f840
00000390: 4e13 de3e 09b2 c640 e7ba 9cc0 0da3 3ec1
000003a0: 0945 3740 9e6a 9cc0 9dfc 40c1 ab53 0a40
000003b0: 528c 84bf 35f8 b8bf 83c2 05c0 cbf3 d43f
000003c0: 18ad e240 51c7 d2bf e692 3340 fe38 20c1
000003d0: 796e 2c41 e834 23c1 201e 4ac0 1260 2fc1
000003e0: 4c1a 053f 9126 9bc0 f669 e5bf d5bb a040
000003f0: 62ce 3b40 e076 32c0 0cf3 6540 c826 8b3f
0.93454194 0.40240464 -4.6111164 2.1056035 3.7420528 1.2962761 -2.1017032 1.0557171
-1.1743033 -2.6547167 1.6209704 3.257918 -0.06551339 2.6971943 -0.27340144 0.009824754
1.7352393 -0.42348212 1.4069828 -1.6397405 -0.2705969 -1.2969052 1.9462129 0.45998335
0.7631193 -0.42371744 0.68935466 3.2415679 2.1631324 -0.97759944 0.31058007 -0.0013331438
1.4799354 1.2552555 -2.37911 0.37072092 1.2281436 1.4685345 2.0842109 -1.9405619
1.1584758 0.46578294 -2.9962945 2.2677252 -1.5350497 1.0859897 5.440363 0.9740344
2.6194644 0.27607143 -2.285619 1.2696553 5.2204423 -1.2167077 1.3389505 0.9138402
0.75547695 -0.6371642 -0.5418633 0.88149863 -0.56253093 -4.497061 2.1586185 -0.061804086
0.9851585 -2.8186357 -2.4213572 -0.45957813 0.14007132 -0.54929215 0.81277525 -0.26063493
-0.12780334 2.6006389 -2.9363923 -2.5455449 0.4358201 2.8492527 0.9100127 3.4373026
-3.987312 -0.082539774 -0.7263897 -0.37238064 -2.3840594 -0.97993976 0.06554459 -0.90754724
-2.4676125 0.5507593 -0.63284427 -0.8313713 0.1732581 -0.223415 -6.177771 2.0603209
-0.014415882 -2.0306933 -1.4502834 -2.0851746 4.1100726 -0.95101154 0.10879907 0.8237387
1.500393 -1.3956298 0.76056623 -0.48729682 -4.059656 -1.4338632 -3.5529246 -0.7441286
-0.7612473 3.1944678 3.7323422 -0.116974086 -1.050012 2.3162692 -0.08637285 -0.35415947
0.294075 0.6955884 5.0242147 -2.2680357 -4.193667 3.53823 -0.85269374 0.22810358
-1.6839883 -5.764292 9.604917 -6.7444873 -5.4973397 -3.561663 6.3336906 -5.4335847
5.97467 -2.7039237 -1.3943572 -4.709774 -1.5764729 -0.21547247 -4.866465 -10.366799
0.54620135 8.518934 -1.9674165 3.376742 12.1407 0.39930907 -6.8103733 -3.19826
0.422896 -1.8931619 -1.1481278 8.9235735 -4.342056 1.3299925 -3.0515008 3.670252
-1.0436983 -1.2391396 1.5131755 -1.1106628 -7.296405 -5.2990303 7.245297 6.4752493
-1.5803927 -2.105035 7.3739333 1.5122523 4.6696377 2.785425 -9.868152 -0.76555425
-0.8577206 0.689175 -15.480889 0.12942801 3.0194385 0.8323781 -1.9895406 0.594435
1.8720976 6.845821 8.813121 -2.942014 2.0970566 5.3039174 -6.316615 2.284904
3.6607504 2.9054646 -8.488522 10.027234 13.252484 1.5365002 -9.312259 -0.82632756
-3.9638531 -9.117882 1.4098723 -0.7815304 4.0575285 0.48225343 -4.533718 -10.552238
1.5789587 -5.5305834 5.3792233 3.5593555 -1.7704965 0.5196393 5.166798 6.193357
6.790993 2.107779 4.640149 5.942922 -4.9590087 -4.128248 8.008999 -10.105874
-11.439491 5.990528 1.0910628 7.7674694 0.43374103 6.209233 -4.897815 -11.914807
2.8635886 -4.888015 -12.061673 2.1613567 -1.0355322 -1.4450747 -2.089997 1.66369
7.0836296 -1.6467077 2.805841 -10.013914 10.776971 -10.200417 -3.1580887 -10.960955
0.5199325 -4.848458 -1.7922962 5.0229287 2.9344716 -2.7885056 3.5929594 1.087121

lstm.bias_ih_l0 f4 [256]
00000000: 6cb0 00c1 4392 1f41 2d89 0641 5d59 6040
00000010: 9e67 c940 5457 f53f f532 a2bf 3ec0 c3bf
00000020: 362f 4ec0 ce24 8640 db41 3c40 7200 3cc1
00000030: 38c4 1740 73ee 2c40 2801 89c0 59a4 a740
00000040: abea 723f 3880 9d40 29f7 bd3f dada d040
00000050: 176f f740 c3c9 19c0 b947 5540 9629 0ac0
00000060: 1751 86bf bdae 33c0 5748 8d40 b4e8 b43f
00000070: 1479 f3c0 4d49 50c0 afc5 b640 87ba de40
00000080: 7a4b 3f3f 654c abbf d702 02c0 bf62 9dc0
00000090: a128 e840 527e 8f40 8845 2241 4b19 c040
000000a0: 8de4 22c0 c1f5 09c1 2474 df40 c3e9 a8c0
000000b0: b111 7740 d166 da40 b5e1 19c0 ba85 4e40
000000c0: 9d85 8240 dba4 eac0 766a 8740 be99 2cc1
000000d0: 9633 e940 3b7c 3ec0 d831 523e e256 a340
000000e0: 4a42 68c0 08eb 0e41 048c aac0 0d71 06c1
000000f0: e7d9 0ec1 5ce2 1340 34a4 d640 54fd afbf
00000100: 4ebe 0140 7135 753f 7993 68c0 ee61 7040
00000110: 0b8e 6d40 d3cd 7a40 b1c2 fc3f f09f 9a40
00000120: 118c 6b40 50cf 5ebf 3316 973e 4cce cd3f
00000130: a448 c03f cfe0 80bf 73d6 4e40 55da 24c0
00000140: 296b e73f 6e39 8940 9689 9f3f 66ec b43f
00000150: 5181 01c1 df40 d6bf 4752 b23f 1f4c 97c0
00000160: 7d8e 6abf a4cd 8640 ada2 023f c3fd b7c0
00000170: 5b53 4940 9846 c5be 1474 8540 701d a840
00000180: fc71 4ec0 09ef 8440 f6d0 a13f 393f f9be
00000190: 31a0 80c0 667f 063f 6c4b 49c0 1348 8640
000001a0: 046d 00bf 6d30 c03f 6857 b4c0 11eb ed40
000001b0: adb6 3cc0 f068 aa40 d246 9b40 6233 02c0
000001c0: 68ba 3740 a1a3 fb3f 8b3f 4640 4a18 aebf
000001d0: 1899 e7c0 078a 22c0 7c0e 453f c8f7 c240
000001e0: 478b 15c0 4465 7540 9624 25c0 a04f 453f
000001f0: f87e 15bf 0ea4 11c0 a28a 12c0 0e90 8fc0
00000200: ec66 0540 665f 9dc0 6c35 2241 6a84 82c0
00000210: 5411 76c0 380d 80c0 c90c 8f40 35c7 1cc0
00000220: c4a4 7140 3b24 1b3f 93ac a6c0 dc69 1dc0
00000230: 9252 46c0 670d 51c0 31a5 89c0 71eb 53c0
00000240: 70b3 83c0 5166 b640 407b bdc0 5bc9 ae40
00000250: 32a4 62bf 2d60 d6bf f36e 1bc0 333f f13f
00000260: e7c1 6d3f 9619 b0be 129d b0c0 75b9 ca40
00000270: 6bf7 dfc0 6204 f73f 0dc0 b2c0 ec4f a6bf
00000280: 4950 8740 047e 89bf 59c0 1d41 b03b 11c1
00000290: db61 f0bf 9843 0341 5d91 5540 90e6 a340
000002a0: a210 0c40 fa75 5cc0 3950 84c0 49c4 dabf
000002b0: 4b71 99bf 36d5 1840 17a9 29c0 25a9 4cc0
000002c0: b796 41c0 8867 db40 cf4b 8dc0 ccbf b53f
000002d0: 053f 8ec0 7681 4240 fd21 0cc0 7fb7 1040
000002e0: 44a6 2c3f 6393 7a3f 1684 e33e 638d e7c0
000002f0: 97c9 b0be 8e03 5640 7de4 a140 e9f0 f4bf
00000300: 5058 843f 348c 8740 df04 0c41 5c6b c540
00000310: 9380 d740 7283 96bf 709f 8fbe 75f6 74c0
00000320: 440b 18bf d2f6 2ec1 90af 14c0 d2fb 7540
00000330: 4060 e3bf 167b 70c0 4f9f f8c0 2aba e33d
00000340: 1064 44c0 3bdb 4340 bfd6 0ac1 e84c 6fc0
00000350: 2872 fc40 6997 87c0 f23d 57be ceff 683f
00000360: 5c4c 0bc1 cb54 eabf e93a aac0 d404 cc3f
00000370: 3d9e 4d40 18c3 01c0 e777 9540 4ee1 e540
00000380: 97e0 04c0 6da2 f5bc 050a 0d40 6a61 f940
00000390: 5eb3 d7be b4ca 8040 5f74 9bbf 6aa7 8340
000003a0: 2f41 82c0 dee9 983f cc0c 9840 5393 a5c0
000003b0: 2a14 a0bf d6b8 2740 d2e4 0441 6ec4 d7bf
000003c0: ca13 afbf fa26 2340 63f5 59c0 86b9 db3e
000003d0: bda6 b740 e31c 8540 6b97 d4c0 d42a bd40
000003e0: bb3d 86c0 2384 28c0 ecdc 8cbd 33a3 cfbf
000003f0: c467 0640 309b 8bc0 33a1 7540 2b09 76c0
-8.043072 9.973208 8.40849 3.5054543 6.2938986 1.9167275 -1.2671801 -1.5293043
-3.2216315 4.1919928 2.9415195 -11.750109 2.3713512 2.7020538 -4.281391 5.238812
0.94889325 4.9219017 1.4841052 6.5267153 7.732311 -2.4029396 3.3325026 -2.1587882
-1.0493497 -2.8075402 4.4150805 1.4133515 -7.60853 -3.254474 5.7116313 6.9602695
0.74724543 -1.3382689 -2.0314233 -4.918304 7.2549596 4.48417 10.141975 6.0030875
-2.5451996 -8.6224985 6.9829273 -5.2785354 3.8604548 6.825051 -2.404401 3.226912
4.07881 -7.332624 4.2317457 -10.787535 7.287547 -2.9763324 0.20526826 5.104356
-3.629046 8.932381 -5.3295918 -8.4026 -8.928199 2.3106909 6.7075443 -1.3749185
2.0272403 0.9578467 -3.634001 3.7559772 3.7117946 3.9188125 1.9746915 4.8320236
3.680424 -0.87035084 0.29509124 1.6078582 1.5022168 -1.0068606 3.231839 -2.575826
1.8079578 4.2882605 1.2463863 1.4134643 -8.094071 -1.6738547 1.3931359 -4.728042
-0.9162367 4.2126026 0.51029474 -5.749727 3.1457126 -0.3853042 4.1704197 5.2535934
-3.225707 4.154179 1.2641895 -0.48681048 -4.0195546 0.52538145 -3.1452284 4.196298
-0.50166345 1.5014778 -5.6356697 7.4349446 -2.9486496 5.3253098 4.852395 -2.0343862
2.8707523 1.965931 3.0976284 -1.3601162 -7.237438 -2.5396745 0.76975226 6.0927467
-2.3366258 3.8343058 -2.580358 0.77074623 -0.58396864 -2.275638 -2.2897115 -4.486335
2.0844069 -4.9178953 10.138042 -4.078664 -3.8448076 -4.0016136 4.4703107 -2.4496586
3.7756815 0.6060216 -5.208566 -2.4595861 -3.0987897 -3.266443 -4.301415 -3.3112452
-4.115654 5.69999 -5.921295 5.4620795 -0.8853179 -1.67481 -2.4286468 1.8847412
0.92873996 -0.3439452 -5.5191736 6.335139 -6.9989524 1.9298213 -5.5859437 -1.299314
4.2285504 -1.0741582 9.85946 -9.077072 -1.8779863 8.204002 3.3369973 5.121895
2.1885152 -3.4447007 -4.134793 -1.7091151 -1.1987699 2.3880134 -2.6509454 -3.1978238
-3.024824 6.856388 -4.415504 1.4199157 -4.445193 3.0391517 -2.1895745 2.2611997
0.674412 0.97881144 0.4443671 -7.236009 -0.345288 3.343967 5.0591416 -1.913602
1.0339451 4.2358646 8.751189 6.1693554 6.734445 -1.1758864 -0.2805133 -3.8275425
-0.5939219 -10.935259 -2.3232155 3.843495 -1.7763748 -3.7575126 -7.769447 0.11119492
-3.0686073 3.0602558 -8.677428 -3.739069 7.888935 -4.2372327 -0.21019724 0.91015327
-8.706142 -1.8307127 -5.319691 1.5938973 3.212783 -2.0275326 4.6708865 7.183753
-2.0762079 -0.029984677 2.2037365 7.7931414 -0.42129034 4.024744 -1.2144889 4.1141863
-4.070457 1.1946371 4.751562 -5.174234 -1.2506154 2.6206565 8.305864 -1.685682
-1.3677914 2.549254 -3.4056022 0.4291498 5.739104 4.159776 -6.6434836 5.911478
-4.1950355 -2.633065 -0.06878075 -1.622168 2.1000834 -4.362694 3.8379638 -3.8443096

lstm.bias_hh_l0 f4 [256]
00000000: 2263 01c1 df12 1f41 134d 0541 e94d 6340
00000010: c064 c440 5ff3 f73f 82cf a6bf d497 b7bf
00000020: c902 4ac0 92ad 8c40 71f8 4140 8e4e 3bc1
00000030: 7220 0c40 87cc 3240 58b8 86c0 cb1d a840
00000040: 4bb6 523f 006b 9c40 1bc2 ce3f 98bd d240
00000050: af6c f540 e6e5 1bc0 1982 5040 5cda 0fc0
00000060: fa4f 85bf 11e5 2dc0 ad1f 9240 eca8 b53f
00000070: 6c70 f6c0 2908 46c0 8b3b b940 3f37 dc40
00000080: ceb6 153f 8dad bcbf 847a 03c0 3967 a1c0
00000090: dd3f e740 cf1c 8b40 d0be 2041 ff3e c140
000000a0: e1e6 1dc0 e1bb 0cc1 72dc dd40 f520 aac0
000000b0: e5ad 7f40 41ef da40 17d1 1bc0 3649 5140
000000c0: 8882 8040 177f eac0 62a9 8640 fcb5 2ac1
000000d0: c6e0 e340 5f45 3fc0 3a92 203e c47a a140
000000e0: 44e7 6cc0 53e4 1041 e683 aac0 df0d 04c1
000000f0: 3ee7 0fc1 448f 1a40 0e2e d440 cb5a aabf
00000100: f9e4 0d40 fd7b 5c3f 2724 6dc0 36fb 6f40
00000110: a5df 7640 0973 7040 02d7 f43f 420f 9c40
00000120: 5dae 6740 8729 57bf f0e6 fd3d 38cd cb3f
00000130: dd41 c43f ed3d 89bf 41ac 4e40 3849 2bc0
00000140: cef0 d93f 8b77 8740 2c2a ac3f e240 c73f
00000150: 9e30 00c1 1915 e8bf d2d9 ba3f fd99 96c0
00000160: 502c 62bf bb9b 8440 55fb db3e 3534 b6c0
00000170: e7dc 4540 c941 bfbe 2798 8240 0deb ab40
00000180: 81b0 53c0 84ed 8440 2684 9f3f 1004 0abf
00000190: 983a 7fc0 2879 2d3f cce3 49c0 5496 8640
000001a0: 6cdd e5be a31c ca3f a91d b2c0 690f ed40
000001b0: f19f 2fc0 0cbe ac40 4c78 9b40 1c71 eebf
000001c0: 4050 3940 f13d 0740 b593 4140 e9c6 b2bf
000001d0: 7443 e5c0 998a 2bc0 6600 063f a44d c440
000001e0: 8098 10c0 e562 6c40 7fee 27c0 2ea7 4f3f
000001f0: 7fce 1cbf 0b9e 0dc0 bca7 0ec0 4f25 90c0
00000200: 3636 0d40 eec8 9ec0 641f 2241 6759 86c0
00000210: 984f 7cc0 f7c3 7fc0 70c8 9040 6cad 17c0
00000220: 0596 7340 39f1 003f 6e81 a7c0 382c 27c0
00000230: 0995 47c0 030a 59c0 aa9b 8ac0 6534 4dc0
00000240: 68e8 86c0 1ba1 bc40 96f0 b8c0 0812 b240
00000250: c0f1 48bf 0d80 e2bf b451 1cc0 0555 ff3f
00000260: f2cd 613f 1aad 8ebe c5b6 afc0 bdfd c940
00000270: 50e7 dfc0 b243 e03f 7ea2 b7c0 28fc a8bf
00000280: 6898 8640 e5d5 90bf 77a5 1e41 7106 0fc1
00000290: 6a71 00c0 baa8 0341 9510 5540 506c a540
000002a0: da14 0d40 b831 63c0 364c 84c0 5e88 dcbf
000002b0: c506 8fbf 9af3 1e40 add4 2cc0 151b 4ec0
000002c0: fb1b 42c0 facf d940 e04e 8fc0 b6f0 a53f
000002d0: 757a 8fc0 c27f 4a40 170c 10c0 51cf 1940
000002e0: 448e 4e3f 1d5f 7b3f 55b1 aa3e 32b8 e8c0
000002f0: ffb6 afbe 9eba 5c40 7def a040 334f f9bf
00000300: e34b 8e3f 46c4 8940 4e78 0a41 a21d c640
00000310: 4537 d540 2f15 87bf 8e37 e2be 5366 7cc0
00000320: 5018 47bf 9070 2fc1 9608 17c0 8db5 7b40
00000330: be57 debf 1496 68c0 5146 f8c0 4487 ab3e
00000340: 8e61 48c0 d113 3640 60a4 0ac1 5294 63c0
00000350: 8040 f640 ecec 87c0 e79a f7bd 2fa6 4d3f
00000360: 8279 09c1 a6c9 01c0 2f23 a8c0 4480 c63f
00000370: bb70 5640 384a 03c0 b9b3 9140 fae9 e340
00000380: 697e 06c0 a95b f7bb e7e4 0d40 e82f fa40
00000390: c75f ebbe 37fa 7940 6a69 8ebf c81a 8040
000003a0: 4faa 82c0 e5f0 a03f f84d 9940 5da0 a2c0
000003b0: 4881 95bf 4908 2a40 2083 0241 fd53 e4bf
000003c0: ecf1 9fbf 22c7 2540 9699 58c0 26b8 873e
000003d0: 1b14 b640 0b4a 8640 b91a d5c0 56c9 bb40
000003e0: 17d1 85c0 235f 28c0 76fd 9fbc 05a4 d5bf
000003f0: e8ac fe3f 864c 8bc0 6380 6840 72d2 80c0
-8.086702 9.942107 8.331317 3.5516303 6.1372986 1.9371146 -1.3032076 -1.4343209
-3.15642 4.396188 3.0307887 -11.706678 2.1894803 2.7937334 -4.210003 5.253637
0.82309407 4.8880615 1.6152986 6.585644 7.669517 -2.435907 3.2579405 -2.2477026
-1.0415032 -2.717106 4.5663667 1.4192176 -7.7012234 -3.094248 5.7885184 6.881744
0.5848206 -1.4740463 -2.0543528 -5.0438504 7.226546 4.3472667 10.046585 6.03894
-2.4672167 -8.795869 6.93316 -5.316523 3.9949887 6.841706 -2.4346368 3.2700934
4.015934 -7.328014 4.2081766 -10.66943 7.121188 -2.988609 0.15680781 5.046236
-3.7016153 9.055743 -5.328601 -8.2533865 -8.993956 2.4149942 6.630622 -1.3308958
2.2171004 0.8612669 -3.7053316 3.7497077 3.8574002 3.7570212 1.9128115 4.8768625
3.6200173 -0.8404774 0.123975635 1.5922003 1.53326 -1.0722023 3.2292635 -2.676344
1.7026613 4.2333426 1.345037 1.5566676 -8.011869 -1.8131438 1.4597723 -4.7062974
-0.88348866 4.14401 0.4296519 -5.693873 3.0916078 -0.37354878 4.0810733 5.3724427
-3.307648 4.1539936 1.2462204 -0.5391245 -3.9879513 0.67762995 -3.1545286 4.2058506
-0.44895494 1.5789989 -5.5661206 7.408131 -2.744137 5.398199 4.8584347 -1.8628268
2.895523 2.1131556 3.0246403 -1.3966953 -7.164484 -2.6803343 0.5234436 6.1344776
-2.2593079 3.693536 -2.6239316 0.8111447 -0.6125259 -2.2127712 -2.2289877 -4.5045543
2.2064338 -4.9620275 10.132664 -4.1984134 -3.942358 -3.9963357 4.5244675 -2.3699598
3.8060315 0.50368077 -5.2345495 -2.612074 -3.1184714 -3.391236 -4.331502 -3.206323
-4.21587 5.894666 -5.7793684 5.564701 -0.7849388 -1.7695328 -2.4424868 1.9947821
0.8820487 -0.2786644 -5.4910607 6.312224 -6.9969864 1.7520659 -5.7385855 -1.3201952
4.2061043 -1.1315275 9.915397 -8.939073 -2.0069222 8.228693 3.329137 5.1694717
2.2043977 -3.5499096 -4.134303 -1.7229116 -1.1173941 2.4836183 -2.7004807 -3.220403
-3.0329578 6.806638 -4.4783783 1.2964084 -4.4836984 3.1640477 -2.250738 2.4032786
0.8068583 0.98192006 0.3333842 -7.272485 -0.34319302 3.4488902 5.0292344 -1.9477295
1.1116909 4.305209 8.654371 6.1911173 6.662997 -1.055334 -0.4418301 -3.9437454
-0.7777147 -10.964981 -2.359899 3.932956 -1.7370527 -3.63416 -7.7585835 0.33501637
-3.1309543 2.8449595 -8.665131 -3.5559278 7.6953735 -4.247671 -0.12090092 0.803317
-8.592165 -2.0279326 -5.254295 1.5507894 3.3506305 -2.051405 4.553189 7.1223116
-2.1014655 -0.0075487685 2.217096 7.818348 -0.4597151 3.905897 -1.112592 4.003269
-4.0832896 1.2573515 4.7907677 -5.0820756 -1.1680079 2.6567557 8.157013 -1.7838131
-1.2495704 2.590279 -3.3843741 0.26507682 5.6899543 4.1965384 -6.659512 5.868327
-4.1817737 -2.6308067 -0.01953004 -1.669068 1.9896517 -4.3530912 3.632836 -4.025689

fc1.weight f4 [64, 64]
00000000: b0f7 55bf e205 8e40 6ee9 a93f 4cc3 a4c0
00000010: 3eb9 b8bf c39a 95c0 3ca0 aec0 5e9b a5c0
00000020: 2716 8040 095c d73f b41c 0041 4fc0 f4c1
00000030: a5b0 52c1 7109 7f41 7973 63c1 da22 f6c0
00000040: 3c55 36c0 e7e0 8e40 10a3 b9c0 6b6f f141
00000050: a253 d73f f2b6 a63e a489 08c2 d09b 583f
00000060: 82ce 1a40 7ede 403f 9e85 00c2 5e20 c940
00000070: 5e7b f6c1 f6ec 6641 bdd2 28c0 cc1a 2dc0
00000080: dd6a fb40 2c55 7940 54e4 6641 5c27 18c1
00000090: 14a7 ac3f a3c4 3e40 1c53 1340 cbfc b43e
000000a0: cc00 a03f 19e8 03c2 7473 54c1 cd8c 243d
000000b0: 095c 0b40 a8e8 bf40 12b6 22c1 e59b ab41
000000c0: 86cc d0c0 bde0 b341 a9d6 8f3e d54d a640
000000d0: 29e5 4dc0 3635 2e41 67c5 d1c1 15e1 afc0
000000e0: 4396 133a 1e47 9a40 ad47 aa41 30a5 11c1
000000f0: cdb2 9740 e8f0 99c1 a861 1240 2a7a 313f
00000100: fcda 93bf e37d 0d40 71d9 30be fa47 903f
00000110: 43f5 fa3e f143 0ebe a546 afbe b82a 8fbf
00000120: 4b39 a8bf 7934 77c0 c73f 6a3e 8ea9 7d3c
00000130: d183 abbe 1fed b0bf 7f7c 493f 5c21 8fbf
00000140: a666 e53f 67e8 44bf a3f1 2040 a043 44bf
00000150: a751 9abf 5c9d 823f 2890 1f3e 6e90 af3f
00000160: e36b f7be e32e 723f dd5a a73f a7d9 633f
00000170: 7ac3 8fbf a77a f93f 9884 b33c 6bda 35bf
00000180: f840 913d f12a babf 9638 0dbf c5d3 5140
00000190: a0a5 813e 2860 4d40 cd87 9bbf e816 8ebf
000001a0: ed5a 96be 2a99 ddbe 10c1 04c0 9939 5440
000001b0: 04e7 44bf 23c6 2dbf 434f 6dbd 58e6 2b40
000001c0: accb cd3f 506a b4bf d94a 973f ce87 923f
000001d0: c338 5a40 c353 29c0 1364 873f 3989 4f3f
000001e0: 86f1 143f bd71 a8bf 2836 6040 4539 40bf
000001f0: 06a6 a73e 8717 92bf eada 7540 eca7 19bf
00000200: 279e c8be d2b5 1f40 6f2f abc0 d2c0 8740
00000210: 00aa a93f e93a 43bf 2ee2 0ec0 bb34 0640
00000220: 24e7 b8bf 9f4a 38bf 974c 8540 bc0c 113f
00000230: 698d fe3f 8d50 01be 8280 cf3e 3382 17be
00000240: c00f 1840 c8bf 54be 05f4 ed3f a350 93bf
00000250: ff3d 88bf 2aab 673f 4dab 973f 2b11 6b3f
00000260: 46f4 f7be 9f1a 1640 5f83 143f f45a e3be
00000270: e308 853f 7ef4 bc3d cba3 14bf 17ca 13bf
00000280: d1a8 943f 06f6 ffbf 4c18 7cbf d2db 9240
00000290: 97db 97bf 4c1f 393f 1b57 3e3f 3c8d f7bf
000002a0: 6068 85bf 136c d33f a53a 14c0 9ec9 5740
000002b0: 80da 36bf 9644 6cc0 2d5f 0640 0d18 e93f
000002c0: 33f9 0740 6a87 a2bf 980b 923e adf1 193f
000002d0: 3661 4f40 910f 37c0 5800 673f df97 fbbe
000002e0: 0e82 273f bd24 f3bf c7fd c2be 82b2 1c40
000002f0: 3975 333f 61ea 83c0 8176 4340 5262 4ebf
00000300: 73d0 c7c0 1325 4f3f 1b60 61c0 494d 9bc0
00000310: 66a6 da3f 1ad4 bbc0 1e6f e7c0 1f08 c0c0
00000320: 51b4 ac40 f7e9 f240 c84f 0e41 223d e8c1
00000330: 2c6f fec0 e276 b441 d62f 41c1 b7ea 4740
00000340: 845d a2c0 5580 3740 3b05 75bf 5e31 cc41
00000350: 5989 5dbd cd05 653f 2dc3 fcc1 fea5 2640
00000360: c986 f740 9589 4b3e 0fa6 d0c1 cfed 8fbf
00000370: 4846 cbc1 101c 573f fbf7 83c0 c0b9 b13f
00000380: 7eee fb40 12f4 1dc0 9ba7 7e41 4e14 28c1
00000390: 118e eabf 4dd4 0c41 2371 a9c0 cd5b a8c0
000003a0: 20fa 22bf 869e c6c1 39bf 5ac1 d7a9 dcc0
000003b0: 95eb 48bf fef3 2dbf 957f 9dc0 7586 b041
000003c0: 92c6 20c0 821a 4e41 530d 9c40 67bf b641
000003d0: f940 72c0 3491 c2bd cc98 0ec2 ac85 52c0
000003e0: bd37 13bf 7058 2b40 1f8f 9841 c4b6 2ec1
000003f0: f503 a340 6ebb b7c1 af8e a43e ff28 8b40
-0.83581066 4.438218 1.3274362 -5.14884 -1.4431531 -4.675142 -5.45706 -5.1752157
4.002704 1.6824962 8.007008 -30.5939 -13.168126 15.939805 -14.215692 -7.6917543
-2.8489523 4.464954 -5.801155 30.179403 1.6822398 0.3256145 -34.134415 0.8461275
2.4188542 0.75339496 -32.130486 6.285201 -30.810238 14.432852 -2.6378624 -2.7047606
7.856795 3.8958235 14.430744 -9.509609 1.3488488 2.9807518 2.3019476 0.35349116
1.2500243 -32.976658 -13.278187 0.04017334 2.1774924 5.9971504 -10.169451 21.45112
-6.5249662 22.484735 0.2809346 5.197001 -3.2171118 10.887991 -26.221388 -5.496226
0.0005629996 4.8211813 21.284998 -9.102829 4.7405763 -19.24263 2.2872105 0.6932703
-1.1551204 2.2108085 -0.17270447 1.1271966 0.49015245 -0.13893105 -0.34233585 -1.1184912
-1.3142484 -3.8625777 0.22875892 0.0154823195 -0.33499005 -1.3822364 0.7870559 -1.1182055
1.7921951 -0.7691712 2.5147483 -0.7666569 -1.2056168 1.0204272 0.15582335 1.3715951
-0.483245 0.94602793 1.3074604 0.89003986 -1.123153 1.9490556 0.021913812 -0.71036404
0.0709247 -1.4544355 -0.5516447 3.2785504 0.25321674 3.208994 -1.2150818 -1.110074
-0.29366246 -0.43280917 -2.0742836 3.3160155 -0.76915 -0.6788046 -0.057936918 2.685934
1.6077781 -1.4094944 1.1819717 1.1447694 3.4097145 -2.6457374 1.0577415 0.8106876
0.58181036 -1.315971 3.5033054 -0.75087386 0.32743853 -1.141343 3.8414865 -0.60021853
-0.3918316 2.4954724 -5.34954 4.2422876 1.3255005 -0.76261765 -2.232555 2.0969684
-1.4445539 -0.7198886 4.1655993 0.56660056 1.9886905 -0.12628384 0.4052773 -0.14795761
2.3759613 -0.20776284 1.8590094 -1.1508983 -1.064392 0.9049555 1.1849152 0.9182307
-0.48428553 2.3453748 0.58012956 -0.4440533 1.0393337 0.09226321 -0.5806243 -0.5773024
1.1614019 -1.9996955 -0.98474574 4.5893335 -1.1863889 0.7231338 0.7435166 -1.9339976
-1.0422478 1.6517357 -2.3160794 3.3716807 -0.71427155 -3.6916862 2.099559 1.8210465
2.124585 -1.2697575 0.2852447 0.6013439 3.2403083 -2.860325 0.902349 -0.49139306
0.6543282 -1.8995587 -0.38084242 2.4483953 0.7010074 -4.1223607 3.054108 -0.80618775
-6.2441955 0.80915946 -3.5214908 -4.853184 1.7082031 -5.8696413 -7.232314 -6.0009913
5.3970113 7.59106 8.894478 -29.02985 -7.951071 22.558048 -12.074179 3.1237009
-5.0739155 2.8672078 -0.95711106 25.524105 -0.054086063 0.89461976 -31.5953 2.6038814
7.7352033 0.19876702 -26.081083 -1.1244448 -25.409317 0.84027195 -4.124021 1.3884811
7.872863 -2.4680219 15.915919 -10.504957 -1.8324605 8.801831 -5.2950606 -5.261206
-0.6366291 -24.827404 -13.671685 -6.8957324 -0.7848447 -0.6795043 -4.921824 22.065653
-2.5121198 12.881472 4.8766265 22.843458 -3.7852156 -0.095003515 -35.649216 -3.2894087
-0.57506925 2.6772728 19.069883 -10.9196205 5.094233 -22.966518 0.3214011 4.3487544

fc1.bias f4 [64]
00000000: a618 1242 eaa1 7fbf a7dd 45c0 d2fa 2f42
00000010: ecec 0b42 9d43 1d42 d50e dbc0 5e73 2442
00000020: 5afe 1a42 9a2a 1942 b756 2742 c7a0 2042
00000030: 7808 1142 8971 1542 14fd 1142 a229 2442
00000040: 38c5 0f42 c20f 1442 54b0 3042 0277 1342
00000050: ab28 0642 c6ec 1042 cca8 1642 8b51 1242
00000060: 7b67 0942 05e4 1342 7fe7 3342 2dd0 2542
00000070: 4402 1e42 e8d8 2142 b2c0 1042 ac28 1442
00000080: d928 2642 ff6e 0a42 b70f 2142 f070 1342
00000090: a3e5 0e42 1a73 0c42 fdeb 1c42 fa18 0f42
000000a0: 7841 3042 29f8 1e42 f91a 1842 67ff 2942
000000b0: c898 3142 c108 1f42 f713 68bf 507f 3242
000000c0: 77e9 0b42 f512 1442 41f3 3542 f4f4 1e42
000000d0: 45a5 2142 9214 1442 0105 2142 cff1 0842
000000e0: 24fd 1642 a108 2942 504a 1142 a9bc 1242
000000f0: 1b8a 2f42 a0e6 1342 7763 1542 a4b0 1442
36.52407 -0.99856436 -3.0916536 43.99494 34.98137 39.31603 -6.8455606 41.112663
38.74839 38.291603 41.834682 40.15701 36.25827 37.360874 36.497147 41.040657
35.942596 37.01539 44.172195 36.86622 33.539715 36.231224 37.66484 36.57963
34.351055 36.972675 44.97607 41.453297 39.502213 40.461823 36.18818 37.03972
41.53989 34.608395 40.265347 36.86029 35.724255 35.112404 39.230457 35.77439
44.063934 39.742344 38.02634 42.499416 44.3992 39.75855 -0.90655464 44.62433
34.977993 37.018513 45.487553 39.739212 40.411396 37.02009 40.254887 34.23614
37.747208 42.258427 36.32257 36.68424 43.88487 36.97522 37.347134 37.1725

fc2.weight f4 [1, 64]
00000000: f389 7c41 dbc2 0cbe 9da2 43be 000c b241
00000010: 8698 9141 7b11 a941 c3ab e1c1 846e aa41
00000020: 1d80 b741 a61e 8941 e2cb 9541 2728 c741
00000030: 45cf 8241 f723 8d41 92bf 8a41 3bf2 c441
00000040: 896c 8d41 e1f7 8241 76cd 9a41 d963 8c41
00000050: 0249 8841 1863 9141 bbe7 8241 fb8c a041
00000060: 0525 8b41 cc68 8741 d81e 9941 d332 8b41
00000070: ce42 b341 a2ed af41 d3cc 8941 042b 8641
00000080: c72e bc41 1ab6 6b41 dcb4 a141 04e3 8641
00000090: c39f 8241 4b6a 7d41 2a5f 8541 de35 9441
000000a0: 66f7 9441 5633 a941 f893 8a41 db3e 8c41
000000b0: 95d5 9b41 3290 b041 2d2c 73be ff3e 7d41
000000c0: af64 9341 1d06 7941 972e 9041 5add 8b41
000000d0: 1df7 9f41 d09d 8c41 dcac 8441 fed4 8b41
000000e0: 3b9f 9741 6af6 9c41 b100 8841 5137 8441
000000f0: c0a9 9841 124d 8441 3d8b 8841 55bd 9041
15.783679 -0.13746206 -0.19105001 22.25586 18.199474 21.133535 -28.208868 21.303963
22.937555 17.139965 18.724552 24.894606 16.351206 17.642561 17.34354 24.618277
17.677996 16.371035 19.350323 17.548754 17.035648 18.173386 16.36315 20.068838
17.393076 16.92617 19.14006 17.399817 22.40762 21.991032 17.225012 16.771004
23.52284 14.731958 20.21331 16.860847 16.328009 15.83845 16.671467 18.526302
18.6208 21.150066 17.32225 17.530691 19.479288 22.070408 -0.2374732 15.82788
18.424162 15.5639925 18.022749 17.483082 19.99566 17.577057 16.584404 17.479
18.95275 19.62032 17.000338 16.52701 19.082886 16.537632 17.067987 18.092447
